backend/ml_models/TOTS3.SA/model.pt (torch, 807686 bytes, 9 tensors)

lstm.weight_ih_l0 f4 [512, 5]
00000000: 9f18 303d 973f 473d 80ce 153e 24b4 1a3e
00000010: e0b3 a1bd 44e6 243d f381 32bc 69cb e53c
00000020: 22fe a83d baef d8bd b1fc cc3d 10d0 8c3c
00000030: a530 b23d e1f5 3a3d a16e b2bd 926f 483c
00000040: 1914 ebbc b6d9 6ebc a408 c73d 1c0b 48bd
00000050: c5a9 e73d 55a1 973d 2712 e63d 73a8 0f3e
00000060: 2720 303d 0abd 033e 4118 083e 64ad 003e
00000070: 5bbc 8dbb 0506 6cbb f85d 95bc 548c a83d
00000080: 9ba3 1c3e 95f1 3e3e 0b2b fb3c bca0 bd3d
00000090: f93b bc3d b7bf c43d 1d9a 43bd 97cf 94bd
000000a0: 8171 aa3d 6dfc e13c ab8f 323d f4a7 c03d
000000b0: a8d0 7fbe 5eea be3d 0488 cebc 2bc7 0bbd
000000c0: fc16 1abc 6e09 9fbd da2a 3b3d b6f9 233b
000000d0: ba47 d03d 9d91 b8bb bf9d 30bd cd90 c03d
000000e0: 27b0 df3d 5cc6 8b3d 1e73 953d 9968 1dbc
000000f0: 5904 983d 6778 fb3d 9e7d 973d 5c92 053e
00000100: 6e8b 5ebd c7bb e63d 5d7d 633d 89b7 0fbd
00000110: c39c 513c a69e 573d b564 1a3b c1d3 f53c
00000120: a481 fcbb 41bb c2bb 70d0 21bd 65c1 f13c
00000130: bdf7 bd3d 855e bf3d 0316 c13d 501c edbd
00000140: 16c5 bc3d 3b6a dd3d 50e0 5a3c 3684 e5ba
00000150: 849e 1d3c c6d0 c63c eeb0 8d3d b33d 19bc
00000160: 97f0 b73d d189 0fbe 4e36 87bd dc62 323c
00000170: b505 aa3d f78d c03d b205 0cbe 16c5 c23d
00000180: a769 833d bb06 9a3d 1aea 193e 1107 04bd
00000190: cde6 073d 9f00 07bc ff18 c73d 9fec 4abc
000001a0: 1b8f 033d d05a 24bd 056a a53d 39a7 853d
000001b0: 9539 673d 4c62 42be e576 313d af78 b53d
000001c0: 113a 293d dcaf a1bb 392d af3d e9d3 31bd
000001d0: cfed 0f3d c229 00bd e0a3 813d 7dc8 5c3d
000001e0: 710f 5a3d 305c fbbc e92f c13a f8ae e5bc
000001f0: 8ec9 9b3c 280e 713e 9846 153e 91a1 6b3e
00000200: d3ec 323e ba5b ac3e 435f 243d 28dc 903d
00000210: 560a fb3c f7a0 a93d c5f1 673e 653d a13c
00000220: df50 673c 1fe0 a33d 2916 493c ec15 633d
00000230: 96fd 45bc 189d 583d be05 1cbd 9372 1abd
00000240: cfe1 7c3d 2849 a43d 3e4a c43d 16f1 9e3d
00000250: d817 f23d 0943 1fbd 4268 e53d 5636 223d
00000260: f178 9a3c 6f95 053e 3ad4 143e 4bbc 3e3d
00000270: c64f f7ba b328 ad3d 7905 103e c9da e9bc
00000280: 510c 6f3d e80e d53d c612 ea3d f2eb 5fbc
00000290: d66b d0bd c65f 11bd e7b1 b03d 1bcd 353d
000002a0: af45 f33d fa88 80bd fde9 e13c 090b 093e
000002b0: 01b5 013e 088c 463e 8257 083e 34f9 ba3d
000002c0: 812c 3a3c 8f08 643d 38e6 e1bc 5d71 dd3c
000002d0: 5e62 c63d 3a3a 75bc e129 753c 9963 003e
000002e0: d4d1 6fbc 1620 693d 187f 133e 9841 053e
000002f0: fcd9 bd3d a4ec e63c 2499 d43d 5980 653d
00000300: b928 b33d 7107 203e 06d7 c63c d152 fa3d
00000310: fa5f 95bc c6fd 133e 62d9 a63c 4b5c 69bd
00000320: 0a3a 283c f9e1 363d d4ea 9f3d e15e acbb
00000330: b082 f5bc 9d7a 833d 420b c5bc 9bb3 54bc
00000340: 7ad8 153d 3f85 82bc 6641 36bc ba64 cbbc
00000350: 52de 73bd 3216 273c 9c0d a9bd 4e00 e63d
00000360: e216 6d3d e230 1bbc f357 0b3d 369a e83c
00000370: daf6 af3d 2cd2 ae3b ba81 833d d1aa ca3d
00000380: 77bd 61bb 5d23 a23d 4a7a 363d 8b6a 16bc
00000390: 5bba 9d3d 9efd 58be 48d4 68bd dc7b c23d
000003a0: 86ce d93d 830a 133d 569e d0bd cad2 c03d
000003b0: ff1f 2e3d ac56 f03d ee82 b63d 6cf4 0bbe
000003c0: 2933 20bd 32bd ba3d d92e 963b 0bc2 983d
000003d0: 2722 8b3d c01d 9c3d 7ea5 0fbc f5ab ad3c
000003e0: 5cf3 b0bd 1eb0 35bc d0d1 1cbd dea9 17bd
000003f0: ef48 76bd f7c4 43bd a19e 09be c97f da3d
0.04299223 0.04864463 0.14629555 0.1510778 -0.078956366 0.04025866 -0.01089524 0.028051095
0.08251597 -0.10592599 0.100091346 0.017189056 0.087006845 0.045644645 -0.08712507 0.012233632
-0.028696107 -0.0145782735 0.09718445 -0.04883872 0.11311678 0.074038185 0.11233931 0.14029102
0.042999413 0.12865081 0.13290502 0.12566143 -0.0043254322 -0.003601433 -0.018233284 0.082298905
0.15296786 0.18646844 0.030660173 0.09259173 0.091911264 0.09606879 -0.047754396 -0.07266157
0.083224304 0.027586186 0.043594044 0.094070345 -0.2498194 0.09322046 -0.025211342 -0.03412549
-0.009404894 -0.077654704 0.045695163 0.0025020665 0.10169931 -0.005632593 -0.04311919 0.094026186
0.1092227 0.068249434 0.072973475 -0.009607458 0.07422704 0.12278824 0.073970065 0.13044113
-0.05433219 0.112662844 0.055539478 -0.035087142 0.012793723 0.052641533 0.0023558561 0.030008199
-0.007705884 -0.0059427326 -0.039505422 0.029511163 0.09275768 0.093442 0.094280265 -0.11577666
0.09217279 0.108112775 0.013359144 -0.0017510715 0.009620313 0.024269473 0.06918512 -0.009353089
0.08981436 -0.14017417 -0.06602155 0.010887828 0.0830187 0.09402078 -0.13674048 0.095102474
0.06416636 0.07520815 0.15030709 -0.0322333 0.033179093 -0.008239894 0.097215645 -0.012385516
0.032118898 -0.040125668 0.08076862 0.06526036 0.0564514 -0.1898281 0.043326277 0.08860909
0.041315142 -0.004934294 0.085535474 -0.043414984 0.0351389 -0.031289823 0.06330085 0.053902138
0.053237382 -0.030683607 0.001473901 -0.028037533 0.019017007 0.23540556 0.1457771 0.23010851
0.17473154 0.33663732 0.04012991 0.070732415 0.030644577 0.08282655 0.22650822 0.019682596
0.014118402 0.08001732 0.01227335 0.05544083 -0.012084385 0.05288419 -0.038091414 -0.037706923
0.061738785 0.08021766 0.09584473 0.07760827 0.11820954 -0.03888229 0.11201526 0.0396026
0.018856497 0.13045286 0.14534083 0.04656629 -0.0018868379 0.084550284 0.14064588 -0.028546708
0.058361355 0.10403234 0.11429362 -0.013667094 -0.10176818 -0.035491727 0.08627682 0.044385057
0.118785255 -0.06276126 0.027577395 0.13383116 0.12666704 0.19389355 0.13314632 0.09129563
0.01136315 0.055672225 -0.027575597 0.027031595 0.09686731 -0.014967496 0.014963598 0.12537993
-0.014637429 0.056915365 0.14403951 0.13013303 0.09270093 0.02818901 0.10380772 0.056030605
0.087480016 0.15627839 0.024272453 0.12222827 -0.018234242 0.14452276 0.020367328 -0.056972783
0.010267744 0.044649098 0.07808462 -0.005260334 -0.029969543 0.06419871 -0.02405322 -0.012982274
0.0365834 -0.015932677 -0.011123991 -0.024828304 -0.059538193 0.010198163 -0.08254549 0.11230527
0.05788315 -0.009472104 0.03401942 0.028393846 0.08592005 0.005335113 0.06421228 0.09895862
-0.0034445205 0.07916901 0.044550218 -0.009180675 0.0770156 -0.21190497 -0.056843072 0.094962806
0.10635094 0.035898697 -0.1018645 0.09415205 0.042510983 0.11735281 0.089116916 -0.13667458
-0.03911129 0.091181174 0.0045832214 0.07458886 0.067936234 0.07622862 -0.008767484 0.02120016
-0.08640167 -0.011089353 -0.03828603 -0.037027232 -0.06012815 -0.047795262 -0.13439418 0.10668904

lstm.weight_hh_l0 f4 [512, 128]
00000000: 454b babc 3da9 0bbd 4ac7 41bc 44a0 953d
00000010: fa91 d9bc d28c c33c ced3 24bc 698a 793c
00000020: d9a4 303d e1e3 3dbc 5d52 35bd 1b14 a0bd
00000030: eb72 bc3d 2260 233d c584 953c 3b63 6dbc
00000040: 95b8 d4bd e42b 383d 108d a03d 901f 86bd
00000050: 2cc8 3bbd 6709 b5bc 8812 97bd c1af 2a3b
00000060: 059d 543d 78f6 24bd 04e1 8ebd 1929 87bd
00000070: 2701 9c3d 48a4 b0bd d699 123d 901d 413d
00000080: 641b f43c 84c9 9cbd 899b 31bd 5760 44bd
00000090: a8f0 8abc 09cf a1bd 8b4f 2c3d 2ea5 633d
000000a0: f88e 973d c4a1 623d 8fee 1cbd 2a9d 1abd
000000b0: d1ba 42bd d2d4 d5bd cda5 37bc 85e1 c4bc
000000c0: 9a06 8b3d a142 c5bd 9ea5 853d 0da6 083d
000000d0: b897 de3d 32f2 02ba ed0c a3bd 03cc 92bd
000000e0: 5c1d bd3d 0559 933b 0e5f d4bd 32f4 233d
000000f0: ba45 223d 0a33 73bd 4ebb c93b 06a1 e1bd
00000100: 765b c13a 7e34 d1bd bd68 4e3c afb6 533c
00000110: 2604 983d 0bf9 df3c 7a6a 77bc 6678 f93d
00000120: 2645 10bd 292d db3d 58c2 f1bc 79f2 823d
00000130: 0908 95bd e7c1 0fba ea99 953b 3399 3b3d
00000140: cf84 6dbc 4679 8abb cf81 c23d 6069 7f3c
00000150: 2254 183d aabe bbbd 88a9 8e3b 510b 803c
00000160: a5d6 b0bb 9245 82bd c32e 46bd c041 da3c
00000170: a83b 213d 001e af3c 825d 573d b24c 1e3d
00000180: 0a82 823d aaba 0e39 1451 093d 0e42 bbbd
00000190: 8332 20bd 9da0 e63d 3d8d 14bd 4f51 a0bd
000001a0: 0feb 87bd f122 fa3d 67f4 b6ba 7b4d 11ba
000001b0: 471c 5bbd a8eb b7bd 86d0 71bd fbd1 94bd
000001c0: f4e1 92bd cbc7 d4bd ffa6 b2bd 8167 84bc
000001d0: 68d2 793d 4d65 503d 4a39 abbc 3eb9 e03d
000001e0: 4bbe b6bc 6013 583d 1e36 a63b 1c67 633d
000001f0: 491d 313c 1915 55bd bc53 db3d 6664 c53d
00000200: 5c72 5e3d 54e9 c93d 7a3b 0bbc 3433 3b3d
00000210: 24b4 91bd 7d77 563d 65be 863d f31b 21bd
00000220: 75ae 9e3c 99ae 203d 793e 413d 511b 073d
00000230: 11b0 983d 98ce 30bd 5cfc 2e3d 5290 28bd
00000240: 418e 0c3c defc 8d3b 16a4 51bc aa20 613d
00000250: 65ee 3a3c 0a6e 65bd d893 03bd 0c09 8c3b
00000260: 0849 8d3d fd29 663d 85be 813d 6bc4 bcbd
00000270: 838f a23d cba7 c9bd 736f 2cbc 5ef4 75bc
00000280: 5a67 8c3d 8a58 c6bd 3614 e83c de16 773d
00000290: 2d30 a7bd 1e2f 7b3d 7532 963d 7449 443d
000002a0: 183e 103d bc20 1dbb 964b 8fbc 6982 ca3d
000002b0: 30ac 2ebd f978 b0bd 237e 743d 5ce6 9d3b
000002c0: 01a0 adbc 6934 213d 6e83 afbd 18c1 db3d
000002d0: be1e af3d 9444 b23d 081c 8a3c 8d65 cd3c
000002e0: 1325 15bd 27c7 9dbd 5f39 de3b 8cea 2e3c
000002f0: 0340 6ebd bce4 b23d 344d 803d d4de 15bd
00000300: 4537 a0bd c736 8d3d fa7a b33d 41a1 e93b
00000310: 0e02 51bc a8fb a0bd a934 9f3d cedf 543d
00000320: aa81 9fbd d4ce 9f3b b4d7 82bd e8c7 8c3d
00000330: 6fd6 bbbd 752e 4ebd 1c13 933d a750 85bd
00000340: 9e89 85bc 0598 b63d fe5d 793d c4ca e6bd
00000350: 5890 ad3d 3dd9 133c 17df 6b3d 6c22 623d
00000360: 6274 31bd 49cb 3f3c 910a 82bd 64fd a23b
00000370: 6f8d c03d eed6 04bd 7b29 583d ac9a ed3b
00000380: 3934 e7bb 72b1 e9ba 457c afbd 4ca8 303d
00000390: 8e97 d43b 5017 2e3d dbba 51bd aac4 09bc
000003a0: d6f4 dc3b f7e4 363d 543d 59bd 8ce1 53bd
000003b0: 4ef8 8abb c166 893d 6c4f 163d 52f4 21bd
000003c0: e5a5 bdbd 2fe3 95bd 9019 8c3d 19fb ff3c
000003d0: 4c84 b5bd 57f0 7b3d 0e9c f9bc dc16 9d3d
000003e0: 59a7 ae3d 9297 1f3c 2676 14bd e61d 9dbc
000003f0: de52 70bd 83f2 38bd 4a00 8f3d 728f 413d
-0.02274097 -0.034096945 -0.011827299 0.07305959 -0.026558865 0.02387086 -0.010060264 0.015230753
0.04312596 -0.011589975 -0.044268 -0.07816335 0.09201606 0.0398866 0.018251786 -0.01448899
-0.10386769 0.044963732 0.078394055 -0.06548989 -0.045845196 -0.02209921 -0.073765814 0.00260447
0.051907558 -0.040274113 -0.06976512 -0.06599636 0.07617407 -0.08625084 0.03579124 0.047147334
0.029798217 -0.076556236 -0.04336122 -0.04794344 -0.016960457 -0.07900817 0.042068046 0.05557745
0.07400316 0.055330053 -0.038313445 -0.03774754 -0.047541443 -0.10440983 -0.011208964 -0.024033317
0.067883685 -0.09631849 0.065257296 0.033361483 0.10868782 -0.00049951964 -0.0796145 -0.071678184
0.092341155 0.004496696 -0.10369693 0.040027805 0.039617278 -0.059374847 0.0061563617 -0.11017041
0.0014751989 -0.1021509 0.012598214 0.012921973 0.07422666 0.027340433 -0.01510107 0.12181167
-0.035222195 0.10701973 -0.029511616 0.06393904 -0.07276923 -0.0005483911 0.004565467 0.0458004
-0.014496996 -0.0042258827 0.09497415 0.015589088 0.03718961 -0.09167226 0.004353706 0.015630396
-0.0053966814 -0.06360926 -0.04838444 0.02664268 0.039363533 0.02137661 0.05257941 0.03864736
0.06372459 0.00013611713 0.033524588 -0.09143458 -0.03911067 0.11261103 -0.036267508 -0.078280084
-0.06636631 0.12213696 -0.0013958336 -0.00055428565 -0.053493764 -0.08980495 -0.059036754 -0.07266613
-0.071720034 -0.1038967 -0.08723258 -0.016162636 0.060991675 0.050877858 -0.020901341 0.10972832
-0.022307536 0.052752852 0.0050723692 0.055518255 0.010810205 -0.052022073 0.107093304 0.0963829
0.05430828 0.09858957 -0.008498067 0.045703128 -0.07114437 0.052360047 0.065792836 -0.039333295
0.019370297 0.03922901 0.04717872 0.032985035 0.07455457 -0.043165773 0.042721137 -0.04115326
0.008578838 0.0043331226 -0.012795469 0.05496279 0.011409377 -0.056013145 -0.032123417 0.0042735394
0.06898695 0.056192387 0.06335167 -0.09217151 0.07937529 -0.09846457 -0.010524618 -0.015011875
0.0685565 -0.09684856 0.02832995 0.060324542 -0.08163486 0.06132423 0.07333843 0.047921613
0.035215467 -0.002397581 -0.017492097 0.09888155 -0.04264468 -0.08616824 0.059690606 0.0048187207
-0.02119446 0.039356623 -0.0856999 0.10730189 0.085507855 0.087044865 0.01685907 0.025072837
-0.03641231 -0.07704001 0.0067817415 0.0106760375 -0.058166515 0.08735034 0.06264725 -0.03658946
-0.07823042 0.068952136 0.0876369 0.0071298187 -0.0127568375 -0.078604996 0.07773716 0.05197125
-0.07788403 0.0048769508 -0.06388798 0.068740666 -0.09171759 -0.050337274 0.07181379 -0.06509524
-0.016300973 0.08915714 0.060880654 -0.11269143 0.08474797 0.009023962 0.057585802 0.05520861
-0.043323882 0.011706182 -0.06349672 0.004974054 0.09401976 -0.032431535 0.052773934 0.0072511043
-0.007055786 -0.0017829372 -0.085686244 0.04312925 0.0064877933 0.0425027 -0.05120359 -0.008408705
0.006743054 0.04465195 -0.053037003 -0.05172877 -0.004241026 0.06709052 0.036696836 -0.039539643
-0.092601575 -0.073187225 0.06840813 0.031247662 -0.08863124 0.061508503 -0.03046992 0.07670376
0.08528013 0.009740727 -0.036245488 -0.019179296 -0.05867278 -0.045153152 0.06982477 0.04725594

lstm.bias_ih_l0 f4 [512]
00000000: 7eb3 053e 720b c53d fc2f a73b 8c2d 963c
00000010: ec0e 3ebc b214 2a3c 125e c93d d2ba 303d
00000020: 31f2 4e3d 54c0 0e3d d764 543c 2f9f 393d
00000030: 83e2 01bd 6954 283c 1005 6e3d 9823 b03d
00000040: e3b6 e13d 42ce d8bc de45 a9bd e984 853d
00000050: a21b adbd a54a 4bb9 64f9 d0bc a8a9 d63d
00000060: 8a53 82bd 83e6 113e 8119 d63d 63b5 84bc
00000070: 6e4b ca3c 9721 123d b35a e63b a5ae c93d
00000080: 4bdf 91bd 8c33 e43b 77a9 813d 658e ad3d
00000090: b056 c6bd e5c1 473d 12c4 e7bc 7db2 b4bb
000000a0: 0765 973d 49b2 8a3d 0703 bdbd a56c 983d
000000b0: 6965 98bd 0835 913d fe3f ac3d dc59 023e
000000c0: 7475 bcbc ea91 873c f702 973d 9e41 ba3d
000000d0: 4bb9 803d f5c9 65bd 1d2e 7b3d 43ec 473d
000000e0: 71b8 0b3d 6ebc a83d dd50 55bb 8acf 8c3d
000000f0: f30d 6dbd 30d5 bdbd cdb3 f13b 2f67 21bd
00000100: 501d 143d e948 82bd 27f4 613d 1594 dc3d
00000110: 02c2 f13c 699a ee3c 8275 bbbc 7cd9 37bd
00000120: d6f5 883c f723 b63c 22a8 d1bc 0b20 7c3d
00000130: 6756 173d 50da 35bd 14ef 813d 0507 a53d
00000140: 3e0b 85bd 06a8 7b3d 06ab b0bd 9010 413e
00000150: a8a2 a3bc 7111 2b3d c0e2 f0ba 1b38 c73d
00000160: 0216 0fbd bd32 45bd eb74 b53c 1e4d ebbc
00000170: f28d dd3c c292 2b3d 8f05 17bd d249 753a
00000180: 6ecc da3c 48d9 983d e853 8f3c b566 cbbb
00000190: ae54 47bd 97b4 09ba ac50 32bd e341 c03d
000001a0: 14d7 a93d 6757 48bd 75ec a53d d53d 2e3d
000001b0: 9a9f a03d 5a97 64bd 78c9 143e 79af 533e
000001c0: acb5 9f3c c141 473d 0e41 693d e3c0 9abd
000001d0: 540e 27bd c8a8 a53d 2aca efbc e797 9f3d
000001e0: f014 5a3d b421 63bd 0656 96bd b1a7 993d
000001f0: a355 c23c ef3d 82bd 4d79 16bd 1b13 11bd
00000200: 7673 92bd 089b 8f3d e947 e4bc 6bda 8ebd
00000210: 5a12 563d 5c56 cdbd eebf 24be 28e7 5cbd
00000220: 1d5a 90bc f935 453d 5c2e 003c c283 3e3d
00000230: 2822 1ebd 838b 493d 81d4 0cbd 4338 e53c
00000240: 0d2a 553d 5e63 b6bd f580 e3bc 1676 24bd
00000250: 62ef 90bd a6a7 133d 8a06 b1bd 8703 83bd
00000260: 2700 28bd 3c31 36be 98a2 3bbe 6876 db3c
00000270: d54e 0e3d ba15 3dbd ab5d 38ba 34aa c3bd
00000280: 57a1 aabd 2b21 4fbd a2d5 8ebd c656 91bc
00000290: fd2b c9ba de1f 0f3d 53dc d03c e459 21bd
000002a0: 1695 a4bd 125d 32bd 468a 383d 58e2 163d
000002b0: c7a7 e13c c640 1cbd 0ebf 3a3d 5790 8cbd
000002c0: b44b 773c d3c4 983d 89c7 3a3d 2272 bcba
000002d0: 530b 21bd a3c7 acbd 0997 51bd 4125 bcbd
000002e0: d516 51bd b047 263d 2b92 2c3d ca12 aebc
000002f0: 99d2 8e3d 4095 623d 4482 23be 846d 2bbd
00000300: a948 993d 4b3c a7bc 2dc7 a5bc 648c bbbc
00000310: cde4 72bd 5696 75bd 65ec 9fbc fee6 ebbd
00000320: cde5 e3bc 0a56 5bbd 555f da3c 8998 803c
00000330: 3578 7ebc 369d c1bb 7168 723d c5e7 263c
00000340: 6112 333c be56 a5bd 9d63 dfbb 72d9 a0ba
00000350: e9e6 c3bd d125 c43c f074 77bd fa7f c9bd
00000360: 74bf d6bd 8af8 60bd e736 65bd dc47 dfbc
00000370: cdd8 d4bd 23d8 bdba 50c2 813d 1e42 8ebc
00000380: 15e8 033d 1558 43bd 5322 183c 4018 f93b
00000390: 4fc9 a9bd fe19 5dbd 413a e53c 5b01 8e3c
000003a0: 334d b2bd 0587 58bd 4e69 263d d312 c8bc
000003b0: ba75 8fbd d82a 0fbd 0bc0 b9bd 2cad 20bd
000003c0: 4333 cbba 0ae7 a63d 01aa f9bc 5a0e b6bd
000003d0: 9358 f53c 81be 93bc be0a d4bc 2dbe c3bd
000003e0: 8832 ffbc 8e63 c8bd 67d0 87bd 452f abbb
000003f0: 3550 2abc 9763 a53d 3111 55bd 7f39 f53c
0.13056752 0.09621324 0.0051021557 0.018332265 -0.011600237 0.010380911 0.098323956 0.043146916
0.05052394 0.034851387 0.012963495 0.045317825 -0.03171016 0.010274031 0.058110297 0.08600539
0.11021211 -0.026465539 -0.08265279 0.06519491 -0.08452536 -0.00019387396 -0.025509544 0.10481578
-0.0636359 0.1424809 0.10454083 -0.016199773 0.02469417 0.035676565 0.007029855 0.09847764
-0.07122668 0.0069641527 0.06331151 0.08474425 -0.09684503 0.048768897 -0.028291736 -0.0055144415
0.07392316 0.067722864 -0.09229093 0.07442597 -0.074412175 0.07090193 0.08410643 0.12729591
-0.023005225 0.01654907 0.073736124 0.09094547 0.06285342 -0.056100804 0.061323274 0.0488093
0.034111444 0.08239065 -0.003254942 0.068755224 -0.05787463 -0.09269178 0.0073761703 -0.039405044
0.036160767 -0.06361563 0.055164482 0.10770432 0.029511455 0.029126363 -0.02288318 -0.044885144
0.016718786 0.022233946 -0.025592867 0.061553996 0.036947634 -0.044397652 0.06344429 0.080579795
-0.06496285 0.061439537 -0.0862637 0.18853974 -0.019975021 0.04176468 -0.0018378124 0.09727498
-0.034933098 -0.04814409 0.022150477 -0.028723296 0.027045224 0.041888006 -0.036870535 0.00093570084
0.026708808 0.07463318 0.017496064 -0.006207312 -0.04866474 -0.0005253045 -0.043533966 0.09387567
0.08292976 -0.04891148 0.08101741 0.042539436 0.078429416 -0.055808403 0.14529979 0.20672406
0.019495808 0.048646692 0.056946807 -0.075563215 -0.04078515 0.08088833 -0.029271204 0.07792645
0.053242624 -0.055452064 -0.073406264 0.07502688 0.023722475 -0.06359469 -0.036736775 -0.03541861
-0.07150929 0.07011992 -0.02786632 -0.06975254 0.052263595 -0.10026237 -0.1608884 -0.053931385
-0.017621094 0.048147175 0.007823553 0.046512373 -0.038606793 0.049205314 -0.034382347 0.02798093
0.052042056 -0.089056715 -0.027771452 -0.040151678 -0.07076909 0.036048554 -0.08643825 -0.06397157
-0.04101577 -0.17792219 -0.18323743 0.026789859 0.03474315 -0.0461633 -0.00070330006 -0.09553948
-0.083315544 -0.05056874 -0.06974341 -0.017741572 -0.0015348193 0.0349425 0.025495684 -0.039392367
-0.080362484 -0.04354579 0.045053743 0.036836952 0.027545823 -0.03814771 0.04559236 -0.06863468
0.015093733 0.07459416 0.045600448 -0.0014377276 -0.03931744 -0.08436515 -0.05116943 -0.09186793
-0.051047165 0.04059571 0.042131584 -0.021249194 0.06973762 0.055318117 -0.15967661 -0.04185249
0.07484562 -0.020414492 -0.020236576 -0.022894092 -0.059300233 -0.059957825 -0.019521901 -0.11518668
-0.027819538 -0.05354885 0.026656786 0.015697734 -0.015531589 -0.0059086336 0.059181634 0.010187094
0.010929675 -0.080731854 -0.0068172948 -0.0012271835 -0.09565527 0.023943814 -0.060414255 -0.09838863
-0.104857355 -0.054924525 -0.055960562 -0.027255945 -0.10392914 -0.001448397 0.0633589 -0.017365512
0.032203753 -0.047691423 0.009285527 0.007601768 -0.0829035 -0.053979866 0.02798188 0.01733463
-0.08706131 -0.05286314 0.04062777 -0.024423039 -0.070048764 -0.03495297 -0.090698324 -0.03922765
-0.0015502948 0.08149536 -0.030476572 -0.08889456 0.029949462 -0.018035175 -0.025884029 -0.095577575
-0.031152025 -0.097846135 -0.066315465 -0.005224141 -0.010395099 0.08075636 -0.052018348 0.029934643

lstm.bias_hh_l0 f4 [512]
00000000: 2aab de3d fa98 6dbd baf5 4d3d b7c5 95bc
00000010: 84b6 18bd b12e e33c 1214 ca3d bc25 e2bc
00000020: 0c1f ae3d 1ba2 12bd 9ea9 093d 87a4 5f3c
00000030: c326 42bd 05e9 58bd 7e52 77bc 316f 4dbc
00000040: 9f5c 3a3c 9954 043d 71c3 8bbd 42a9 12bd
00000050: b3ac 56bd 00af a33d 7d59 dd3c 27c3 533d
00000060: dca1 893d a86d 703e a0fc 093e 7457 64bc
00000070: bc51 12bd daa4 4bbd 707f 84bc 4352 a93d
00000080: 95b1 12bd 7482 8cbc ae48 083e 4736 803d
00000090: d824 923a d7d3 753d 2a60 233d 372c 1b3d
000000a0: 8f77 9ebc 956f 98bd e72c 8a3d 1305 97bc
000000b0: cf86 93bb aecb a73d e81a e13d 518d ab3d
000000c0: df56 8a3d 2e11 4cbd 012d 173d 9517 073e
000000d0: e14a 903d be17 6d3d 800d c93d 79f4 78bd
000000e0: d99e 893d bc00 67bd 1fd6 09bd e860 58bd
000000f0: 2173 07bd fde7 2d3d f7c7 e83d 00a1 5abd
00000100: 5c00 243d bb6e 543d 74f3 a2bd b460 763d
00000110: 0ef6 e3bc e815 913d b906 03bd 1c13 45bc
00000120: 6872 483d d335 023d 96f6 aebc bd0e 873d
00000130: 7da3 d43c 0603 ee3c 730e 9a3d f84e a6bd
00000140: 91eb b3ba 47cf d73b 7907 8dbd 55bc bd3d
00000150: ab63 7d3c 2508 573d 1650 893d dc49 ee3d
00000160: 9bd7 613d 86f9 60bd c2dd bbbd c462 fb3c
00000170: e801 953d 3e2c 16bd 3e8d 823d a17b 793d
00000180: 6c87 6dbd 57dc 303d f326 89bd cc33 8a3c
00000190: dae4 203d c6f4 d0bd 600e b5bc b158 aa3d
000001a0: 1be6 c63b 7f22 a0bd 63c7 9839 c456 953d
000001b0: 392d 313d 67b4 a9bd 7cc3 d33c dabc 533e
000001c0: 05eb a43d 03b2 d7bc d2f0 3f3d 8498 9e3d
000001d0: 0665 07bd 68a2 36bc 98b4 1a3c ffdd c33d
000001e0: 2593 c4bc 4129 173d db30 1e3d fd5a a5bd
000001f0: 5efe ffbc 62f0 c53d 012a 8ebd 9640 28bd
00000200: 3a03 a2bd d7d1 143d c9eb 15bd e3a2 0f3d
00000210: b21d c3bd 5858 873a e967 9dbd a36f 8f3d
00000220: bb05 bbbd afeb 023c a39b 0e3d 7fe5 b1bd
00000230: ac8b b2bb 44f8 863c ad56 ddbd 584d 673d
00000240: 6a48 eabd 8818 783b f380 983d 56b4 7bbd
00000250: f9ad dcbd 84ea 05bc 0a36 833a 1747 973d
00000260: 618d 9abd 8df3 3bbe d09c 53bd cb45 03bd
00000270: edcf 0c3d dea3 48b9 7985 783d 70ee d5bd
00000280: ff3b ef3b 07e3 6c3d 2a64 2abe 8efd 78bc
00000290: b4fc 5bbd 498b 24bd ba83 58bd 9ba3 123d
000002a0: 046f 44bd 9909 a0bd 8495 cabd b50a 9f3d
000002b0: 9925 aebd 0d4e df3c 90db 1fbd 280d 773c
000002c0: 8fd1 6abd 2749 84bd 59a8 64bc 9bf7 6dbd
000002d0: bef5 7d3d e590 143d 112a c4bd 6ecc 933c
000002e0: 1305 abbd e818 193d 93a9 1e3d 7701 863d
000002f0: 92b7 7fbd 74ff 50bd c05c 28be 3e68 6cbd
00000300: c572 663d a0ba 043d dda2 37bd 6a1c 9dbd
00000310: 6472 c43c cd5c 97bd 6d7b 543d 7dc1 913b
00000320: 93f7 373d ae60 6a3d 32f4 3b3d 8727 883d
00000330: f2ad 093d f797 113d 935e 0abd 9b13 32bc
00000340: 31a6 ff3c 6ec4 0f3d 6545 b6bd c158 6bbd
00000350: e153 aebc 6be4 663b 940e 68bd 0522 72bc
00000360: a35d 68bd f924 33bd dde4 283d b27b 01bd
00000370: 171d b63b d1e0 963c 4ad8 843d 65f0 64bd
00000380: 59ac bebd 42ce 8b3d 331d 6bbd caa5 d6bd
00000390: aa9f 363b 31d8 6f3c 8fc4 573d ac79 9cbd
000003a0: 5662 aabc 2786 5b3c b77f 853c 9b94 74bd
000003b0: 17e6 51bd 344e 8a3d 17c1 933c 87b4 94bd
000003c0: 0886 a03c 8045 99bd d039 febd a72b b0bd
000003d0: dc06 e3b9 c6ea ed3c 9b46 04bd c5ae 57bd
000003e0: 338d f3bd e88c 8d3c 721f 5dbc dc98 f0bc
000003f0: 461c 07be c0d3 633d 6558 a2bd eaac 82bd
0.10872491 -0.058007218 0.05028317 -0.018282754 -0.037283435 0.027732225 0.09867109 -0.027605884
0.085020155 -0.035799127 0.033609025 0.013650066 -0.047400247 -0.0529566 -0.015095351 -0.012538717
0.011374622 0.03230724 -0.06824387 -0.035805948 -0.052410793 0.07992363 0.02702021 0.051699784
0.06720325 0.2347933 0.13475275 -0.013936866 -0.03572248 -0.04971776 -0.016174048 0.08267643
-0.035813887 -0.017152049 0.13308975 0.062603526 0.0011149896 0.06001648 0.03988663 0.037883963
-0.01934412 -0.074431576 0.06746846 -0.018435037 -0.0045021544 0.08193146 0.1099146 0.08376563
0.067548506 -0.04982107 0.036908153 0.1319259 0.07045532 0.05788397 0.09817028 -0.060780022
0.06719751 -0.056397185 -0.033651467 -0.052826792 -0.03306878 0.04245757 0.11366265 -0.053376198
0.040039405 0.051863413 -0.07956591 0.060150817 -0.027827289 0.070842564 -0.031988833 -0.012028482
0.04893723 0.031789612 -0.021357816 0.06594608 0.025956864 0.029054176 0.07522287 -0.08120531
-0.001372682 0.0065859887 -0.06886191 0.09264437 0.015465657 0.052498 0.06704728 0.11635181
0.055137258 -0.054925464 -0.09173156 0.030686744 0.07275754 -0.036663286 0.06374596 0.060908917
-0.057990476 0.043178882 -0.06696882 0.016870402 0.03928075 -0.10202937 -0.022101581 0.08317698
0.006069911 -0.078190796 0.00029140254 0.0729194 0.04325602 -0.08286362 0.02585005 0.2067751
0.08052639 -0.02633 0.046860524 0.07743934 -0.033055328 -0.011147119 0.009442471 0.09563827
-0.023995945 0.036904577 0.03862081 -0.08073995 -0.031249221 0.0966499 -0.06941605 -0.04107722
-0.07910772 0.03633293 -0.036601815 0.03506745 -0.09527148 0.0010326011 -0.07685835 0.07003715
-0.091319524 0.007990762 0.034816395 -0.08686351 -0.005448779 0.016475804 -0.10807548 0.056470245
-0.11439593 0.0037856419 0.0744647 -0.06145128 -0.1077537 -0.008173589 0.0010010612 0.07386606
-0.07546497 -0.18354626 -0.05166322 -0.03204898 0.03437798 -0.00019134532 0.060674164 -0.10445869
0.0073008533 0.057833698 -0.16639772 -0.015197171 -0.053707793 -0.040171895 -0.05286 0.035800558
-0.047957435 -0.078143306 -0.09891799 0.07765714 -0.08503265 0.027258897 -0.03902775 0.01507882
-0.057328757 -0.06459265 -0.013956153 -0.058097463 0.062001936 0.036270995 -0.09578336 0.018041816
-0.08350577 0.037377268 0.038735937 0.06543248 -0.062430926 -0.05102487 -0.16441631 -0.0577166
0.056261797 0.032404542 -0.044833053 -0.07671435 0.023980327 -0.07390747 0.05187552 0.0044481144
0.04491384 0.057221107 0.04588718 0.06648164 0.033613153 0.035545316 -0.0337816 -0.010868932
0.031207176 0.03509944 -0.08899955 -0.05745769 -0.021280231 0.0035231363 -0.056654528 -0.014778619
-0.056729924 -0.04373643 0.041233886 -0.031612106 0.005557667 0.018417748 0.06486566 -0.05589332
-0.093102165 0.0682645 -0.057400893 -0.104808405 0.0027866163 0.014638946 0.052677687 -0.076403946
-0.020798843 0.013398684 0.01629625 -0.059712034 -0.05124482 0.06753197 0.018036408 -0.07260995
0.019595161 -0.07483959 -0.124133706 -0.08602076 -0.00043301925 0.029042613 -0.032293897 -0.052656908
-0.11892166 0.017279103 -0.013496267 -0.029369764 -0.13194379 0.055621862 -0.07927016 -0.06380637

lstm.weight_ih_l1 f4 [512, 128]
00000000: 7bab 233d 1dae 95bc 9b6e 823c c634 5e3b
00000010: 07df bb3d 9f58 0a3d 4608 ee3d e218 803c
00000020: 22b3 b93d b371 56bc 0369 633d dc5d a6bd
00000030: 6a87 0fbd 9d8c d73c a80b 23bd 2103 8e3d
00000040: 1eba 9abd a6bf 52bd 69ed a5bd 051a 36bd
00000050: d970 b9bd bd54 b03d fa9b a93c b998 cebd
00000060: ecf1 013d 5205 593d bcaf 473d 47c8 753d
00000070: 1e75 613d 0b7e 32bc 706b 973d e7d4 20bd
00000080: 29f7 a9bd 573f 71bd 5a78 8e3d 8b0b 67bd
00000090: 2cb1 a1bd 5d95 7e3d efe3 75bd 5ca2 9f3c
000000a0: cc08 9a3c 447a f53c b5d8 65bc 4580 bb3d
000000b0: 369c 7e3d 3ff2 b1bc d993 c6bd 666a f43d
000000c0: d356 d3bd 22b1 38bc 84e6 e1bd 5e23 ee3b
000000d0: 1a10 8a3c 3cd8 7dbd f639 45bd 758b afbd
000000e0: 6c16 ff3c 57cd 373b 1b9e 9cbd 8142 3dbc
000000f0: 681c afbc 76e5 d03c 296b c1bd 9524 17bc
00000100: 6317 863d 3ef7 e53b 44d7 7e3b d620 823c
00000110: efdc 7fbd 9b20 a6bd 3373 96bd 8455 6b3d
00000120: 858e 17bd 08a4 1f3c 6639 9fbc 8d46 90bd
00000130: abdc 713d 4bd5 863d 9442 56bc 9ba5 c03c
00000140: 82ac 503d bd7a e23b f7bb bf3c 7d92 fe3d
00000150: 4972 11bd 26dc 063d 40eb 8dbc 8ee1 24bd
00000160: f9b4 74bd 97f4 da3a b61f 983d 2635 0abd
00000170: b195 9d3d 34e6 acbd 3b00 d5bc b8fb 08be
00000180: 2659 2f3d c006 ca3c f61d 78bd eead 24bd
00000190: ac1f c7bc 7174 893c fe86 e13c 4a08 a0bd
000001a0: aade 423d 621b 803d 81c0 99bd 1314 a13c
000001b0: 93c6 6abd 9947 1e3d ec3d e13d 13ae c5bc
000001c0: a9f2 00bc 4e67 523d 1d14 873c 2610 9a3d
000001d0: bdf7 c1ba cec2 7bbd 763b 97bd 95a4 ec3c
000001e0: 01b3 313d c776 ec3c 493c 533d e164 6dbd
000001f0: c8c8 5fbb 5482 91bd 68a2 8a3b aa2c a83d
00000200: ebc4 783d 6d23 20bd 7e3b 32bd 7192 91bc
00000210: 74c0 af3d 44ea 3cbd 7ca4 013d 9b3a 9ebd
00000220: fc8c c9bc bba0 5ebd a35b 853c 4ea7 f6bc
00000230: d630 bf3d 7ef7 3e3c f5c9 2b3c 0b3a 45bc
00000240: 63f8 72bc 9696 81bd 22df 913d 1759 52bd
00000250: ee35 033c fda2 eb3d 6243 8fbd b43b b8bd
00000260: deb4 963d b98a d33d 4d04 683d 60ce eebc
00000270: 1a1f a8bc 5a15 15bc 6986 46bd 9d11 b53d
00000280: dfed 86bd f41d 88bd 057e 6d3c 58ff 843d
00000290: e6bf 2dbd f448 183d df14 833d a7d3 a5bd
000002a0: adac 163d b650 35bd b3b2 0c3d f71f afbb
000002b0: ace9 13bd 135b ae3d bc89 1d3c 7fae 5d3c
000002c0: c50d 00bd 10b5 b2bd f80f 2fbc 48ed 053e
000002d0: 6465 debc c02b f13c 533e a53c ccf8 023d
000002e0: 16da 073d c8c6 e8bc c798 2bbd ac0b 4dbd
000002f0: 7ff2 b53d 0438 753d b759 c4bd e787 713d
00000300: 3db4 31bd f252 32bc 1ccf 0abd 32dc 743c
00000310: 803e e4bd 538e 0bbe 055a 113d 3ff4 493d
00000320: 673f 29bc a478 d5bc 3387 783b a154 48bb
00000330: 63c9 ab3c 90c8 51bd 1156 aabc 8618 f13b
00000340: 8176 94bd 81ac 01be d133 0f3d 3f3b ad3c
00000350: 75be c23d 29f7 273c 3135 29bd cda4 c9bd
00000360: 66b1 3d3d 08d6 a0bd 8b8c 9dbd d7f1 cdbc
00000370: 34bd 053e 8080 663b 3ce7 b3bd 91d2 01be
00000380: ecec 9c3d ee0e 523c 4fcc 7b3d 44ff 82bd
00000390: 2535 da3c b72e b23c f5e0 6a3d 8f79 5dbd
000003a0: 2a75 96bc 7dcf 8d3d 3208 8cbd bcd3 933d
000003b0: b55f ee3c daed 2d3d 7866 aa3d c291 2fbe
000003c0: 7605 89bc d609 0abd d1af 263a e227 5d3d
000003d0: b977 edba 13ce 4f3c 5a33 dc3c 83fd 893d
000003e0: 3043 843b 5930 46bc 9d6b 7abc d6fb 9a3d
000003f0: 743c 8a3c 7259 05bd 9884 9abd 5723 6d3d
0.03995846 -0.0182715 0.015921881 0.0033905967 0.091733985 0.033775922 0.11622672 0.015636865
0.0906737 -0.013088631 0.05552007 -0.08123371 -0.03504125 0.026312167 -0.03980604 0.069341905
-0.0755503 -0.0514523 -0.08101923 -0.044458408 -0.09054727 0.086099125 0.020704258 -0.10087723
0.031724855 0.05298359 0.048751578 0.060005452 0.055043332 -0.010894309 0.07393539 -0.03926554
-0.08299095 -0.058898296 0.06956549 -0.056407493 -0.07895121 0.062154163 -0.060031828 0.019486599
0.018803023 0.029965527 -0.014028718 0.09155325 0.062160693 -0.021721957 -0.096961685 0.119343564
-0.10319295 -0.0112727005 -0.110302955 0.0072673997 0.016853381 -0.061973795 -0.04815098 -0.08571521
0.031138621 0.0028045976 -0.07647344 -0.0115515 -0.02137585 0.02550004 -0.09444267 -0.00922503
0.065474294 0.007017999 0.0038885633 0.015884798 -0.062466558 -0.08111688 -0.07346191 0.0574546
-0.03700115 0.009743698 -0.01943655 -0.070447065 0.059048336 0.06583651 -0.013077397 0.023516467
0.050945766 0.006911604 0.023405058 0.12430284 -0.03550938 0.032924794 -0.01732409 -0.04025417
-0.0597429 0.0016704974 0.074279234 -0.033742093 0.07694567 -0.08442345 -0.026001086 -0.13377273
0.042809628 0.024661422 -0.060575448 -0.040204935 -0.024307095 0.016779156 0.02753019 -0.07814081
0.04757563 0.06255223 -0.0750742 0.019662892 -0.05731828 0.0386425 0.10998139 -0.024130857
-0.007870355 0.05136805 0.016489083 0.07522611 -0.0014798563 -0.061465077 -0.07384388 0.028887073
0.043383602 0.028865231 0.051571164 -0.057957534 -0.0034146775 -0.07104936 0.004230786 0.08211644
0.06073467 -0.039096285 -0.043513767 -0.017770024 0.085816294 -0.04612185 0.031651005 -0.07726022
-0.02460336 -0.054352503 0.016279047 -0.030109074 0.093354866 0.011655686 0.010485162 -0.012037764
-0.014829728 -0.0632755 0.07122637 -0.051354494 0.008008463 0.11505697 -0.06995274 -0.089957625
0.073587164 0.103291936 0.056644727 -0.029151142 -0.020522643 -0.009099329 -0.048468027 0.0884125
-0.06588339 -0.06646338 0.014495377 0.064940155 -0.042419337 0.03717895 0.06400465 -0.0809701
0.03678577 -0.044266425 0.03435011 -0.0053443867 -0.03611152 0.08513465 0.009615358 0.013530373
-0.03126313 -0.08725941 -0.01068496 0.13078797 -0.027147956 0.029439807 0.02017132 0.031975552
0.033166967 -0.028415099 -0.041893747 -0.05005996 0.08884143 0.059867874 -0.09587424 0.058967497
-0.04338478 -0.0108840335 -0.03388892 0.014945077 -0.111447334 -0.13628511 0.03548624 0.049305197
-0.010330058 -0.026058502 0.0037922382 -0.003056802 0.020970052 -0.051216662 -0.020792993 0.0073576597
-0.07249165 -0.12663461 0.034961525 0.021146415 0.09508983 0.010251799 -0.041310493 -0.098458864
0.04631176 -0.07853323 -0.07692822 -0.025139732 0.13060457 0.0035171807 -0.08784339 -0.12677981
0.07662377 0.012820942 0.06147414 -0.06396344 0.02663667 0.021750791 0.057343442 -0.054071005
-0.018366415 0.06924341 -0.06837501 0.072181195 0.029098371 0.04246316 0.083203256 -0.17145446
-0.016726237 -0.033700787 0.0006358596 0.053993113 -0.0018117345 0.012683409 0.026879955 0.06737807
0.0040363297 -0.012096488 -0.015284446 0.07567565 0.01687453 -0.032556005 -0.075448215 0.05789503

lstm.weight_hh_l1 f4 [512, 128]
00000000: 1040 d23a 2255 52bc 27a3 013d 999a 153d
00000010: cc64 1fbd 88b4 5e3d 2df7 553d 4336 46bd
00000020: fcde 8f3d a90c eabc fe17 2fbd c5ad db3d
00000030: 5e13 9c3d 805a 8b3c 1111 6bbd 7056 92bd
00000040: 418c 14bd 3f9d 09bd 6c6a 35bd 8dec 853d
00000050: 7dc1 9c3d 2b06 d0bc 0589 ff39 fd27 2fbd
00000060: d0b3 7d3d b71a a4bd 4f60 47bd 103f 1f3d
00000070: 56da 07bc 1951 89bd 7bd2 75bd 0e56 4abc
00000080: 00fd 6f3a 5160 e1bc 068e 993d 9c19 c43c
00000090: d2a8 aa3d 0e7c f43b c773 243d a34a 47bc
000000a0: 71c6 7dbd 2da7 b53c 7ec2 533d 6e65 ac3c
000000b0: f34a 5bbb b0d0 903d 7198 8a3d bb34 c03d
000000c0: 9360 d23b 49d3 80bd dc3f aabd 300e 723d
000000d0: d125 9ebd 395c bebd 37cc aebd 0154 73bd
000000e0: a9e3 d1bc 7323 173d 1893 33bd db56 74bd
000000f0: bb22 5f3d a9e1 24bd 369f 3b3d b82c 9d3c
00000100: 9ec7 6b3d 780c b33d bdd0 a03d db3b 6e3d
00000110: b65f 973c f253 60bd 5685 64bd 1a53 303d
00000120: c08e bb39 db51 103d 4c42 933d 57d1 8e3d
00000130: fa13 a2bc 813e f63c 463e b43d 0b05 87bd
00000140: 1e14 a1bd acbf 693d 159c 8cbd bdeb 8f3d
00000150: eaa6 953d 08a7 eabc ba95 a2bc b747 29bd
00000160: 9841 bcbd ea0e e63c dc9e 423d 286f 8b3c
00000170: b3fe 78bd 4620 a7bd 830c c43c 5949 6abc
00000180: 5e2a 6b3d 7d03 f63b 9bae 23bc 4bb8 ce3d
00000190: db83 ac3c f5cf 0ebd a717 99bd 4ede aabc
000001a0: 3929 9f3c 12ee 5d3d d03d cfbd 28f8 b0bc
000001b0: 172f 04bd 90ae 403d e814 753d 7d0a 74bd
000001c0: 8013 16bd 274f d4bc 2814 ca3c f5cf dd3c
000001d0: 7895 77bb f97d 74bd 0637 b2bc 2409 a5bd
000001e0: 33be 08bc d64b e8bd 4638 4bbd c265 e9bc
000001f0: 1bc2 733c 611d 943b 8bb5 443d d8dc 8f3d
00000200: a800 b9bd 1ce4 25bd 6d1a be3b 0f83 94bb
00000210: 5a8d 59bd 8846 1ebd ab61 fe3c 6f47 83bd
00000220: 0408 f4bc 998c a83d ba6a ca3c 1b8c 003c
00000230: 5d54 9e3d d1e4 10bd 4840 51bd 447e 813d
00000240: 17ed aebd 5ed7 8d3d 067b 263d ea82 763d
00000250: e897 9ebd 3779 2bbd b8e9 fbbc 68bf 80bd
00000260: b053 85bd c679 773c 3063 1f3c 7ce2 443d
00000270: 62bf ac3d baf2 473d 90b6 163d 81f0 823d
00000280: 6a37 853d eca6 4bbc e6ad 8e3c 5b62 c0bd
00000290: 26fd 17bd cc4c b73d 5f64 1c3d 3764 033d
000002a0: 2362 afbd 693e 4fba ec71 3abd 5184 a13d
000002b0: e5e2 e63c 8515 463d 703e 90bc e924 453d
000002c0: 0b56 863c 0fcc 7b3d 3389 3b3d f0ae 0e3d
000002d0: 32ab 033b 75ee c4bd 3dec 9abd e731 623c
000002e0: fe4b 87bd edd5 1bbc 3aca 9dbc 822d 603d
000002f0: e135 553d 5095 943b f2d6 d3bc c808 4a3c
00000300: 7677 57bb 20cd a5bd 01b0 7c3d 8f4d 8cbd
00000310: 5e31 973d e76a 65bd ac4b 423d d65f 0d3c
00000320: 431b 1d3b 76a2 cd3a a452 123d d29a 9ebd
00000330: 4f41 29bd 9cb7 44bd 4ed3 65bd 988b 3f3c
00000340: 7866 9bbd 60f4 41bd a8cb 123c 0b0d 5fbd
00000350: 0883 5abd 9ca1 54bd d1ae 2cbd 2fbd 493d
00000360: 048a 703b 6f72 fabc 54dd af3c 4699 89bd
00000370: 8bb1 503d 4746 8c3d 8639 adbd 1716 b4bd
00000380: 30ad 6dbd d736 5bbd e21d 8cbd eea4 04bc
00000390: 9d08 b33d 99cc 71bd 62b1 c4bc 8636 933d
000003a0: 68d5 edbc 0b25 90bd 9735 80bd 68e1 b5bc
000003b0: f984 9c3d 14ab 4bbd 5288 8bbc 7190 543d
000003c0: 6680 a53d 0488 fdbc 94ac e43c 7bfc 49bc
000003d0: 3e9c b43d f7e0 fc3c 546c 2e37 2e89 2cbd
000003e0: 001c 3abd c6fc b7bd 236e 25bc 6a80 a0bd
000003f0: fa10 1a3d d501 853d 343a 3abd 821e 013d
0.0016040821 -0.01283768 0.031649735 0.03652439 -0.038914487 0.054371387 0.05223768 -0.04839159
0.07024953 -0.02857049 -0.04274749 0.10726503 0.076208815 0.017010927 -0.057389323 -0.07145393
-0.03626657 -0.033597227 -0.044290945 0.06539259 0.076540925 -0.025393566 0.00048739478 -0.042762745
0.06193906 -0.08012908 -0.04867583 0.0388785 -0.008291801 -0.06704921 -0.060015183 -0.012349619
0.00091548264 -0.027511748 0.07497792 0.023937993 0.08332981 0.0074610775 0.040149476 -0.012163791
-0.061956827 0.022174442 0.051699154 0.02104446 -0.0033461421 0.07071054 0.06767357 0.093850575
0.006420204 -0.062902994 -0.083129615 0.05909556 -0.07722057 -0.09294934 -0.08535045 -0.059406284
-0.025621252 0.03689904 -0.04384145 -0.059653144 0.05447648 -0.04025427 0.045806132 0.019186363
0.057563417 0.087426126 0.07852314 0.05816255 0.018478256 -0.054767556 -0.05579122 0.043048
0.00035773776 0.035234313 0.071903795 0.06973522 -0.019784916 0.030059101 0.0880094 -0.06592759
-0.07865165 0.05706756 -0.06865708 0.070273854 0.07307227 -0.0286441 -0.019846786 -0.04132816
-0.091921985 0.028083283 0.04751478 0.017020777 -0.060789775 -0.081604525 0.023931747 -0.014299714
0.05741345 0.00750774 -0.00999036 0.10093745 0.021058967 -0.034866292 -0.074752145 -0.020857956
0.019428836 0.05418212 -0.10119212 -0.021602705 -0.03227147 0.047041476 0.05983439 -0.059580315
-0.03663969 -0.025916649 0.024667814 0.0270767 -0.00377783 -0.05969045 -0.021754753 -0.08058384
-0.008346128 -0.113425896 -0.049614213 -0.028490905 0.014877821 0.004520104 0.048024695 0.070245445
-0.09033328 -0.040500745 0.00580149 -0.004532225 -0.05311332 -0.038641483 0.031052431 -0.06410109
-0.029788978 0.08229942 0.024709094 0.007845904 0.07730935 -0.035374466 -0.051086694 0.063229114
-0.08541315 0.06925844 0.040644668 0.060183443 -0.077438176 -0.041863646 -0.030751094 -0.06286508
-0.06510103 0.015104717 0.009728238 0.048067555 0.08434941 0.048815466 0.0367952 0.06393529
0.0650471 -0.012429934 0.017416906 -0.0939376 -0.037106656 0.08950195 0.03818166 0.032077994
-0.0856364 -0.0007905723 -0.0455188 0.078865655 0.028184364 0.048360366 -0.017607898 0.048130903
0.01639845 0.061473902 0.04578514 0.034834802 0.0020091054 -0.096157946 -0.0756459 0.013805843
-0.06606291 -0.009511453 -0.019261468 0.0547309 0.052053336 0.004534401 -0.02585933 0.012331195
-0.00328776 -0.08095765 0.061691288 -0.06850731 0.07382463 -0.056010153 0.047435448 0.008628806
0.0023972548 0.0015688676 0.035723343 -0.077443734 -0.04132205 -0.048026666 -0.05610972 0.011690997
-0.07587904 -0.047352195 0.008959688 -0.054455798 -0.053347617 -0.051911935 -0.042158905 0.049252685
0.0036703357 -0.030572144 0.021467842 -0.06718688 0.05095057 0.06849342 -0.08458237 -0.08793276
-0.058026493 -0.053519096 -0.06841637 -0.008095963 0.08741877 -0.05903301 -0.024010364 0.07188134
-0.029032424 -0.070383154 -0.062602215 -0.022202209 0.0764255 -0.0497237 -0.017032776 0.051895563
0.08081131 -0.030948646 0.027914323 -0.012328262 0.08818863 0.03086899 1.039643e-05 -0.042123012
-0.04543686 -0.089837596 -0.010097059 -0.07836993 0.037613846 0.0649449 -0.045465663 0.031523235

lstm.bias_ih_l1 f4 [512]
00000000: 1aa5 ec3c 57c8 bc3d 1807 693d 281d 5c3d
00000010: b28c 88bd 8a2a 8abd 2332 ca3c d259 86bd
00000020: 3f8d 3e3c 97ce 973d 66e2 6abd dcc9 1c3d
00000030: 41e6 973d b8e6 cf3c bbf7 163d 15a2 9e3d
00000040: 5e69 c6bc b68c 903c e862 3cbd dcad 153d
00000050: 0207 f7bd 0539 b83c 64c2 183c 7979 0e3b
00000060: ca57 8b3d cf73 a13d b19f 873d 3328 25bd
00000070: cd49 4fbd 7ebb bf3c 9e3c 6ebd a7c1 80bd
00000080: 34d1 733d d40e 8a3d 8d4f 8c3d edfa 783c
00000090: 88fd 81bd 30e2 ba3d 63c3 89bd acd4 bf3c
000000a0: f2a1 473d 8e31 8d3a 7272 33bd dd3e 8cbd
000000b0: 4434 c53c 25ea 093d 1da2 71bd 287c e4bb
000000c0: 5341 bdbd bc35 ad3d 2ce6 243d 5ba5 81bd
000000d0: 2aa3 883d 2724 ca3c 9280 6e3d 887f 983d
000000e0: 3f40 1c3d eeed 643d f7a4 50bd 6ffd 533d
000000f0: 00ef d83c 0318 bf3d 0171 52bd 9b19 74bd
00000100: 8bea 68bb 82d8 90bb 484f dd3c 1ea4 b13d
00000110: ffa3 aabd c2c3 db3c 2a63 d83b 79a0 ed3c
00000120: 450e bb3d 899d 7b3d 4e4d be3c 13e3 953d
00000130: ac3a 4ebd 6aa1 813d ca6b 9f3d 3a8d 973d
00000140: a32d b03c 0cdb a33c cb95 1e3d fbff 073d
00000150: f03d 8bbd 887c 0abd 5aa8 293d 9bc0 b2bc
00000160: 14f7 0abd 917e 78bd 38c6 193d bc9a 0a3d
00000170: 0e09 cebd d4d0 7d3d c68b 4a3d f6f9 b03d
00000180: 4042 86bc e822 993d 7e27 b83b f8e0 9a3c
00000190: d682 823c 45ae da3a c975 9cbc 874c f4bc
000001a0: 130e 81bd 7c5d 5d3d 2823 11bd 0fae cd3d
000001b0: 1d46 94bd ab32 613d 1ec9 8fbc d597 cebd
000001c0: 6f1b 843d 1488 c0bc b87e da3d 4abc 5fbd
000001d0: b3cf 4d3b 5f83 813d 6c82 10bc 924c d5bc
000001e0: 7dd9 533c 7d12 943d d5b0 693c b795 0cbc
000001f0: 0696 5cbd 40b2 a1bc f738 993d e75b 18bc
00000200: 4cee 94bd 6457 c73c 5b06 60bd 2b6d 6c3d
00000210: a51d a7bd e09f 54bd 6ab2 513d 190a 2ebd
00000220: 048c 97bd 67b9 b5bd 2a11 93bd dd75 3abd
00000230: c30a 713c 3977 45bd 0f9c 71bc 542c 92bd
00000240: 46dd 6cbc 9568 ab3c 6b7f b9bd bea5 7dbd
00000250: ac9a 17bd 1268 91bd 1742 73bd 3474 0fbd
00000260: 003b 473d 3014 01bc 304b 403d 07b5 9bbd
00000270: 08f6 c83d ebc2 4dbc e838 853d be25 98bc
00000280: a7f9 873d 834e 1b3d 8cf5 4b3d 75de 883d
00000290: 4dd8 643b 2c8e a1bc 3048 7dbd 8350 adbd
000002a0: d6b8 4dbc 18a5 79bc 1977 11bd 1cb1 0abd
000002b0: 4691 30bc 1d9f fabc 1e42 313d 0c57 393d
000002c0: b6bd 7fbd 8ff9 9a3d 970e 723d 6a9e 83bd
000002d0: 48a6 d1bd 0c10 5ebd 69af 813d 3e65 91bd
000002e0: 8381 39bd fb0b 4c3d 715d 2cbd b535 21bd
000002f0: a0fb 5d3d a021 353b e1f3 183d 0f7d 9c3d
00000300: ec9f ec3c 8b52 5a3d bfd9 d2bd b6ef c5bc
00000310: 1338 9b3d 8c09 973d 89a1 46bd 84ae a5bd
00000320: 3358 e43c 0719 a7bc 2dfa 863d 9227 a9bc
00000330: db38 68bd 9def a1bd aa59 cdbb c16e 263d
00000340: f903 c0b8 bc0d 623c 23f9 c8bd 224f 32bd
00000350: cef1 4cbd d78e c03d df35 53b9 f041 85b9
00000360: 5deb 2ebd a20e 933d 69cd 81bc 87f5 6f3b
00000370: 8fb7 343d 49c4 133d 6564 ea3c 9b8f a33d
00000380: 1935 08bc d2bf a33d f8d0 053d e6c8 9ebb
00000390: 06be 8b3d 48ad cbbc 99c1 303c a6aa bd3c
000003a0: fe78 adbb dbb9 893d 56e6 9a3c 71f5 b1bd
000003b0: e308 37bd 11a5 b8bc 2dbe 713d a8ed 5c3d
000003c0: 2a26 23bd 6420 7bbd c32c aa3d fa30 913d
000003d0: 0201 8e3d d1d2 43bc 9b57 a4bd cb5f 7ebc
000003e0: 81d0 ef3c 7584 ee3c 6945 7e3d 8f6d e73c
000003f0: 8c6e 5f3d a40f 173d 2252 283d 3b26 9a3a
0.02888732 0.09217899 0.05689153 0.053738743 -0.066674605 -0.06746395 0.02468211 -0.065601006
0.011630355 0.07412451 -0.057344817 0.038278446 0.07416964 0.02537857 0.036857348 0.077457584
-0.024220165 0.017645221 -0.04599276 0.03654276 -0.120618835 0.022488127 0.00932369 0.0021739884
0.06803854 0.07883417 0.066222556 -0.04032154 -0.05060749 0.023404833 -0.058163278 -0.06286936
0.059525684 0.067411095 0.068511106 0.015196544 -0.063471854 0.09125173 -0.0672672 0.02341684
0.048738427 0.0010772215 -0.043810315 -0.06847928 0.024072774 0.033670563 -0.058992494 -0.0069728084
-0.09240975 0.08457515 0.04025857 -0.06330367 0.06671746 0.024675442 0.058228083 0.074462
0.038147207 0.05589097 -0.050938573 0.051755365 0.026481152 0.09330752 -0.0513773 -0.05959473
-0.003554019 -0.004420341 0.027015343 0.08673881 -0.08332061 0.026826743 0.006603618 0.029007183
0.09133581 0.061429534 0.023230221 0.073187016 -0.050348923 0.063296154 0.07784231 0.07399984
0.021506136 0.02000191 0.038717072 0.033203106 -0.06798923 -0.03381017 0.04142032 -0.021820357
-0.03392704 -0.060667578 0.03754255 0.033838972 -0.10060321 0.061966732 0.049449705 0.08641426
-0.016389012 0.07477361 0.005619942 0.018906102 0.015931528 0.0016684016 -0.019099133 -0.029821647
-0.063015126 0.05404423 -0.03543392 0.10042965 -0.072399355 0.05497996 -0.017551955 -0.100875534
0.06450545 -0.023502387 0.10668701 -0.054622926 0.0031404316 0.06323885 -0.0088201575 -0.026037488
0.012930271 0.07230089 0.014263351 -0.008580617 -0.05385401 -0.019738317 0.07481568 -0.009299255
-0.07272014 0.024333663 -0.05469356 0.0577213 -0.08159951 -0.05191028 0.05119554 -0.0424901
-0.07399753 -0.08873253 -0.07181008 -0.04552256 0.014712038 -0.048209403 -0.01474668 -0.07137361
-0.014457053 0.020923892 -0.09057506 -0.061925642 -0.03701274 -0.07099928 -0.0593892 -0.03502293
0.04864025 -0.007878348 0.046946704 -0.076028876 0.09812552 -0.012558679 0.06504995 -0.018572684
0.06639414 0.03791667 0.04979472 0.06683055 0.0034918964 -0.019721113 -0.06183642 -0.08462622
-0.012556275 -0.015237115 -0.03551397 -0.03386031 -0.010776823 -0.03059345 0.043275945 0.04524903
-0.06243678 0.07567131 0.059095945 -0.064266995 -0.10236794 -0.054214522 0.06332285 -0.070993885
-0.045289528 0.049816113 -0.0420813 -0.03935786 0.054195046 0.002763845 0.037341956 0.076410405
0.02888485 0.053301375 -0.10295438 -0.024162155 0.07579055 0.07374868 -0.048493896 -0.08089927
0.027874088 -0.020397676 0.06590686 -0.020648751 -0.056694847 -0.07907031 -0.0062667923 0.040632967
-9.1560134e-05 0.01379722 -0.09813144 -0.0435325 -0.05003529 0.094022445 -0.00020142597 -0.00025416864
-0.04270493 0.07180525 -0.015845018 0.0036614852 0.044120368 0.036075864 0.028612325 0.07986375
-0.008313441 0.07995571 0.03266999 -0.0048457263 0.068233535 -0.0248629 0.010788345 0.02315266
-0.0052939644 0.06724902 0.01890866 -0.08689392 -0.04468621 -0.022539647 0.059019256 0.053937584
-0.039831318 -0.061310187 0.08309319 0.0708942 0.06933786 -0.011952118 -0.08024522 -0.0155257685
0.029274227 0.029115895 0.062077913 0.028250484 0.054548785 0.03688015 0.041093953 0.0011760661
