backend/ml_models/TOTS3.SA/model.pt (torch, 807686 bytes, 9 tensors)

lstm.weight_ih_l0 f4 [512, 5]
0	0x3d010359	0.031497333
1	0x3e0066fe	0.12539288
2	0x3c87de52	0.016585503
3	0x3d4e89fa	0.050424553
4	0xbdd2ce21	-0.10293222
5	0x3b81ed01	0.0039650206
6	0x3d01b1ad	0.031663585
7	0xbda4a17e	-0.08038615
8	0xbd9ec0a2	-0.077515855
9	0xbe52947b	-0.20564453
10	0x3da8b1e0	0.08237052
11	0xbd0ea4a1	-0.03482497
12	0x3b110192	0.002212618
13	0xbcc25f00	-0.02372694
14	0xbc4d1dcf	-0.012519314
15	0x3ca67b32	0.020322416
16	0xbdadfc45	-0.08495382
17	0xbc8cc161	-0.017182054
18	0xbc9621c4	-0.018326648
19	0xbd69ba5b	-0.057062488
20	0xbd401838	-0.046898097
21	0xbda61b41	-0.08110667
22	0x3baf6a62	0.005353258
23	0xbd6d1696	-0.057882868
24	0x3db15a62	0.08659817
25	0xbcd4e760	-0.025989234
26	0x3d0ba5f6	0.03409382
27	0xbd1ec4d4	-0.03876193
28	0xbc7aec27	-0.015315092
29	0xbd62f5f0	-0.055410326
30	0x3d87ba2b	0.066273056
31	0x3da37e64	0.079830915
32	0xbd03b5a9	-0.032155667
33	0x3dde9f42	0.1087022
34	0xbd9c97bc	-0.076461285
35	0x3d7ec861	0.062202815
36	0x3e0c8fc2	0.13726714
37	0x3ccff766	0.025386523
38	0x3e281547	0.16414367
39	0x3c650a30	0.01397948
40	0x3d5dd2f3	0.054156255
41	0x3db403ac	0.08789763
42	0xbd2183df	-0.039432403
43	0xbd7ee251	-0.06222755
44	0x3c8e63dc	0.017381601
45	0x3e070e2e	0.13189003
46	0x3e17b8ef	0.1481664
47	0x3e2d083e	0.16897675
48	0x3d87919c	0.0661957
49	0x3d824c2c	0.06362185
50	0x3da443b4	0.08020726
51	0xbb2cb9f9	-0.0026355966
52	0x3dbd13af	0.0923227
53	0x3cbdeab2	0.0231832
54	0xbdad64fa	-0.084665254
55	0x3d317262	0.043321975
56	0x3d8148df	0.06312727
57	0xbb66d9f8	-0.0035225134
58	0x3cf5a8cc	0.029987715
59	0xbd2696e2	-0.040671237
60	0xbcd106e8	-0.025515988
61	0xbdc49ca5	-0.0960019
62	0x3d8e2812	0.069412366
63	0xbd331638	-0.04372236
64	0x3dcbd555	0.09952799
65	0x3d09315b	0.033494335
66	0xbd87df89	-0.06634433
67	0x3c36bd66	0.011153555
68	0xbcd903b5	-0.026491025
69	0xbe1cfab4	-0.1533001
70	0x3dc93bc0	0.098258495
71	0xbc8356cc	-0.016032599
72	0xbc919bc2	-0.017774466
73	0x3d6f3a79	0.058405373
74	0x3c27cb1c	0.010241296
75	0xbcc7c509	-0.024385946
76	0xbd234e16	-0.03986939
77	0x3e041e12	0.12902096
78	0xbc32440d	-0.010880482
79	0xbe0fb214	-0.14032775
80	0x3d2e240d	0.04251485
81	0xbd700959	-0.058602665
82	0x3dd3fda7	0.10351115
83	0xbb3b26a2	-0.0028556962
84	0xbdb6b396	-0.08920972
85	0x3da4720e	0.08029567
86	0x3c685669	0.014180758
87	0xbd50fd3b	-0.05102275
88	0x3dec9220	0.11551309
89	0x3bfc8019	0.0077057
90	0x3c9f26f4	0.019427754
91	0x3d0680b6	0.032837592
92	0x3e3d719c	0.1850037
93	0x3cf1f359	0.029534983
94	0xbd16f10b	-0.03685097
95	0x3de37ffa	0.11108394
96	0x3d80d9f6	0.06291573
97	0x3d8731b9	0.06601281
98	0x3decc811	0.11561597
99	0xbc6cfca5	-0.014464532
100	0xbd821674	-0.06351939
101	0x3dd0aee7	0.1018961
102	0x3d844c30	0.06459844
103	0xbcf10677	-0.029422028
104	0x3d49b4d6	0.049244724
105	0x3dcd6cec	0.10030541
106	0x3df5ed53	0.120081566
107	0x3d8b4310	0.067999005
108	0x3d95a4cb	0.073068224
109	0xbd631fb9	-0.055450175
110	0x3d943e5c	0.072384566
111	0x3c2ef50c	0.010678541
112	0x3d847ad1	0.06468738
113	0x3d8b2c21	0.06795526
114	0x3b55da2a	0.0032631257
115	0xbd4320df	-0.04763877
116	0x3d22d19c	0.03975068
117	0x3dc94666	0.098278806
118	0x3d64e0a6	0.055878304
119	0x3c6afab3	0.014341998
120	0x3c18d685	0.009328489
121	0x3dad1116	0.084505245
122	0xbd0fa695	-0.035070974
123	0x3dc64326	0.09680776
124	0xbd98c131	-0.07458723
125	0x3db68778	0.08912557
126	0x3d89c427	0.06726866
127	0x3d793d8f	0.060849722
128	0x3deb29c4	0.114825755
129	0xbe2e10ec	-0.16998643
130	0x3d0efe94	0.034910753
131	0x3da430b1	0.080171
132	0x3dd3395f	0.10313677
133	0x3d073dc1	0.033017877
134	0x38d4ce0c	0.00010147327
135	0x3c341641	0.010991634
136	0x3d9e0e86	0.07717614
137	0x3ce136e3	0.027491992
138	0x3d7edf5e	0.06222474
139	0x3d6bc357	0.057559337
140	0xbce7fae9	-0.028317885
141	0x3cbb9ae5	0.022901008
142	0x3dd7618d	0.10516653
143	0x3d9dd4ab	0.07706579
144	0xbca358dd	-0.019939834
145	0xbd861490	-0.06546891
146	0x376a21ba	1.3955339e-05
147	0x3c931ab4	0.017957069
148	0x3d206472	0.039158292
149	0x3c608342	0.013703169
150	0xbd0ec890	-0.03485924
151	0x3a876c5b	0.0010331975
152	0x3dba0be1	0.09084297
153	0x3ce8717b	0.028374424
154	0xbdaca9b0	-0.08430803
155	0x3d52dc36	0.05147954
156	0x3d9e5715	0.07731453
157	0xbc96d797	-0.018413348
158	0x3e17509b	0.14776842
159	0x3daf2a8b	0.08553036
160	0x3c255aae	0.0100924205
161	0x3dd4baa1	0.10387159
162	0xbd4bfa87	-0.04979947
163	0x3d9bc642	0.07606174
164	0x3d173165	0.03691234
165	0x3d7722e9	0.060336027
166	0x3d7870f9	0.060654614
167	0xbc7d61fb	-0.015465255
168	0xbd58e404	-0.052951828
169	0x3d52c8f9	0.051461194
170	0x3cb405e9	0.021975474
171	0x3db10145	0.0864282
172	0x3e17ab4b	0.14811437
173	0x3d30db4c	0.043177888
174	0xbe1de8b5	-0.15420802
175	0x3e026cb6	0.12736782
176	0x3e323c80	0.17405891
177	0x3e2d8e37	0.16948782
178	0x3e356621	0.1771474
179	0xbccbaeb2	-0.024863575
180	0x3dc878ca	0.09788664
181	0x3c880cda	0.01660769
182	0x3db8f261	0.09030605
183	0x3d0e25af	0.034703907
184	0x3e0d076e	0.13772365
185	0xbba9b704	-0.005179288
186	0x3dcdfd05	0.10058025
187	0x3d5222be	0.051302664
188	0x3dc48991	0.09596551
189	0x3d937dd1	0.07201732
190	0x3cf77031	0.030204864
191	0x3d60a207	0.05484202
192	0xbcfcd874	-0.030864932
193	0x3d14aa6e	0.036295347
194	0xbdaf1f7c	-0.08550927
195	0x3daeddc7	0.085383944
196	0x3da565f0	0.08076084
197	0xbc1c2e40	-0.009532511
198	0xbbe587f5	-0.0070047327
199	0x3ced4e26	0.028967928
200	0x3ddbb1ec	0.10727295
201	0x3dbc1408	0.09183508
202	0x3da8953d	0.0823159
203	0x3c53cf15	0.01292779
204	0xbc719f78	-0.014747493
205	0xbd52311b	-0.051316362
206	0xbcf61e54	-0.030043758
207	0xbcd0bbea	-0.02548023
208	0x3dd102ed	0.10205636
209	0xbe01e12a	-0.1268355
210	0x3c963dc9	0.018340008
211	0x3e21c4c5	0.15797718
212	0x3de341ad	0.11096511
213	0x3de82d23	0.11336734
214	0x3c08ca4a	0.008349011
215	0xbbc53a59	-0.0060189185
216	0x3dd356d8	0.103192985
217	0x3d37b99f	0.044854756
218	0xbc246563	-0.010033938
219	0x3e18020d	0.14844532
220	0x3ed0f865	0.4081451
221	0x3f1a89a9	0.603663
222	0x3f12f86d	0.5741032
223	0x3ee9ae7b	0.4564093
224	0x3f39d299	0.7258697
225	0x3dcc2659	0.09968252
226	0x3d84e106	0.06488232
227	0x3cc712f6	0.024301033
228	0x3de69b2e	0.11260067
229	0xbcdef069	-0.027214246
230	0x3dfc3ea3	0.123166345
231	0xbbde6914	-0.0067874286
232	0x3e12329e	0.14277121
233	0x3db6513f	0.08902215
234	0x3c8ce59e	0.017199334
235	0xbd2d95d0	-0.0423792
236	0x3a8d6b88	0.0010789493
237	0xbd40e591	-0.04709393
238	0xbcd7714e	-0.026299145
239	0xbe88527e	-0.26625437
240	0x3d8a932c	0.06766352
241	0x3b5add8a	0.0033396208
242	0x3d1c6a6d	0.038187433
243	0x3dd31332	0.103063956
244	0x3d99368a	0.074811056
245	0xbd1bd960	-0.0380491
246	0xbad4acaf	-0.001622578
247	0xbd3a3654	-0.045461968
248	0x3d2d0aad	0.04224651
249	0xbdbadaa2	-0.09123732
250	0x3d93e1b5	0.072207846
251	0x3d0d89aa	0.034555115
252	0x3e00b679	0.12569608
253	0xbcdc3f57	-0.026885672
254	0xbd66a0a1	-0.05630553
255	0x3d3b88d5	0.04578479

lstm.weight_hh_l0 f4 [512, 128]
0	0xbd2a448f	-0.04156929
1	0x3cd9c5dc	0.026583605
2	0x3c8f7d86	0.017515909
3	0xbd6688f7	-0.056282964
4	0xbd8e6a8d	-0.06953917
5	0xbd97db62	-0.07414891
6	0x3da74e05	0.08169178
7	0xbb88cb00	-0.00417459
8	0xbd7efe7f	-0.062254425
9	0xbc3b64ea	-0.011437634
10	0x3d7286d5	0.059210617
11	0x3cddadc1	0.027060391
12	0xbd448a4d	-0.047983456
13	0x3cfb0c96	0.03064565
14	0xbcb46a4c	-0.022023343
15	0xbd7be1bb	-0.06149457
16	0xbcbf2409	-0.023332613
17	0xbd8e1a79	-0.06938643
18	0x3d4fabdb	0.050701004
19	0x3de63569	0.11240656
20	0xbcec9ea2	-0.028884236
21	0xbcad2582	-0.02113605
22	0x3d4a648a	0.049412288
23	0xbcd5e86b	-0.026111802
24	0x3cca7b4b	0.024716994
25	0x3c87a04c	0.016555928
26	0xbdb28569	-0.08716852
27	0x3d3287d6	0.043586574
28	0x3d94c0a0	0.07263303
29	0xbd92fbb1	-0.071769126
30	0xbd80ddf4	-0.06292334
31	0xbc01ee52	-0.007930355
32	0xbda2707b	-0.0793161
33	0xbda023ea	-0.0781935
34	0xbd4c501d	-0.04988109
35	0xbdfe302b	-0.12411531
36	0x3d8ec672	0.06971444
37	0xbcd52542	-0.026018742
38	0x3d104872	0.03522534
39	0xbd5accbb	-0.053417902
40	0xbca085a3	-0.019594973
41	0xbda0edbe	-0.07857846
42	0xbd8d2277	-0.06891339
43	0x3d25ff6c	0.040526792
44	0xbdfb999a	-0.122851565
45	0xbd2f1e76	-0.04275366
46	0xbd85cfe3	-0.06533792
47	0x3c3eebf8	0.011652939
48	0x3d3e6231	0.04648036
49	0xbd584362	-0.052798636
50	0x3c9c7628	0.01909931
51	0xbc78245c	-0.0151453875
52	0xbd095737	-0.03353044
53	0xbc54c234	-0.012985755
54	0xbd475162	-0.048661597
55	0x3d4ba99a	0.04972229
56	0xbc081ae1	-0.00830719
57	0x3cdb3454	0.02675835
58	0xbd33ad76	-0.043866597
59	0xbcfbf3bd	-0.030755872
60	0x3cd27a83	0.025693184
61	0x3c26d7fa	0.010183329
62	0xbb6fc2ae	-0.0036584544
63	0xbc01872e	-0.0079057645
64	0xbdad760a	-0.0846978
65	0xbd880bba	-0.06642862
66	0xbb06a677	-0.0020545998
67	0x3da0dc54	0.07854524
68	0xbd9136d1	-0.070905335
69	0x3c97ac11	0.018514665
70	0xbcf33dd2	-0.029692564
71	0xbc754882	-0.0149709005
72	0xbdc05597	-0.09391325
73	0x3d1ff67f	0.039053436
74	0xbcfdf238	-0.030999288
75	0x3c3ee4e5	0.011651252
76	0xbdb9d7a9	-0.09074337
77	0xbdc29138	-0.095003545
78	0xbd27cb4a	-0.040965356
79	0x3dad0067	0.08447342
80	0xbd07daec	-0.033167765
81	0x3ce335cc	0.027735613
82	0xbbe3d40a	-0.0069527673
83	0x3c1d2177	0.009590498
84	0xbd4b105c	-0.04957615
85	0xb9691cf8	-0.00022231403
86	0x3d42f55f	0.047597285
87	0xbc92f2d1	-0.01793805
88	0xbce17a46	-0.027524125
89	0x3d2a45b5	0.041570384
90	0xbd425f95	-0.047454435
91	0xbc29a45d	-0.010354129
92	0x3dd1af81	0.10238553
93	0xbd55a856	-0.05216249
94	0xbd6897b9	-0.05678532
95	0xbd990825	-0.074722566
96	0xbd37613d	-0.044770468
97	0x3c84ddf7	0.016219122
98	0xbdba3e4c	-0.090939134
99	0x3d99d156	0.07510631
100	0xbdc3027c	-0.09521958
101	0x3c0e5e44	0.008689467
102	0xbcb3ea76	-0.021962386
103	0x3d2d1f1b	0.042265993
104	0x3d42ee58	0.047590584
105	0x3c223715	0.009900828
106	0xbc4e2d35	-0.01258402
107	0xbd700a34	-0.05860348
108	0xbdb966c8	-0.09052807
109	0x3d683876	0.05669447
110	0x3bf3e6e1	0.0074432944
111	0xbd905823	-0.07048061
112	0xbc991090	-0.018684655
113	0xbd34c03a	-0.044128634
114	0x3c00a97a	0.007852906
115	0xbc4f44f1	-0.012650714
116	0xbca8695a	-0.020558048
117	0xbda21bda	-0.079154685
118	0x3db9aef3	0.09066572
119	0x3d9f25b1	0.07770861
120	0xbda2e96d	-0.07954679
121	0xbc65d85f	-0.014028638
122	0x3d94ba32	0.072620764
123	0xbd7a5b75	-0.061122376
124	0x3b116de2	0.002219074
125	0x3d2ae460	0.0417217
126	0x3db71e8a	0.08941372
127	0xbd673948	-0.056451112
128	0x3d8183ba	0.06323953
129	0xbcce0c75	-0.025152424
130	0x3d03291e	0.032021634
131	0x3d82615e	0.063662276
132	0x3cace98a	0.021107454
133	0xbcf06067	-0.029342843
134	0xbd69ec6d	-0.05711024
135	0x3cc79a73	0.02436564
136	0xbc702387	-0.014656908
137	0xbd3678a2	-0.04454864
138	0x3d93d601	0.072185524
139	0xbd7d35e9	-0.06181899
140	0xbcf52295	-0.029923717
141	0x3d54ad9e	0.051923387
142	0x3d16477b	0.036689263
143	0xbd217e74	-0.039427236
144	0x3c26295a	0.010141695
145	0xbdd2d3ee	-0.10294329
146	0xbcdfd8f3	-0.02732513
147	0x3c8e2b9b	0.017354777
148	0x3c956369	0.018235879
149	0xbda3d950	-0.080004334
150	0x3ca5c080	0.020233393
151	0xbccf7b04	-0.025327213
152	0x3d7679fb	0.060174923
153	0xbc9386fd	-0.018008703
154	0x3d21f6c0	0.03954196
155	0xbdb3bb87	-0.087760024
156	0xbc6d4a74	-0.014483083
157	0xbd60ed12	-0.054913588
158	0x3d43ca4e	0.047800355
159	0xbdaf74d3	-0.08567204
160	0xbcee7c73	-0.029112076
161	0x3d88b7cb	0.06675681
162	0x3d1ae4f4	0.037816003
163	0xbd4ce159	-0.050019596
164	0xbda4d174	-0.080477625
165	0x3d8f34ea	0.069925144
166	0xbd80b23c	-0.062839955
167	0x3c16cb0d	0.0092036845
168	0xbdc5d60c	-0.09659967
169	0xbd6ac7a9	-0.057319317
170	0xbdd1a773	-0.102370165
171	0xbbc0e2b5	-0.0058864006
172	0x3d13d065	0.036087412
173	0xbd2b5e5b	-0.04183803
174	0x3d9ba011	0.075988896
175	0x3dc7a574	0.097483546
176	0x3c257e6d	0.010100943
177	0x3d0e1a7c	0.034693226
178	0xbda05d6a	-0.07830317
179	0xb945cbcb	-0.00018863303
180	0x3c807af0	0.015683621
181	0xbda0f8fc	-0.0785999
182	0x3b5952c1	0.0033160897
183	0xbb989e8d	-0.0046575726
184	0xbc0efe77	-0.008727661
185	0x3cb13d56	0.021635693
186	0x3d193916	0.037407957
187	0xbda4b550	-0.08042395
188	0x3db4bcd8	0.088250816
189	0x39dbbfd7	0.00041913867
190	0x3c6b76fb	0.014371629
191	0x3cd5dc7d	0.026106114
192	0x3cd2bcf1	0.02572486
193	0x3d525b7b	0.051356774
194	0xbd681426	-0.05665984
195	0x3bb3dc96	0.0054889424
196	0xbdbb30a6	-0.09140138
197	0xbdcb4253	-0.0992476
198	0x3d9a44c2	0.07532646
199	0x3d256180	0.040376186
200	0xbd33b647	-0.043875005
201	0x3c0a87be	0.008455215
202	0xbd08a4f3	-0.033360433
203	0xbad99473	-0.0016600027
204	0x3d70f170	0.058824003
205	0xbc2d79d8	-0.010588132
206	0x3c8f3e7e	0.017485853
207	0xbd8b247e	-0.0679407
208	0x3bd3d9ff	0.006465196
209	0xbdbc30ad	-0.09188972
210	0xbc6cce64	-0.014453504
211	0x3c58c97e	0.013231633
212	0x3d46d5d2	0.04854376
213	0x3d4ecd0f	0.050488528
214	0x3db89bab	0.09014066
215	0x3c6db267	0.014507866
216	0xbb9db681	-0.004813016
217	0xbd9805d7	-0.07422989
218	0xbdbea797	-0.09309309
219	0x3d907610	0.07053769
220	0xbd560f98	-0.052260965
221	0xbd4d6cc2	-0.050152548
222	0xbb2ed258	-0.0026675668
223	0xbd8cffee	-0.06884752
224	0x3d70345a	0.058643676
225	0xbc7dcfb8	-0.015491419
226	0x3d35b4a8	0.04436174
227	0xbd570f74	-0.05250497
228	0xbc8a1ab2	-0.016858432
229	0xbc769082	-0.015049102
230	0xbcb0ad1d	-0.021566922
231	0x3c69162f	0.01422648
232	0xbde1819b	-0.110110484
233	0x3daca1d4	0.08429304
234	0x3d92fc1f	0.071769945
235	0xbc52e296	-0.012871405
236	0x3c24ccdc	0.010058608
237	0x3d7521b6	0.059846602
238	0x3d436190	0.047700465
239	0x3cb8a2b5	0.022538522
240	0xbd1ccd0b	-0.03828148
241	0x3d872f3f	0.06600808
242	0x3d8ab021	0.06771875
243	0x3de1d211	0.11026395
244	0xbd826a4b	-0.0636793
245	0x3d914240	0.07092714
246	0xbca59ad2	-0.020215426
247	0x3ccea4c1	0.025225045
248	0x3c6efcf9	0.014586681
249	0xbd5d4e55	-0.05402978
250	0xbd7f0fdb	-0.06227098
251	0xbca64f85	-0.02030159
252	0xbbcc0993	-0.0062267273
253	0x3db96635	0.090526976
254	0xbca47d37	-0.020079238
255	0x3dc6d7e7	0.09709149

lstm.bias_ih_l0 f4 [512]
0	0x3daeb50a	0.08530624
1	0x3d737d88	0.059445888
2	0xbd0e2d6e	-0.034711294
3	0xbcf80500	-0.030275822
4	0x3d5aee84	0.053450122
5	0xbd27aaed	-0.040934492
6	0x3db0ab8d	0.08626471
7	0xbd933c39	-0.07189221
8	0xbd999de7	-0.075008206
9	0x3ddda9f2	0.1082343
10	0x3d94a29e	0.07257579
11	0x3dc55f2f	0.096372955
12	0x3d42f5bc	0.04759763
13	0xbd663ad4	-0.056208447
14	0x3d7b831e	0.06140434
15	0x3d9be598	0.07612151
16	0x3d50c8d7	0.050972786
17	0x3d75d82d	0.060020614
18	0x3d86525e	0.06558679
19	0x3dfa101b	0.12210103
20	0xbd6bf93f	-0.057610746
21	0x3d90fb4e	0.070791826
22	0x3d653139	0.055955146
23	0xbd626da5	-0.055280346
24	0x3d388521	0.045048837
25	0x3dc34aa0	0.09535718
26	0xbc82c3a0	-0.015962422
27	0x3c7d5336	0.015461734
28	0x3b0f09c6	0.0021825894
29	0xbd8eb796	-0.0696861
30	0xbc03ec57	-0.008051953
31	0xbd969e11	-0.073543675
32	0xbd9c8ec9	-0.076444216
33	0xbda6bb89	-0.08141238
34	0xbd6b297d	-0.057412613
35	0x3e3e8e26	0.18608913
36	0x3da2b361	0.0794437
37	0x3cf36050	0.029709011
38	0xbd8d571b	-0.0690138
39	0x3d3cbc3e	0.04607796
40	0x3ce38e85	0.02777792
41	0xbca7b544	-0.020472176
42	0xba627aa9	-0.00086394936
43	0xbd66e22d	-0.05636804
44	0x3ee14720	0.43999577
45	0xbcc694a6	-0.024240803
46	0xbc8d0ad0	-0.01721707
47	0xbd15ffe2	-0.036620982
48	0x3cefc98c	0.02927091
49	0xba8acf7d	-0.0010590401
50	0x3c2a6b8a	0.010401616
51	0xbd22548c	-0.03963141
52	0x3d89548b	0.067055784
53	0xbccad11e	-0.024757918
54	0xbcbb4adb	-0.022862842
55	0x3e01f743	0.12691979
56	0x3d7f2df5	0.062299687
57	0x3be3a204	0.006946804
58	0x3d759395	0.0599552
59	0xbda5d08b	-0.08096417
60	0x3d741987	0.059594657
61	0x3c6c7bcb	0.014433811
62	0x3d99ab05	0.075033225
63	0x3d0af536	0.033925258
64	0x3cab4714	0.020907916
65	0x3daf8b42	0.08571483
66	0x3db93cb5	0.09044782
67	0x3c37d6ad	0.011220616
68	0xbce5a331	-0.028031917
69	0xbcb095e8	-0.021555856
70	0xbcb85286	-0.022500288
71	0x3d9cbf8f	0.076537244
72	0x3d177eb2	0.03698606
73	0xbc858c6d	-0.016302312
74	0xbd01c295	-0.03167971
75	0xbcd691ce	-0.026192572
76	0x3c635b39	0.01387673
77	0x3c8f9967	0.017529203
78	0xbd536d0b	-0.051617663
79	0x3d390534	0.045170978
80	0x3d1d9b79	0.03847835
81	0xbd9fb23a	-0.07797666
82	0xbcd11e8c	-0.025527261
83	0x3dee5e01	0.116390236
84	0xbcbc676a	-0.02299853
85	0x3e1ef85e	0.15524432
86	0x3d7d5ec6	0.06185796
87	0xbcb2821d	-0.021790558
88	0xbc6ddfca	-0.0145186875
89	0x3da22aba	0.07918306
90	0x3d7dd1dc	0.061967716
91	0x3dfbc237	0.12292903
92	0xbd2ce0aa	-0.042206444
93	0x3dacd21e	0.08438514
94	0xbc336aa8	-0.010950722
95	0xbcf6e340	-0.030137658
96	0x3da597f1	0.08085621
97	0xbd633984	-0.055474773
98	0xbce09c86	-0.027418386
99	0xbd334d6d	-0.04377501
100	0x3baed44f	0.0053353678
101	0xbc35dc38	-0.0110998675
102	0xbc4ff606	-0.012692934
103	0xbd67f635	-0.056631286
104	0x3dd7f0b2	0.10543956
105	0x3d1a378b	0.037650626
106	0xbd6e8b8a	-0.058238544
107	0x3d2555d0	0.04036504
108	0x3cdee4f1	0.027208777
109	0x3d2ebd41	0.042660955
110	0x3d914ee1	0.07095123
111	0x3d5600fa	0.052247025
112	0xbd5ecfa1	-0.05439723
113	0x3e1012f8	0.14069736
114	0x3d6baf93	0.057540487
115	0x3ddcaedd	0.1077554
116	0xbd8e1318	-0.069372356
117	0x3dbf7ef4	0.09350386
118	0xbccfc12e	-0.02536067
119	0x3d270b58	0.040782303
120	0x3e07ec0a	0.13273636
121	0x3b9b2dfe	0.0047357073
122	0xbce875f2	-0.028376553
123	0xbc7183d0	-0.014740899
124	0xbd95bb31	-0.073110946
125	0x3da6ebf5	0.08150474
126	0x3d6715a3	0.05641712
127	0xbc47d780	-0.012197375
128	0xbdb974c2	-0.09055473
129	0xbdba6991	-0.091021664
130	0xbda76946	-0.08174376
131	0xbd0c5d93	-0.034268927
132	0xbda91c26	-0.08257322
133	0xbd55e911	-0.052224223
134	0xbd8ca257	-0.06866901
135	0xbd508f2c	-0.05091779
136	0xb94fae7f	-0.00019806063
137	0x3cca8ffb	0.024726858
138	0xbbab8cec	-0.005235305
139	0x3b0b4358	0.0021249857
140	0xbcae36da	-0.02126639
141	0x3d4804aa	0.048832573
142	0xbd5c23b8	-0.053745
143	0xbcde126f	-0.0271084
144	0xbc72cee1	-0.014819832
145	0x3b3c1f5f	0.0028705222
146	0xbd6e5061	-0.058182124
147	0xbde20704	-0.110364944
148	0xbd300f67	-0.04298344
149	0xbdec0812	-0.11524977
150	0xbd617f03	-0.05505277
151	0xbc738415	-0.014863034
152	0x3ccf7b31	0.025327297
153	0xbdffe625	-0.124950685
154	0x3ce6b686	0.028163206
155	0xbdabff90	-0.08398354
156	0xbd744a29	-0.059641037
157	0xbdb36c45	-0.08760885
158	0xbdcbf5e2	-0.09959008
159	0xbd3ab1bd	-0.04557966
160	0x3bd6dd5a	0.006557149
161	0x3b7c4460	0.0038492903
162	0xbd888ed4	-0.06667867
163	0xbdf98250	-0.12183058
164	0xbbb1e564	-0.005428957
165	0x3d2792eb	0.040911596
166	0xbbadb176	-0.005300696
167	0x3b21da41	0.002469674
168	0x3d075267	0.03303757
169	0x3d74aa27	0.059732582
170	0xbcc81461	-0.02442378
171	0x3d4dbbbe	0.050227873
172	0xbe48d9d5	-0.19614346
173	0xbd80e01d	-0.06292746
174	0x3d49098d	0.049081374
175	0xbde7c2bb	-0.11316439
176	0xbb061063	-0.0020456545
177	0x3d8d2cf1	0.068933375
178	0xbd55ecfa	-0.05222795
179	0xbd041ab4	-0.03225203
180	0xbd9c5381	-0.076331146
181	0x3d3184a6	0.043339394
182	0xbd0f58d4	-0.034996822
183	0xbcd580e4	-0.026062436
184	0x3b3a8e6e	0.0028466242
185	0xbc2179bc	-0.009855684
186	0xbcecd95f	-0.028912244
187	0x3b8692a0	0.0041068345
188	0xbd811c07	-0.06304174
189	0x3d97e286	0.07416253
190	0xbcf53ef7	-0.02993725
191	0x3d8143a7	0.06311732
192	0x3b9bfb57	0.0047601867
193	0x3c917405	0.017755518
194	0x3bea7150	0.007154621
195	0xbd83d937	-0.06437915
196	0xbc71f002	-0.014766695
197	0xbd8c3006	-0.06845097
198	0x3d645811	0.05574805
199	0xbdb1eb6f	-0.086874835
200	0x3c2cdd47	0.0105508035
201	0xbd063dc2	-0.03277374
202	0xbdb81962	-0.089892164
203	0xbd853226	-0.06503706
204	0xbd8f80d7	-0.07006996
205	0xbcb38f84	-0.02191902
206	0xbd0d5100	-0.034501076
207	0x3d5d4689	0.054022346
208	0x3b53a880	0.0032296479
209	0x3d6de7ca	0.05808238
210	0xbd4a7cef	-0.049435552
211	0xbd02b591	-0.031911436
212	0xbd5fb787	-0.054618385
213	0xbe2f0a2e	-0.17093727
214	0x3d12b8c2	0.03582073
215	0x3d0cd711	0.03438479
216	0xbdb5b212	-0.08871855
217	0x3d74f651	0.059805218
218	0x3d84297b	0.06453224
219	0xbd8902a7	-0.06689959
220	0xbba44eaa	-0.0050142603
221	0xbda720fa	-0.08160587
222	0xbe10d93e	-0.14145371
223	0xbc9b68a4	-0.018970795
224	0x3cc53715	0.024074117
225	0xbdb30524	-0.08741215
226	0xbd86a89f	-0.06575131
227	0xbd5957be	-0.053062193
228	0x3c9cd982	0.019146685
229	0xbd9f60da	-0.07782145
230	0x3c79cd40	0.015246689
231	0xbd94dbef	-0.072685115
232	0xbdf81677	-0.1211366
233	0x3d03c0c5	0.03216626
234	0x3c146443	0.009057107
235	0xbd5158cb	-0.05111007
236	0x3d8e7469	0.06955797
237	0x3c64f5c3	0.01397461
238	0x3d870751	0.06593192
239	0xbc251fce	-0.010078384
240	0xbd6e3ec4	-0.058165327
241	0x3d2ed784	0.042686
242	0xbcd19fcd	-0.025588894
243	0xbd3aebe8	-0.045635134
244	0xbd7f79db	-0.06237207
245	0xbd797b56	-0.060908638
246	0x3d111342	0.035418756
247	0x3d57b2d1	0.052660767
248	0xbd805d58	-0.06267804
249	0x3ce20519	0.027590321
250	0xbdd8d034	-0.105865866
251	0xbd0277dc	-0.031852588
252	0xbdbecc8b	-0.09316357
253	0x3d8188f2	0.06324948
254	0xbc3af09c	-0.011409905
255	0xbc0c562d	-0.008565468

lstm.bias_hh_l0 f4 [512]
0	0x3bbd9ced	0.0057865293
1	0x3dd048a1	0.10170103
2	0x39a2c8ad	0.00031048563
3	0xbca38a8f	-0.01996353
4	0x3cdbc455	0.026827017
5	0xbac1d8e8	-0.0014789375
6	0xbc9b881e	-0.018985804
7	0x3ce59169	0.028023439
8	0x3d7352af	0.059405025
9	0x3dc17e7c	0.09447953
10	0xbd9cce45	-0.0765653
11	0xbc7c3cef	-0.015395387
12	0x3d239418	0.039936155
13	0x3d70e680	0.058813572
14	0x3d113167	0.035447504
15	0x3d1ec0a4	0.038757935
16	0x3dc92d99	0.0982315
17	0x3d1c14ea	0.038105883
18	0x3ddbfe4a	0.10741861
19	0x3d5f6409	0.05453876
20	0x3ca94f23	0.020667618
21	0x3dfef6e1	0.12449432
22	0x3d204d30	0.03913611
23	0xbbb95031	-0.0056553115
24	0x3c7762bf	0.0150992265
25	0x3d24a3ce	0.04019528
26	0x3d1e63e6	0.03866949
27	0x3d89cb47	0.06728225
28	0xbd15df61	-0.036589984
29	0x3d8ab001	0.06771851
30	0xbd875f5c	-0.06609985
31	0xbcd7f3b2	-0.02636132
32	0x3d7a3a0a	0.061090507
33	0x3c405d15	0.0117409425
34	0x3da63d31	0.0811714
35	0x3e08f64f	0.1337521
36	0x3c88a8a5	0.016681978
37	0x3d9efc9e	0.07763027
38	0xbdd2e7c7	-0.10298114
39	0xbd1c8ae7	-0.038218405
40	0xbdad0cc4	-0.084497005
41	0x3c9f0970	0.01941368
42	0x3d929a90	0.07158387
43	0xbd8fbea3	-0.07018783
44	0x3f158a3d	0.5841406
45	0x3d26e226	0.040743016
46	0x3d258e58	0.040418953
47	0xbd4aaeb6	-0.049483024
48	0x3d903c54	0.07042757
49	0xb9c3f474	-0.0003737543
50	0xbba8aa96	-0.0051472886
51	0x3dc0a8f4	0.09407225
52	0x3e0d9df7	0.1382979
53	0xbd5430ae	-0.051804237
54	0x3b1e63b6	0.002416832
55	0xbc8b403f	-0.016998408
56	0x3d2b9521	0.041890267
57	0x3d3f21cf	0.0466631
58	0x3e0551c7	0.13019477
59	0x3d5412b6	0.051775657
60	0xbd140b91	-0.036143843
61	0x3d87b04a	0.06625421
62	0x3d9d8b8e	0.076926336
63	0x3d86ef0e	0.06588565
64	0xbd7be044	-0.061493173
65	0xbc5df642	-0.013547482
66	0xbd6c0627	-0.057623055
67	0x3d94dd3f	0.07268762
68	0xbbdf9290	-0.0068228915
69	0x3d356519	0.044285867
70	0xbd20c490	-0.039249957
71	0x3de3c7e1	0.11122108
72	0x3dbed461	0.09317852
73	0x3d792be6	0.06083288
74	0x3d6da0c5	0.05801465
75	0x3caebfb3	0.021331644
76	0x3dad04a3	0.0844815
77	0xbd387f05	-0.04504301
78	0xbd20a5cb	-0.039220612
79	0xbd280caf	-0.04102772
80	0x3cab932e	0.020944204
81	0x3d2970a1	0.041367177
82	0xbd790cc9	-0.06080321
83	0x3daa3498	0.08310813
84	0xbbebbf9c	-0.0071944725
85	0x3e350475	0.17677481
86	0x3c3de181	0.011589409
87	0x3d99fbb2	0.0751871
88	0x3a2ddb22	0.00066320796
89	0x3daec437	0.08533519
90	0xbd3adf4d	-0.045623112
91	0x3d053328	0.03251949
92	0xbd688557	-0.056767788
93	0xbc95bfae	-0.018279877
94	0x3d94e8f4	0.07270995
95	0x3da2b328	0.079443276
96	0xbbf62ec4	-0.007512899
97	0x3d5c939a	0.0538517
98	0x3d423837	0.047416892
99	0xbd6f5494	-0.05843027
100	0xbcc0f215	-0.023552934
101	0x3dc8d510	0.098062634
102	0x3d0760b9	0.033051226
103	0xbc2cd292	-0.010548251
104	0xbb44afd7	-0.0030012035
105	0xbb8ed865	-0.0043592923
106	0xbda88d76	-0.082301065
107	0x3da95693	0.08268466
108	0xbc0df635	-0.008664657
109	0x3d9efbab	0.077628456
110	0xbcff3d7d	-0.03115725
111	0x3d6bb9e5	0.05755033
112	0x3d8e6ca5	0.06954316
113	0x3df629ac	0.12019667
114	0x3cd32c82	0.025778059
115	0x3daddcdf	0.084893934
116	0x3d68ca60	0.056833625
117	0xbd18ccf5	-0.037304837
118	0xbd96c86e	-0.07362448
119	0x3c9e7401	0.019342424
120	0x3e01a6b5	0.1266125
121	0xbcc108b2	-0.023563717
122	0xbd91737a	-0.071021035
123	0xbd883d2e	-0.06652294
124	0x3d58917f	0.05287313
125	0x3c8b4563	0.01700086
126	0xbc6ce078	-0.014457814
127	0xbd863c33	-0.06554451
128	0x3d354f33	0.044264983
129	0xbd8e4433	-0.06946602
130	0xbd686708	-0.056738883
131	0xbc9ccd22	-0.019140784
132	0xbd986a99	-0.07442207
133	0x3d2079d8	0.0391787
134	0x3d5c62bc	0.053805098
135	0xbd7d6e46	-0.061872743
136	0x3d713962	0.058892615
137	0xbb66510a	-0.0035143518
138	0xbdbbd6b9	-0.091718145
139	0xbc7ceca4	-0.015437279
140	0xbab0b87b	-0.0013482714
141	0xbd0c0ffe	-0.03419494
142	0x3cfe5724	0.031047411
143	0x3cabc2e6	0.020966958
144	0xbdce1cf8	-0.10064119
145	0xbcac5ab6	-0.021039348
146	0xbc22dc28	-0.009940185
147	0x3cc0c867	0.02353306
148	0xbbeadbcd	-0.0071673156
149	0xbd1d0226	-0.038332127
150	0xbda333d3	-0.07968869
151	0x3da13db0	0.07873094
152	0xbd6dd061	-0.058060054
153	0xbdc20e33	-0.094753645
154	0xbdb22569	-0.08698542
155	0xbd8a118f	-0.0674163
156	0x3d4267bd	0.047462214
157	0xbd3f1e24	-0.046659604
158	0xbd30aed1	-0.043135468
159	0xbccee965	-0.025257776
160	0xbda65416	-0.08121507
161	0xbd96c847	-0.073624186
162	0x3c9e21f8	0.019303307
163	0x3c940d1b	0.018072655
164	0x3ca8e4ec	0.020616971
165	0xbc7ad680	-0.01530993
166	0x3b795ef1	0.0038050974
167	0x3d819ff8	0.0632934
168	0xbd35fee3	-0.044432532
169	0x3c440921	0.011965067
170	0xbe0609a2	-0.13089612
171	0xbdbf595f	-0.09343218
172	0xbea48f20	-0.32140446
173	0xbca84b93	-0.02054385
174	0x3cf0421b	0.029328397
175	0xbd70122e	-0.058611088
176	0x3d7ba2f0	0.061434686
177	0xbd0b82af	-0.034060176
178	0xbc522302	-0.012825729
179	0x3caa5869	0.02079411
180	0xbd86d659	-0.06583852
181	0xbd1045b2	-0.035222717
182	0xbdb57685	-0.088604964
183	0xbdf0e4ec	-0.117624134
184	0x3d717563	0.05894984
185	0xbd06591c	-0.032799825
186	0x3d32c3f2	0.0436439
187	0xbc2f6bd7	-0.010706863
188	0xbd853911	-0.06505025
189	0xbd06322f	-0.032762703
190	0x3ccbb448	0.024866238
191	0xbd97e835	-0.07417337
192	0xbd8cd1f5	-0.068759836
193	0x3d1e887b	0.038704377
194	0xbdc72083	-0.09722998
195	0x3ccc7557	0.024958296
196	0x3d9b96eb	0.07597145
197	0xbd4e49ca	-0.05036334
198	0x3b0a2cfc	0.0021083942
199	0x3c519a2a	0.012793103
200	0xbb73bb36	-0.0037190444
201	0xbd089f51	-0.03335506
202	0x3d488123	0.04895128
203	0xbca798b1	-0.020458551
204	0x3d8297cf	0.063766114
205	0xbd476518	-0.048680395
206	0xbdd1f78b	-0.10252293
207	0xbd051f9d	-0.032500852
208	0x3d43a473	0.047764253
209	0x3d38c185	0.04510643
210	0xbcb47fb4	-0.02203355
211	0xbd2031c9	-0.03910998
212	0x3d66fc0f	0.056392726
213	0xbd76079a	-0.060065843
214	0xbba10811	-0.0049142917
215	0xbd714d6d	-0.05891173
216	0x3d0eb508	0.034840614
217	0xbddd84ed	-0.10816369
218	0x3d718cc3	0.05897213
219	0x3bb0f258	0.0053999834
220	0x3d10bbea	0.03533546
221	0xbd32a6cb	-0.043616097
222	0x3c2b8032	0.010467576
223	0xbd961aa2	-0.073292986
224	0x3cf0138c	0.029306196
225	0xbd75bd12	-0.059994765
226	0x3d842083	0.064515136
227	0xbd5b44ba	-0.05353234
228	0xbdd1069c	-0.10206339
229	0xbdc7cd89	-0.097559996
230	0xbd0081ca	-0.031373776
231	0xbda80c2f	-0.08205449
232	0xbd9c2be4	-0.07625559
233	0xbd8168e4	-0.063188344
234	0xbd692910	-0.056923926
235	0x3d823997	0.06358641
236	0x3d35bc20	0.044368863
237	0x3d23908f	0.039932784
238	0x3c374b68	0.011187412
239	0x3b4f5c86	0.0031640842
240	0x3d934026	0.0718997
241	0xbe0057c3	-0.12533478
242	0xbd87ee65	-0.06637267
243	0x3d2222f2	0.039584108
244	0xbd8613b5	-0.065467276
245	0x3cb15597	0.021647258
246	0x3d863163	0.065523885
247	0x3ca29941	0.019848468
248	0xbdb60528	-0.08887702
249	0x3cd2da5f	0.025738893
250	0xbdbdbf5c	-0.092650145
251	0xbda28b24	-0.07936695
252	0xbda2f9ac	-0.079577774
253	0x3c83177a	0.016002405
254	0xbdb80ada	-0.08986445
255	0xbd016963	-0.031594645

lstm.weight_ih_l1 f4 [512, 128]
0	0xbc8340c8	-0.016022101
1	0xbd41a251	-0.047273938
2	0xbd96c544	-0.07361844
3	0xbd38c6e5	-0.045111556
4	0x3d1ccbfe	0.03828048
5	0xbd61f0f1	-0.05516142
6	0x3dc57d12	0.09642996
7	0x3d8dfd1b	0.06933042
8	0xbd5cb96e	-0.053887777
9	0xbe34fa67	-0.17673646
10	0xbd98488b	-0.074357115
11	0xbdcd8fb0	-0.10037172
12	0xbd7ce3e6	-0.06174078
13	0x3d8f42d4	0.06995168
14	0xbd23235d	-0.039828647
15	0xbd2c2c86	-0.04203465
16	0x3d3e90da	0.04652486
17	0xbd4e7840	-0.050407648
18	0xbc62bd48	-0.0138390735
19	0x3da5549a	0.08072777
20	0x3bcc0e11	0.006227263
21	0x3deac635	0.11463586
22	0x3d19e472	0.037571378
23	0xbcfd1128	-0.03089197
24	0x3da57436	0.08078806
25	0xbd38ecde	-0.04514777
26	0xbd98f6a3	-0.07468917
27	0xbd7066e8	-0.05869189
28	0x3c5e20cc	0.013557624
29	0xbd236ab6	-0.03989669
30	0x3ddb20e0	0.1069963
31	0x3caf0ab8	0.021367416
32	0x3b1eaa58	0.002421042
33	0xbca5d778	-0.020244345
34	0xbcae06ea	-0.021243531
35	0xbdf8869b	-0.12135049
36	0xbd0b21c0	-0.033967733
37	0xbdacb335	-0.084326185
38	0xbd677f77	-0.056518044
39	0x3d4eb3cc	0.050464436
40	0xbd96b849	-0.07359368
41	0x3cbd1d03	0.023085123
42	0x3ca3e917	0.020008607
43	0xbde03ee7	-0.10949498
44	0xbded5a39	-0.11589474
45	0x3d3e7287	0.04649594
46	0xbdcd157b	-0.10013863
47	0x3c0ad5e1	0.008473844
48	0x3d277438	0.04088232
49	0x3dad45d4	0.08460584
50	0xbd7d865f	-0.061895724
51	0x39f603e2	0.0004692367
52	0xbd5d12eb	-0.05397312
53	0xbd5d3112	-0.054001875
54	0x3d8f045a	0.06983252
55	0x3dc9ae3e	0.09847687
56	0xbd466902	-0.048439987
57	0xbc52496f	-0.012834891
58	0x3d87650e	0.066110715
59	0x3d95c9db	0.073138915
60	0x3ccfefba	0.025382865
61	0x3d738d45	0.059460897
62	0x3d545a74	0.051844075
63	0xbdcf6aed	-0.10127816
64	0xbd03a409	-0.032138858
65	0x3d247b53	0.040156674
66	0x3db1df42	0.08685161
67	0x3d36c6e9	0.04462329
68	0x3d47fa68	0.04882279
69	0x3da8aef3	0.08236494
70	0xbda92c24	-0.08260372
71	0xbd77d9b0	-0.060510337
72	0xbbb0a0ea	-0.005390276
73	0xbd99d239	-0.075108
74	0xbc811c03	-0.015760427
75	0x3d3c3900	0.045952797
76	0xbdefa6de	-0.11701749
77	0xbd08512e	-0.033280544
78	0xbb06de4b	-0.0020579274
79	0xbd9861c8	-0.07440525
80	0xbd717444	-0.05894877
81	0xbd95d838	-0.07316631
82	0x3d2f903e	0.04286217
83	0x3daf2a49	0.08552987
84	0xbd590bab	-0.052989643
85	0xbcc6eb3f	-0.024282096
86	0x3d470dfa	0.048597313
87	0xbd4cc3e4	-0.049991503
88	0x3cbc8af1	0.023015471
89	0xbb03b847	-0.0020098852
90	0xbdc1a4d8	-0.094552696
91	0xbcfd88d3	-0.030949032
92	0xbc7c055b	-0.015382136
93	0x3db60a4e	0.08888684
94	0x3d1fb942	0.038995035
95	0x3d502ab2	0.050821967
96	0xbd28149a	-0.041035272
97	0xbdd130c7	-0.10214382
98	0x3d646513	0.055760454
99	0x3d193c41	0.03741098
100	0xbdbcaee0	-0.09213042
101	0xbcc01677	-0.023448212
102	0x3ca82927	0.020527435
103	0x3cd6aef6	0.026206475
104	0x3d854652	0.06507553
105	0x3d7b59e9	0.061365042
106	0xbbe7636d	-0.007061413
107	0xbd28a10d	-0.041169215
108	0xbd7063dc	-0.058688983
109	0xbd4a3953	-0.049371075
110	0xbd7b137f	-0.06129789
111	0xbcd093a1	-0.02546102
112	0xbd0e4ff8	-0.034744233
113	0xbddd586c	-0.10807881
114	0x3d5028b2	0.05082006
115	0x3d251312	0.04030139
116	0x3cab6014	0.020919837
117	0x3d94586b	0.07243427
118	0xbd9210dd	-0.07132123
119	0xbcc9d219	-0.024636315
120	0xb8c1fc4b	-9.2499504e-05
121	0x3dc85e53	0.09783616
122	0x3d0088f6	0.031380616
123	0x3dbdcf22	0.09268023
124	0x3dc7bc31	0.097526915
125	0xbd0135fc	-0.031545624
126	0xbd2c6ec3	-0.042097818
127	0xbb8b0961	-0.0042430614
128	0x3da71825	0.08158902
129	0xbcb27bdb	-0.021787575
130	0xbd6f661e	-0.058446996
131	0xbafbc005	-0.0019207007
132	0xbdb8f11b	-0.09030362
133	0x3d6161e8	0.05502501
134	0x3cf8e0c8	0.030380622
135	0xbbbee9e3	-0.0058262213
136	0x3d2e575e	0.04256379
137	0xbdeb95f7	-0.11503213
138	0xbd4b185b	-0.049583774
139	0xbd8219da	-0.06352587
140	0x3c63dc6b	0.013907532
141	0xbcc70023	-0.024292057
142	0x3db58f2e	0.088652
143	0x3c88a270	0.016679019
144	0xba8dc6b7	-0.0010816668
145	0x3d73d14e	0.05952578
146	0x3ca7153a	0.020395864
147	0xbc3e628b	-0.011620174
148	0xbce9dfe9	-0.028549151
149	0x3e23845d	0.15968461
150	0x3d6095cb	0.054830354
151	0xbd5474ef	-0.05186933
152	0xbd8593c9	-0.065223284
153	0xbe0b625a	-0.13611737
154	0xbd7193a3	-0.058978688
155	0xbb1aa4d7	-0.0023596787
156	0xbcd68c87	-0.026190056
157	0xba96a851	-0.0011494254
158	0xbd83fe83	-0.06445029
159	0xbc6fcf64	-0.014636848
160	0x3b0cc0e9	0.0021477288
161	0x3b251152	0.0025187326
162	0xbda6f2b2	-0.08151759
163	0xbe07eb13	-0.13273267
164	0x3d68b3c5	0.056812067
165	0x3d58b977	0.052911248
166	0x3cfe6301	0.031053068
167	0x3c6cc744	0.0144518055
168	0xbca94f8a	-0.02066781
169	0xbd584f07	-0.05280974
170	0xbc5eae3f	-0.013591348
171	0xbd94f8d8	-0.07274026
172	0xbe81a27f	-0.25319287
173	0xbb9165e7	-0.0044371965
174	0xbd2a831f	-0.041628953
175	0xbd11865c	-0.035528526
176	0x3d3609fb	0.044443112
177	0x3b10704d	0.0022039593
178	0xbc9ddbc6	-0.019269835
179	0x3c11e54d	0.008904767
180	0xbd86dd5b	-0.06585189
181	0xbc59b156	-0.013286909
182	0xbd73f6bf	-0.059561487
183	0x3e0f566b	0.1399781
184	0x3d93abb3	0.072104834
185	0xbdc60b1a	-0.09670086
186	0x3db1a02b	0.08673128
187	0xbd87b5c1	-0.06626464
188	0x3d6fbe1a	0.058530904
189	0xbd0d091a	-0.034432508
190	0xbdd7d358	-0.105383575
191	0xbd107640	-0.035269022
192	0x3d2f6015	0.04281624
193	0xbd96dbaa	-0.07366116
194	0xbb41d63f	-0.0029577164
195	0x3d0d18d2	0.0344475
196	0x3d9b0e23	0.07571056
197	0x3d390817	0.04517373
198	0x3b912416	0.0044293506
199	0xbdb40e46	-0.08791785
200	0x3d083271	0.03325123
201	0x3c146530	0.009057328
202	0x3d529c0d	0.051418353
203	0xbd07c5a4	-0.03314747
204	0x3d3dd1b1	0.046342555
205	0x3d874760	0.066054106
206	0xbd0da43f	-0.034580465
207	0x3d7f4808	0.062324554
208	0x3d386f39	0.045027945
209	0xbda8af5f	-0.082365744
210	0xbd3533e3	-0.044238936
211	0xbc779e38	-0.015113406
212	0x3d297f5e	0.041381232
213	0xbbfa2d07	-0.007634762
214	0xbd3988d7	-0.045296516
215	0x3d14a707	0.036292102
216	0xbc21878c	-0.009858977
217	0x3ca35bfd	0.019941324
218	0xbcb99a11	-0.022656472
219	0xbddd18b9	-0.10795731
220	0x3d87696d	0.06611905
221	0x3d9140c5	0.07092432
222	0x3b204bf2	0.002445933
223	0x3d656e34	0.0560133
224	0x3b8aa127	0.0042306366
225	0xbdf76c61	-0.120812185
226	0xbd4d141d	-0.05006801
227	0xbceaa464	-0.02864284
228	0xbb92ecb7	-0.004483785
229	0x3d88146e	0.06644522
230	0x3d7819fa	0.06057165
231	0x3d9ad493	0.075600766
232	0x3d0065df	0.03134715
233	0xbde39f0a	-0.11114319
234	0xbb98d6a0	-0.004664257
235	0xbd11bec2	-0.03558231
236	0xbd824159	-0.0636012
237	0x3d21c419	0.039493654
238	0x3cd503c5	0.026002774
239	0xbdb03df5	-0.08605567
240	0xbd4897c5	-0.048972864
241	0xbde3fc80	-0.11132145
242	0xbd95a82a	-0.073074654
243	0xbd5f32b1	-0.054491702
244	0x3d0f0f57	0.03492674
245	0xbd8a6939	-0.06758351
246	0xbda54df3	-0.08071508
247	0x3d1b5609	0.037923846
248	0xbda39b8f	-0.07988655
249	0xbb83043a	-0.0039983066
250	0x3d2bdfcf	0.041961487
251	0xbd8f6582	-0.07001783
252	0x3c651709	0.013982543
253	0xbd3d3d4a	-0.046201028
254	0xbd0ff9dc	-0.035150394
255	0xbc2ec486	-0.010666972

lstm.weight_hh_l1 f4 [512, 128]
0	0x3cb19630	0.02167806
1	0x3d1c9ef3	0.038237523
2	0xbda0ff51	-0.07861198
3	0x3c1fd156	0.009754499
4	0x3d6130a6	0.054978035
5	0xbd8f1d49	-0.069880076
6	0x3c4bb991	0.012434379
7	0x3bb17a5f	0.005416199
8	0xbd6738ba	-0.056450583
9	0x3d16656e	0.036717825
10	0x3d565148	0.05232361
11	0x3b0dca4d	0.0021635473
12	0xbd8aba39	-0.067738004
13	0xbd02960d	-0.03188138
14	0x3d965c38	0.07341808
15	0xbdbd386f	-0.092392795
16	0xbca37651	-0.019953879
17	0x3db811e5	0.08987788
18	0x3a5048ae	0.00079454004
19	0x3c9a9915	0.018871823
20	0xbdab83a9	-0.083747216
21	0xbc9aab3f	-0.018880485
22	0xbba6619e	-0.005077555
23	0xbd436afb	-0.047709446
24	0xbcb55d7a	-0.0221393
25	0x3c9faaeb	0.01949068
26	0x3d9d4910	0.07679951
27	0x3daa46d7	0.08314293
28	0xbd62cea7	-0.05537286
29	0xbd240f8e	-0.040053897
30	0xba488d72	-0.00076504715
31	0xbd6eb765	-0.058280367
32	0xbd8bfb85	-0.06835083
33	0x3db26c7d	0.08712099
34	0x3d953d07	0.07287031
35	0xbd224c46	-0.03962352
36	0xbb816821	-0.0039491807
37	0xbda57e34	-0.08080712
38	0x3bf40f2d	0.007448098
39	0x3cca5776	0.024699908
40	0xbc9617ea	-0.01832195
41	0xbcbbad2d	-0.022909725
42	0x3d44fbc2	0.048091657
43	0xbb05ae23	-0.0020397983
44	0x3d7663fd	0.06015395
45	0x3d4c3c82	0.049862392
46	0x3d3520e9	0.04422084
47	0xbd5ce78f	-0.05393177
48	0xbcbb4adb	-0.022862842
49	0x3d125c9f	0.03573286
50	0xbadd6117	-0.0016889897
51	0x3d81d89d	0.06340144
52	0x3c18ed30	0.009333894
53	0xbc6c2dfe	-0.014415262
54	0xbc21e062	-0.009880157
55	0x3ce1a111	0.027542623
56	0x3da8ecec	0.08248314
57	0x3d8af53b	0.06785055
58	0x3baffe42	0.005370886
59	0xbc5273d3	-0.012844997
60	0xbd0a09ce	-0.033700757
61	0xbd6e4df8	-0.058179826
62	0x3bdb8580	0.006699264
63	0xbd295779	-0.041343186
64	0xbd87f91e	-0.06639312
65	0x3ce00f56	0.027351063
66	0xbd41199d	-0.047143567
67	0x3d66aedf	0.056319114
68	0x3d9f35ee	0.07773958
69	0xbd88d08e	-0.06680404
70	0x3d6f3449	0.058399472
71	0xbd835d4e	-0.06414281
72	0xbd4f4a73	-0.05060811
73	0x3d397564	0.045277968
74	0x3c4504f4	0.012025107
75	0xbc7304f7	-0.014832727
76	0x3d5d020f	0.05395704
77	0x3cb245e9	0.021761851
78	0x3ce5ef43	0.02806819
79	0x3c1aaa8c	0.009440076
80	0xbd95ba66	-0.07310943
81	0x3d19682b	0.037452858
82	0xbd8f926c	-0.0701035
83	0xbcf6a779	-0.030109154
84	0xbda52daa	-0.0806535
85	0x3d360d82	0.044446476
86	0x3d6708c4	0.056404844
87	0x3d25e79a	0.040504076
88	0xbafef29c	-0.0019450965
89	0x3db4fd17	0.088373356
90	0xbd71744f	-0.05894881
91	0x3d84b27a	0.06479354
92	0xbdaeb55f	-0.085306875
93	0xbd7035eb	-0.05864517
94	0xbcc05840	-0.02347958
95	0xbd5af398	-0.053454965
96	0xbc4d5479	-0.012532347
97	0xbc80bdb6	-0.015715461
98	0x3c1b533c	0.009480294
99	0x3d97d7fd	0.07414243
100	0xbd395076	-0.04524275
101	0x3b855d93	0.004069993
102	0x3b5631cb	0.0032683488
103	0x3cd6882d	0.02618798
104	0x3da00d3b	0.078150235
105	0x3dac99b4	0.08427754
106	0x3d57b072	0.052658506
107	0xbda139d4	-0.07872358
108	0x3d72748a	0.05919317
109	0x3d84b5a4	0.06479958
110	0xbd47a418	-0.048740476
111	0x3d62c3f5	0.05536266
112	0xbd1c95b7	-0.038228717
113	0xbd706360	-0.05868852
114	0x3d8f614b	0.07000979
115	0xbc8bb83c	-0.017055623
116	0x3dae7242	0.08517887
117	0x3d7f6a18	0.06235704
118	0x3d628dc8	0.055310994
119	0x3d855c1c	0.06511709
120	0xbdd02cf3	-0.101648234
121	0xbcfb8b3a	-0.030706037
122	0xbdae98cb	-0.08525237
123	0x3d9144ff	0.07093238
124	0x3d8ea34c	0.0696474
125	0xbd5e17d2	-0.054221936
126	0xbbda8fb4	-0.006669963
127	0x3d8cd4c3	0.068765186
128	0x3d92ab65	0.07161597
129	0x3b44106b	0.0029917012
130	0x3db6e88a	0.08931072
131	0xbd954fa3	-0.0729058
132	0xbd8ed71f	-0.06974625
133	0xbcc1f947	-0.023678435
134	0x3d791c3f	0.060817953
135	0x3d98c94e	0.07460271
136	0x3d8957c9	0.06706197
137	0xbd786b3c	-0.06064914
138	0x3c957b06	0.018247139
139	0xbd737213	-0.05943496
140	0xbc2e883a	-0.010652596
141	0xbd892b82	-0.066977516
142	0xbb6225f7	-0.0034507492
143	0x3d9bc85b	0.07606574
144	0x3d846f1a	0.064665034
145	0x3d90804a	0.07055719
146	0xbc89055e	-0.016726192
147	0x3d7c2f1f	0.061568376
148	0x3d6db9fb	0.058038693
149	0xbccbf4d0	-0.02489701
150	0x3d0155a6	0.03157582
151	0xbc93a0af	-0.018020956
152	0xbd930357	-0.071783714
153	0xbd22dd2c	-0.039761707
154	0xbd9cd894	-0.076584965
155	0xbc895e98	-0.016768739
156	0x3b1b0011	0.0023651163
157	0x3b3879d1	0.002814878
158	0x3cbb5463	0.022867387
159	0x3d46c245	0.048525114
160	0xbdb30e90	-0.08743012
161	0x3d0d8176	0.03454729
162	0xbc1be071	-0.00951396
163	0xbd4073bd	-0.046985377
164	0x3d1c0ead	0.038099933
165	0x3dba9189	0.0910979
166	0xbd826a6e	-0.06367956
167	0xbdad2da1	-0.08455969
168	0xbbcb3ebc	-0.006202547
169	0xbcb8559a	-0.022501756
170	0xbd78f4f0	-0.060780466
171	0x3dafc48c	0.0858241
172	0xbc4dcd9e	-0.01256123
173	0x3d22596f	0.03963607
174	0xbd88fad9	-0.066884704
175	0x3cd8a37c	0.026445143
176	0xbd9ba7e2	-0.076003805
177	0xbd6d978e	-0.058005862
178	0x3d83e849	0.06440789
179	0xbdb69a29	-0.089161225
180	0x3ccaff23	0.024779862
181	0x3d2c5107	0.04206946
182	0xbd91d12d	-0.07119975
183	0xbd2e87da	-0.042610027
184	0xbd0d268d	-0.034460593
185	0xbd43a0d3	-0.047760796
186	0x3cfcc3b6	0.030855041
187	0xbc43ae3b	-0.011943395
188	0x3c926686	0.017871153
189	0xbd170c77	-0.03687712
190	0x3d06c7d2	0.032905407
191	0x3db1eb4e	0.08687459
192	0x39e06158	0.00042797136
193	0x3d9289c7	0.07155185
194	0xbcb36f86	-0.021903764
195	0xbd71de1f	-0.05904972
196	0xbca6073e	-0.020267125
197	0x3c49535c	0.012287941
198	0x3cc9dfb3	0.0246428
199	0xbd60e53d	-0.05490612
200	0xbc8ae268	-0.016953662
201	0x3d9a0b5a	0.075216964
202	0xbceff271	-0.02929041
203	0x3d065e00	0.03280449
204	0xbd130cf1	-0.035901014
205	0x3d36c7af	0.044624027
206	0x3dc7676a	0.097365215
207	0xbd23fbdd	-0.040035117
208	0x3d23c6c8	0.039984494
209	0xbda86ff4	-0.08224478
210	0xbd94aee4	-0.0725992
211	0x3db08b41	0.086203106
212	0xbd8de57e	-0.06928538
213	0x3d2ca839	0.042152617
214	0x3c4803dc	0.012207951
215	0x3d1d4acc	0.03840141
216	0x3d7c826b	0.061647814
217	0xbccd56f7	-0.025065882
218	0x3c6e6dd8	0.014552556
219	0xbd01a12f	-0.031647857
220	0x3d2bf37f	0.041980263
221	0xbd6acffd	-0.05732726
222	0xbcadad82	-0.021200899
223	0x3dafc8c6	0.08583216
224	0x3d31ef6e	0.04344123
225	0xbd2ea0c0	-0.042633772
226	0xbc9ff232	-0.019524667
227	0x3cd6f8ff	0.026241777
228	0xbd68ba93	-0.056818556
229	0x3da3a093	0.079896115
230	0xbd9b5de5	-0.07586268
231	0x3da76f57	0.08175533
232	0xbd725c10	-0.05916983
233	0xbd983ee6	-0.07433872
234	0x3d3d7985	0.04625847
235	0xbdaf4636	-0.085583135
236	0x3d8312f0	0.064000964
237	0x3d7cb0cd	0.061692048
238	0xbda2790a	-0.079332426
239	0x3c08907f	0.008335232
240	0x3c1da70f	0.009622349
241	0xbdc0d80f	-0.0941621
242	0xbcbd9329	-0.02314146
243	0x3da6ea90	0.08150208
244	0x3d93d0b0	0.07217538
245	0xbd5e70a8	-0.054306656
246	0x3c25721e	0.010098008
247	0xbd317ec5	-0.043333787
248	0x3dbfb57e	0.09360789
249	0x3c1d99b7	0.009619168
250	0x3d11b18b	0.03556971
251	0xbd8f57e6	-0.06999187
252	0xbd5bacb8	-0.053631514
253	0x3d2fe8fd	0.042946804
254	0xbd21167d	-0.039328087
255	0xbd48865b	-0.048956256

lstm.bias_ih_l1 f4 [512]
0	0x3d3d000c	0.046142623
1	0x3bfe2bfa	0.0077567073
2	0x3cfe33d6	0.031030577
3	0x3d8e344c	0.069435686
4	0x3da9b944	0.0828729
5	0x3c0cde53	0.008597928
6	0xbd0c32f9	-0.0342283
7	0xbd1a0748	-0.0376046
8	0xbda23270	-0.079197764
9	0xbd2fbbe3	-0.042903792
10	0xbdb5ea58	-0.08882588
11	0xbc1e82ea	-0.009674767
12	0xbd0d3824	-0.034477368
13	0xbd6f7331	-0.058459464
14	0xbd433836	-0.04766103
15	0x3d9bb979	0.076037355
16	0xbbfcf6b8	-0.007719841
17	0x3b61ae57	0.003443619
18	0x3d8f0488	0.06983286
19	0xbb3e7fc0	-0.0029067844
20	0xbbf6a506	-0.0075269965
21	0x3d9625b6	0.073314115
22	0x3d681fcf	0.05667096
23	0xbca668b4	-0.020313598
24	0x3d416ced	0.04722302
25	0xbd070b59	-0.032969806
26	0x3ca97289	0.020684497
27	0x3c0fcc60	0.008776754
28	0xbd1c83d5	-0.038211662
29	0x3d65badf	0.056086417
30	0xbd34ca56	-0.044138275
31	0xbc880dc2	-0.016608123
32	0x3d3bfaf8	0.04589364
33	0x3d0f1079	0.03492782
34	0xbcf558f4	-0.029949643
35	0x3d6e34b3	0.058155727
36	0xbcc01d35	-0.023451427
37	0x3bbb62e7	0.005718577
38	0x3bf74fa4	0.0075473357
39	0xbcc37c72	-0.023863051
40	0x3d85e08e	0.06536971
41	0xbd821f7d	-0.06353662
42	0xbc4f5206	-0.012653833
43	0xbbff8777	-0.007798131
44	0xbdcdbc5d	-0.10045693
45	0xbd84f674	-0.0649232
46	0xbd6d1f15	-0.05789097
47	0x3da79bfc	0.081840485
48	0xbd7312dc	-0.059344158
49	0x3d262904	0.04056646
50	0x3d184cb7	0.037182536
51	0xbd0e5698	-0.03475055
52	0xbda5ccb1	-0.080956824
53	0xbd94ffe6	-0.07275371
54	0x3d98bf91	0.074584134
55	0xbd6e0480	-0.05810976
56	0x3cf94ef2	0.030433152
57	0x3d2b482a	0.041816868
58	0x3d5f5644	0.05452563
59	0xbd8b41c6	-0.06799655
60	0xbd8a07e0	-0.06739783
61	0xbd915338	-0.07095951
62	0xbd9ac4d7	-0.075570755
63	0xbda539b2	-0.08067645
64	0xbd8f39d0	-0.06993449
65	0x3d25436e	0.04034751
66	0x3cacc379	0.021089302
67	0x3dcbb6d8	0.09946984
68	0xbd975ad3	-0.0739037
69	0x3cb34a73	0.021886086
70	0xbc1403f5	-0.009034147
71	0x3d3a2982	0.04544974
72	0x3d0e06d0	0.034674466
73	0xbda66aa6	-0.0812581
74	0x3d0c34c7	0.03423002
75	0xbc5b8326	-0.013397967
76	0xbd15602a	-0.036468662
77	0x3caf93ca	0.021432776
78	0xbc92fc04	-0.017942436
79	0x3d9644b2	0.07337321
80	0xbd8c07ad	-0.068374015
81	0x3d6eacd9	0.05827031
82	0xbd76a9c0	-0.06022048
83	0xbd5f07a2	-0.05445064
84	0xbb6ceef2	-0.0036153165
85	0xbdb7da84	-0.089772254
86	0x3dbcafb6	0.09213202
87	0x3bb6bae6	0.0055764792
88	0x3d4ce2b9	0.050020907
89	0xbd58f205	-0.052965183
90	0x3d842694	0.06452671
91	0xbc2ab427	-0.010418928
92	0xbca8750b	-0.020563623
93	0xbcea35e3	-0.028590148
94	0xbd82e0c6	-0.063905284
95	0xbd589d83	-0.05288459
96	0x3cb871b5	0.022515157
97	0xbd14858b	-0.03626017
98	0xbd9cbb62	-0.07652928
99	0xbce9e10b	-0.028549692
100	0x3da21a51	0.07915176
101	0xbd1135e1	-0.035451774
102	0xbd150893	-0.03638513
103	0x3def128b	0.11673459
104	0x3cc22a9d	0.02370196
105	0x3d9c4248	0.0762983
106	0x3d9d0b6e	0.07668196
107	0x3d464f3c	0.048415408
108	0x3d092d46	0.03349044
109	0xbd187bc8	-0.037227422
110	0x3da55a3e	0.08073853
111	0xbd0f5d04	-0.035000816
112	0xbd30a340	-0.043124437
113	0xbc91b40a	-0.017786045
114	0x3c8a2d74	0.016867377
115	0xbd636562	-0.055516608
116	0xbdadc194	-0.08484188
117	0x3c854662	0.016268913
118	0xbd91eb44	-0.071249515
119	0xbdb4eea6	-0.08834581
120	0x3d87ab5b	0.0662448
121	0x3d591d0e	0.053006224
122	0x3bab3255	0.005224506
123	0xbda5d442	-0.080971256
124	0xbbb4a115	-0.0055123665
125	0xbd523616	-0.05132111
126	0xbd66d6ca	-0.056357183
127	0xbdec4ce2	-0.11538102
128	0x3db05c8f	0.08611404
129	0x3bf5f519	0.0075060246
130	0x3d6eb987	0.0582824
131	0xbd3d0878	-0.046150655
132	0x3d2fefaa	0.04295317
133	0x3cf0eca5	0.029409716
134	0x3d894eed	0.06704507
135	0xbcfb126d	-0.030648435
136	0x3d2dddfe	0.042448036
137	0x3cf6d3aa	0.030130226
138	0x3d89e7a4	0.06733635
139	0xbdc09316	-0.094030544
140	0x3d18a1ab	0.037263554
141	0xbce9c9d6	-0.028538626
142	0xbdbdbf40	-0.09264994
143	0x3d75f94b	0.060052197
144	0x3d05a828	0.03263107
145	0x3d48160b	0.048849147
146	0x3afe875e	0.0019419005
147	0x3d64fd1b	0.055905443
148	0xbd2b4799	-0.041816328
149	0x3d1163b9	0.035495494
150	0xbd38326e	-0.04496997
151	0x3dc3457d	0.09534738
152	0xbdbb93b0	-0.091590285
153	0xbcef4133	-0.029205894
154	0x3c2a904f	0.010410382
155	0xbd34864c	-0.044073388
156	0xbc23dde8	-0.010001637
157	0xbdb13fef	-0.086547725
158	0xb82abc0d	-4.0706294e-05
159	0xbd1c2ea1	-0.038130406
160	0xbd534c9d	-0.051586736
161	0xbcf213b4	-0.02955041
162	0x3da3414f	0.07971441
163	0x3af32bd0	0.0018552486
164	0x3c17710c	0.009243261
165	0xbd18d27c	-0.03731011
166	0x3d44b3b1	0.04802293
167	0xbda1b8c6	-0.07896571
168	0x3d51d05d	0.0512241
169	0xbd8d6ad2	-0.0690514
170	0x3d93de21	0.07220102
171	0xbc991f3a	-0.018691648
172	0x3d15841d	0.036502946
173	0x3cef363e	0.02920067
174	0x3ce9dd7f	0.028548
175	0xbd999c73	-0.075005434
176	0xbdc1fe35	-0.09472314
177	0xbc93e1a3	-0.018051928
178	0x3d2fbdcc	0.042905614
179	0x3d667cb9	0.05627129
180	0xbc027b2d	-0.007963938
181	0x3c144825	0.009050404
182	0xbd021998	-0.03176269
183	0xbda93613	-0.08262267
184	0x3d39f9c7	0.04540422
185	0x3d6704a0	0.056400895
186	0x3d6cb391	0.057788435
187	0xbd166489	-0.03671697
188	0xbd952f97	-0.07284468
189	0x3d22f86d	0.0397877
190	0x3c7ae67a	0.015313739
191	0xbdac0637	-0.08399623
192	0x3c95606d	0.018234456
193	0xbceaab96	-0.028646272
194	0x3ce306f3	0.027713275
195	0xbdd48ff1	-0.10379017
196	0xbcc8301b	-0.024437001
197	0xbcf7111a	-0.030159522
198	0xbd90fe35	-0.07079736
199	0x3a3cae3e	0.0007197595
200	0xbc8ce409	-0.01719858
201	0x3da60a3c	0.08107421
202	0x3cceadaf	0.025229303
203	0xbc8c5825	-0.017131874
204	0xbd71e7e4	-0.05905904
205	0x3d8a92df	0.06766295
206	0xbd4a5f60	-0.049407363
207	0xbd98a376	-0.07453053
208	0xbdbc1ce0	-0.09185195
209	0xbd674376	-0.05646082
210	0xbdbbbdbf	-0.091670506
211	0x3d809369	0.06278116
212	0xbd209181	-0.039201263
213	0x3cc8ad4f	0.024496702
214	0xbd82ea16	-0.063923046
215	0x3b88c3a9	0.004173715
216	0xbd173a98	-0.036921114
217	0xbdbebb23	-0.09313037
218	0x3ca727c4	0.020404704
219	0xbd79887f	-0.06092119
220	0xbdceddd6	-0.101009056
221	0xbd99988e	-0.074998006
222	0x3cc97195	0.024590293
223	0xbca039d7	-0.01955883
224	0xbd71a9ac	-0.058999702
225	0x3cdfc094	0.027313508
226	0xbcae4e1b	-0.021277478
227	0x3d9a4918	0.07533473
228	0xbc065666	-0.00819931
229	0xbdb307e7	-0.087417416
230	0xbdbd4d3b	-0.09243246
231	0xbd9a53a0	-0.075354815
232	0xbd2c9a20	-0.042139173
233	0xbd6b28de	-0.05741202
234	0xbd7437d6	-0.05962356
235	0x3ce4f802	0.02795029
236	0x3da27328	0.079321206
237	0xbdae0cfb	-0.084985696
238	0xbd94e476	-0.07270138
239	0xbd28c60b	-0.041204493
240	0x3d3eaa4b	0.046549123
241	0xbd65d621	-0.056112412
242	0xbdb747fc	-0.08949277
243	0xbbaa621b	-0.0051996834
244	0xbd9f6e7d	-0.07784746
245	0xbd77618b	-0.06039576
246	0xbb5dfbed	-0.0033872083
247	0x3d448159	0.047974918
248	0x3c734698	0.014848374
249	0xbe00fb01	-0.1259575
250	0xbd27967b	-0.040914994
251	0xbd241c6b	-0.040066164
252	0x3d3cbc92	0.046078272
253	0xbd708638	-0.05872175
254	0x3d72fcf2	0.05932326
255	0xbd954c3c	-0.07289931
