backend/ml_models/DIS/model.pt (torch, 807686 bytes, 9 tensors)

lstm.weight_ih_l0 f4 [512, 5]
0	0x3dad99bb	0.084765874
1	0xbc87dc92	-0.016584668
2	0x3ca5c7e2	0.020236913
3	0x38848e80	6.320793e-05
4	0xbd29a826	-0.041420124
5	0x3d58fa77	0.052973237
6	0xbcf12102	-0.029434685
7	0x3d5b01f4	0.05346866
8	0x3d183dca	0.0371683
9	0xbd66c597	-0.05634078
10	0xbd6b6ff8	-0.05747983
11	0x3ddef9c8	0.10887486
12	0x3cf11554	0.029429115
13	0x3d0ab1c2	0.03386093
14	0x3d092f81	0.03349257
15	0x3d2688da	0.040657856
16	0x3a84ef16	0.0010142054
17	0x3d4bd8fd	0.049767483
18	0x3d71c6f8	0.059027642
19	0xbdb8b5d1	-0.09019054
20	0xbc3d2256	-0.011543831
21	0xbd96e407	-0.073677115
22	0x3ca61658	0.020274326
23	0x3da645d9	0.08118791
24	0xbbab5827	-0.0052290144
25	0x3d37296c	0.044717237
26	0xbc5521ad	-0.013008517
27	0xbcdfcab7	-0.027318342
28	0x3cb88327	0.022523476
29	0x3d642e5a	0.055708267
30	0x3d82f85b	0.06395026
31	0x3d35f802	0.04442597
32	0xbb70c267	-0.0036736967
33	0x3d0df8cd	0.034661103
34	0xbd9bd354	-0.07608667
35	0xbbda9a4c	-0.0066712257
36	0xbd12164a	-0.035665788
37	0x3d8dded9	0.069272704
38	0xbcc08749	-0.023502009
39	0xbd82fc4d	-0.06395779
40	0x3d4b472a	0.049628414
41	0xbd40a326	-0.04703059
42	0xbd91042f	-0.07080876
43	0xbbb48f57	-0.0055102515
44	0xbd64c226	-0.055849217
45	0xbcfec4fd	-0.03109979
46	0x3d378425	0.044803757
47	0xbd530a2e	-0.05152338
48	0xbc3595b4	-0.011083055
49	0x3c903c02	0.017606739
50	0xbd2e29a9	-0.0425202
51	0xbd835887	-0.064133696
52	0x3d9ff7db	0.078109466
53	0xbd9281e8	-0.07153684
54	0x3de25713	0.11051764
55	0xbd60d4c0	-0.054890394
56	0xbcfd3c2e	-0.030912485
57	0x3d17f27c	0.037096485
58	0xbce80ef3	-0.02832744
59	0x3d5e0f4d	0.05421381
60	0x3d37e6a6	0.044897698
61	0xbbdbfa65	-0.006713199
62	0x3d8fae16	0.07015626
63	0xbcb66045	-0.022262702
64	0xbdce2b0a	-0.10066803
65	0xbcb575d6	-0.022150915
66	0xbc15d084	-0.009143952
67	0x3d4a55b8	0.049398154
68	0xbd2a7f87	-0.041625526
69	0xbdad1c20	-0.0845263
70	0x3d799367	0.06093159
71	0xbdb43a65	-0.088002004
72	0x3d837d91	0.06420434
73	0x3cbba206	0.022904407
74	0x3d429e83	0.04751445
75	0x3c8cd7ff	0.017192839
76	0x3da935ac	0.0826219
77	0x3d48a25f	0.048982974
78	0xbcd78937	-0.026310546
79	0x3d5b5b49	0.053553853
80	0x3daac50c	0.08338365
81	0x3d04bc5d	0.0324062
82	0xbd823a80	-0.06358814
83	0xbd53cdd1	-0.051709954
84	0x3bb4de72	0.0055196816
85	0xbd82e1b0	-0.06390703
86	0x3d5f1cb1	0.05447072
87	0xbd074a12	-0.033029623
88	0xbd9572e1	-0.07297302
89	0x3d2a23d5	0.04153808
90	0x3dcb1ec8	0.099179804
91	0x3dd0eaa3	0.102010034
92	0x3ca9bd37	0.020720107
93	0xbbe88ca0	-0.007096842
94	0xbdb4c70a	-0.08827026
95	0xbcceae13	-0.02522949
96	0x3d11db85	0.03560974
97	0xbc968bd7	-0.018377228
98	0x3da000a7	0.078126244
99	0x3b60dc77	0.0034311095
100	0x3a903b8d	0.0011004076
101	0xbcffdca7	-0.031233145
102	0xbb99ca25	-0.004693287
103	0xbd94217c	-0.07232949
104	0xba6bd47f	-0.0008996203
105	0x3ca39a97	0.019971175
106	0xbc103eed	-0.008804065
107	0x3daed251	0.085362084
108	0xbd03db82	-0.03219176
109	0x3d069635	0.032858092
110	0x3d65657e	0.056004994
111	0x3bafbe17	0.0053632366
112	0x3d883f59	0.066527076
113	0x3dcbc904	0.0995045
114	0xbd85e574	-0.06537905
115	0xbc1b997f	-0.009497046
116	0x3c08c5a9	0.008347907
117	0x3d9cc190	0.076541066
118	0x3dacdbd3	0.08440366
119	0xbd8a0d1a	-0.0674078
120	0xbd5de4e9	-0.054173384
121	0x3b734e8f	0.0037125682
122	0x3d4e488a	0.050362147
123	0x3d1e18ad	0.03859775
124	0xbbcf6741	-0.0063294475
125	0x3b944c74	0.0045257155
126	0xbd289392	-0.04115636
127	0x3d9fae44	0.077969104
128	0x3cf4dc81	0.0298903
129	0xbde7f0ba	-0.11325212
130	0x3db7f7c4	0.089828044
131	0x3d4c957a	0.04994724
132	0x3dc72840	0.09724474
133	0x3d163e7d	0.036680687
134	0xbd1401ae	-0.036134414
135	0xbc990417	-0.018678708
136	0x3ca39467	0.019968225
137	0x3d92bf6e	0.071654186
138	0x3c60459f	0.013688474
139	0xbd0e0a9d	-0.03467809
140	0xbc27a387	-0.010231859
141	0xbc8907ff	-0.016727446
142	0x3dd86cb3	0.10567608
143	0x3db343e5	0.08753184
144	0x3c1749dc	0.009233918
145	0x3ce926e0	0.02846092
146	0x3d9ec9eb	0.077533565
147	0x3d0d0058	0.034424156
148	0x3d88322a	0.06650193
149	0xbddcabc7	-0.107749514
150	0x3d176339	0.03695986
151	0xbd2a1b86	-0.041530155
152	0x3deb3fdb	0.11486789
153	0x3cb6cb15	0.022313634
154	0xbcf9582e	-0.030437555
155	0xbc5bbc51	-0.013411597
156	0x3cfbf967	0.030758573
157	0x3d4faaaa	0.050699867
158	0x3da345a5	0.07972268
159	0x3d653da8	0.055967003
160	0x3b8b7287	0.004255596
161	0x3d9ae649	0.07563455
162	0xbd222507	-0.039586093
163	0x3db79c6b	0.08965381
164	0x3d617c8a	0.05505041
165	0xbd740f14	-0.059584692
166	0xbc3feb5b	-0.011713828
167	0x3d156d4d	0.03648119
168	0x3baae53d	0.0052153156
169	0xbcd7ba95	-0.026334086
170	0xbd0b3574	-0.033986524
171	0xbbff395c	-0.00778882
172	0x3d2efe2e	0.042722873
173	0xbda6e35e	-0.081488356
174	0x3cb27fae	0.021789398
175	0xbd70fbb8	-0.058833808
176	0x3d43ec6d	0.047832895
177	0xbd0e1976	-0.03469225
178	0x3b5a404b	0.0033302482
179	0xbd5265af	-0.051366504
180	0x3d979031	0.07400549
181	0x3d87760b	0.06614312
182	0x3d4d2622	0.050085194
183	0x3d5e7876	0.0543141
184	0xbd5f3777	-0.054496255
185	0x3c5daf97	0.013530633
186	0x3d0e1531	0.03468818
187	0xbc4078c0	-0.011747539
188	0x3da7738b	0.08176335
189	0xbc90f5a7	-0.017695261
190	0x3dbcd2aa	0.092198685
191	0x3d9077c6	0.07054095
192	0x3d543a5f	0.05181348
193	0xbd0d4f87	-0.03449967
194	0x3dfee59d	0.12446139
195	0x3dbe8819	0.09303302
196	0xbcf241fa	-0.029572476
197	0x3d80591e	0.06266998
198	0x3d63945c	0.05556141
199	0xbba0f636	-0.004912163
200	0xbd7e721b	-0.06212054
201	0x3bae95c6	0.005327913
202	0x3bf16cc5	0.0073677027
203	0xbd7d5a9d	-0.061853994
204	0xbc12810a	-0.008941898
205	0xbd53f1cc	-0.051744267
206	0xbd152f19	-0.03642187
207	0x3d1b0b3c	0.03785251
208	0x3d875975	0.066088594
209	0x3d28de91	0.04122788
210	0xbd944aa9	-0.07240803
211	0xbdb32209	-0.08746726
212	0x3d50cba9	0.050975475
213	0x3d9ffb74	0.07811633
214	0x3d8dfa63	0.06932523
215	0x3d39215b	0.045197826
216	0xbb2a73c8	-0.0026008952
217	0x3d2b9690	0.041891634
218	0x3c917a10	0.0177584
219	0xb9f7516d	-0.00047172178
220	0x3d8d6b0f	0.069051854
221	0xbc93f128	-0.018059328
222	0x3d8d6d2e	0.0690559
223	0xbc463daa	-0.012099663
224	0xbd71f3a3	-0.05907024
225	0x3d2e86a8	0.042608887
226	0xbc88e7d4	-0.016712107
227	0x3d22e310	0.039767325
228	0x3da4d01c	0.08047506
229	0x3e20a259	0.1568693
230	0xbd080c46	-0.03321483
231	0x3b0e4306	0.002170743
232	0xbd2becf4	-0.041974023
233	0x3d53dead	0.051726032
234	0xbd359079	-0.044327233
235	0x3b11ce17	0.0022248083
236	0x3d2bc3b3	0.04193468
237	0xbd6be0c2	-0.057587393
238	0xbd6e75a2	-0.058217652
239	0xbd86cb9a	-0.06581803
240	0x3d91c3cc	0.071174234
241	0xbd7f269e	-0.062292688
242	0x3d00d8f8	0.031456918
243	0xbcd87d63	-0.026426977
244	0xbb4b77d5	-0.0031046767
245	0xbd96ed8d	-0.07369528
246	0x3d86c9ef	0.065814845
247	0xbcc67248	-0.024224415
248	0x3db53e9a	0.08849831
249	0x3d6c8d2f	0.05775183
250	0xbd9eab6a	-0.077475384
251	0xbcd7d35a	-0.026345897
252	0xbd56ac08	-0.052410156
253	0xbbd94aee	-0.006631247
254	0xbdfd930c	-0.123815626
255	0xbcf31b4e	-0.029676106

lstm.weight_hh_l0 f4 [512, 128]
0	0xbda7e409	-0.08197791
1	0xbcfcee9c	-0.030875497
2	0x3be98ff3	0.007127756
3	0xbc1ad37d	-0.009449837
4	0xbcd18211	-0.025574716
5	0x3b27f0ea	0.0025625774
6	0x3d957839	0.07298321
7	0xbd7b71d4	-0.06138785
8	0xbd80a0f3	-0.062806986
9	0x3d2c8091	0.042114798
10	0x3dc539d2	0.09630169
11	0xbc4ad43e	-0.012379704
12	0x3d388420	0.04504788
13	0xbd57c812	-0.052681036
14	0xbd60cb58	-0.054881424
15	0x3ce35c70	0.027754039
16	0xbd8b3bfd	-0.06798551
17	0xbd52f8e4	-0.05150689
18	0x3dc5544f	0.09635221
19	0x3c83d621	0.016093316
20	0x3dac601b	0.08416768
21	0xbd3b4c19	-0.04572687
22	0x3d85991c	0.06523344
23	0x3d1d6eec	0.03843586
24	0xbb7f238d	-0.0038931102
25	0xbd2d525d	-0.042314876
26	0x3da8ad89	0.08236224
27	0x3da0dbb6	0.078544065
28	0x3d6a818e	0.05725246
29	0x38bcd4e4	9.0041925e-05
30	0xbc362903	-0.011118176
31	0x3d4309e9	0.047616873
32	0x3d2edd37	0.042691436
33	0xbc6d839e	-0.014496712
34	0xbcbe3996	-0.023220818
35	0xbd922bc1	-0.07137252
36	0x3ce17811	0.027523072
37	0x3c3dba8b	0.01158012
38	0xbd937ef7	-0.07201951
39	0x3dbdad2e	0.09261547
40	0x39cb12b6	0.00038733118
41	0x3cc671dc	0.024224214
42	0x3d2bdbf5	0.041957814
43	0x3d8bc9fd	0.068256356
44	0x3d671c8a	0.0564237
45	0x3c9c1c5f	0.019056497
46	0x3dbc5990	0.0919677
47	0xbc80e3d9	-0.015733646
48	0xbd87c1f0	-0.066287875
49	0xbd8c40eb	-0.068483196
50	0x3d48eba0	0.049052835
51	0x3def5259	0.116856284
52	0xbd8af6e0	-0.06785369
53	0xbc9ff135	-0.019524196
54	0xbd487426	-0.048938893
55	0xbde05e3f	-0.10955476
56	0x3d75d9b7	0.060022082
57	0x3d42a145	0.04751708
58	0xbcbbadf2	-0.022910092
59	0x3cdfed3a	0.027334798
60	0x3bc514e2	0.0060144523
61	0xbdb8c416	-0.090217754
62	0xbc845597	-0.016154094
63	0xbd520e90	-0.05128342
64	0x3be77e24	0.0070645977
65	0xbdd55e84	-0.10418418
66	0xbd5b31fb	-0.053514462
67	0xbc7b1a3e	-0.015326081
68	0xbcc750f9	-0.024330603
69	0x3cd97729	0.026546078
70	0x3d9af950	0.07567084
71	0xbc57d3cb	-0.013173054
72	0xbd1d4803	-0.038398754
73	0x3d3e7932	0.0465023
74	0xbc731934	-0.014837552
75	0xbce58365	-0.028016755
76	0x3c80bf26	0.015716147
77	0xbcbbb22a	-0.022912104
78	0x3cd771c4	0.026299365
79	0x3d64082d	0.05567186
80	0x3daab982	0.08336164
81	0xbd6e60c1	-0.05819774
82	0x3c4460fb	0.011986013
83	0xbc6cbca2	-0.01444927
84	0xbd6c0a97	-0.057627287
85	0xbad8f3db	-0.0016552167
86	0x3d9cd3da	0.07657595
87	0xbd4e41b9	-0.050355647
88	0x3cf8da0c	0.03037741
89	0xbcc91a55	-0.024548689
90	0xbd8eb520	-0.069681406
91	0xbd449851	-0.047996823
92	0x3c74253a	0.014901454
93	0x3c33915f	0.010959952
94	0x3c01afed	0.007915479
95	0x3d5ce53e	0.05392956
96	0xbbbf8fe8	-0.0058460124
97	0x3bd17ed4	0.006393293
98	0x3d13324a	0.03593663
99	0x3cdca133	0.026932335
100	0x3c9cb738	0.019130334
101	0x3d8257ba	0.06364389
102	0xbd873bb0	-0.06603181
103	0xbd527169	-0.051377688
104	0x3db9d700	0.09074211
105	0xbb16fead	-0.0023039982
106	0xbce1006d	-0.027466023
107	0xbd96eb3e	-0.07369088
108	0xbd35be11	-0.044370715
109	0x3d015ccd	0.031582642
110	0xbbe64621	-0.007027403
111	0xbc491995	-0.012274166
112	0x3d64ae4a	0.055830278
113	0x3d5b9c9c	0.05361615
114	0x3d6464f2	0.05576033
115	0x3cc45a93	0.02396897
116	0xbdbfe8ec	-0.09370598
117	0x3bd068c0	0.0063601434
118	0x3b314212	0.0027047438
119	0x3de3faa1	0.11131788
120	0x3d08bcb8	0.0333831
121	0x3ad5a040	0.0016298369
122	0xbcb5bfee	-0.022186246
123	0xbdae08ce	-0.08497773
124	0x3b35ce57	0.0027741396
125	0xbd820642	-0.0634885
126	0x3ce87540	0.028376222
127	0x3b556a7a	0.0032564686
128	0x3d528ba9	0.05140272
129	0xbab4dd0c	-0.0013798787
130	0xbcf27fc1	-0.029601933
131	0x3dadb5f3	0.0848197
132	0x3db0961a	0.086223796
133	0x3b55bba9	0.0032613075
134	0x3ce4728e	0.027886655
135	0x3c774fbb	0.015094693
136	0x3ce2c380	0.027681112
137	0xbd56a7e5	-0.05240621
138	0x3ccf673d	0.025317783
139	0xbc0e41e9	-0.008682706
140	0x3da07d0a	0.07836349
141	0xbd45c820	-0.048286557
142	0x3d0e62b2	0.034762092
143	0x3d7817b5	0.060569484
144	0xbd8db2b6	-0.06918852
145	0xbd89498b	-0.0670348
146	0xbd207715	-0.039176065
147	0x3c7fa1fd	0.015602586
148	0x3c1fa8ec	0.009744864
149	0xbd804b8b	-0.06264409
150	0xbd0123ee	-0.031528406
151	0x3db4b15b	0.0882289
152	0x3c62c30b	0.013840447
153	0x3dae4eab	0.085110985
154	0xbdc45573	-0.09586611
155	0xbc81295e	-0.015766796
156	0x3dd0730e	0.10178195
157	0xbd8e710f	-0.06955158
158	0x3d87b16a	0.06625636
159	0x3d7006fa	0.058600403
160	0xbd3858b4	-0.04500647
161	0x3cb79ee3	0.02241463
162	0x3d3dca8f	0.046335753
163	0xbd99a68b	-0.07502469
164	0x3b054f37	0.0020341405
165	0xbd2c1dfe	-0.04202079
166	0x3ce282e6	0.027650308
167	0xbda7b196	-0.08188169
168	0x3d432292	0.04764039
169	0xbd17d993	-0.03707273
170	0x3d16c3fe	0.036808006
171	0xbd847c89	-0.06469066
172	0x3d3faa4e	0.046793275
173	0xbd4cc97b	-0.049996834
174	0xbcddc69b	-0.027072242
175	0xbd222573	-0.039586496
176	0x3cb01884	0.021496065
177	0xbd990f75	-0.07473651
178	0xbd63fe3f	-0.05566239
179	0x3d4ad013	0.04951484
180	0xbd527102	-0.051377304
181	0x3b170f5d	0.0023049929
182	0x3d9211b8	0.07132286
183	0x3d8c354c	0.06846103
184	0x3cb68b34	0.022283174
185	0xbd9451b2	-0.07242145
186	0xbd905b75	-0.07048694
187	0x3d86964d	0.06571636
188	0xbd619135	-0.05507012
189	0xbd08054b	-0.033208173
190	0xbd09edeb	-0.033674162
191	0xbd520204	-0.051271453
192	0x3dbc0ee6	0.09182529
193	0xbd03acc8	-0.0321472
194	0x3c120a3e	0.008913575
195	0x3d9611c6	0.07327609
196	0x3d17f608	0.037099868
197	0x3dc72e89	0.09725673
198	0xbd75a837	-0.059974875
199	0x3d3620a5	0.044464726
200	0xbd8efbff	-0.06981658
201	0x3cbbf500	0.022943974
202	0xbd16b16a	-0.03679029
203	0xbd920fa5	-0.0713189
204	0xbd01d204	-0.031694427
205	0x3ca97d09	0.020689504
206	0xbc975657	-0.018473787
207	0x3dc3395c	0.09532425
208	0xbc94092d	-0.018070782
209	0x3d6518c2	0.055931814
210	0x3d3e92a1	0.046526555
211	0xbd4cfa85	-0.0500436
212	0x3d82fc2a	0.06395753
213	0xbc5c883b	-0.013460214
214	0xbb34632e	-0.0027524936
215	0xbd8ded34	-0.069300085
216	0x3d3f9959	0.046777103
217	0xbd0632dd	-0.03276335
218	0xbd5811b9	-0.052751277
219	0xbd783a02	-0.060602196
220	0x3c5eddcc	0.013602685
221	0x3d330c2f	0.04371279
222	0x3b678f92	0.0035333377
223	0xbd347459	-0.04405627
224	0xbc616413	-0.01375677
225	0x3d8f5254	0.06998125
226	0xbd29acb5	-0.041424472
227	0xbd96e36f	-0.07367598
228	0xbc51a079	-0.012794607
229	0x3c8689f9	0.016423212
230	0x3d743425	0.05962004
231	0x3d5ef82c	0.054435894
232	0x3dba9914	0.091112286
233	0xbcd5a749	-0.026080744
234	0x3ca9cfb3	0.020728922
235	0xbd0bfac2	-0.03417469
236	0x3d808131	0.06274641
237	0x3d3a16d0	0.045431912
238	0xbda4cc02	-0.08046724
239	0xbcbd7efe	-0.023131844
240	0xbd61538b	-0.055011313
241	0xbd87a4a5	-0.066232
242	0xbc8328e8	-0.016010717
243	0xbd82353d	-0.06357811
244	0xbd2346fc	-0.039862618
245	0x3d450d26	0.048108242
246	0xbb860327	-0.0040897313
247	0xbd22c1a6	-0.03973546
248	0x3d8faa55	0.0701491
249	0xbdb6b780	-0.089217186
250	0x3d365315	0.044512827
251	0x3d573dcc	0.05254917
252	0x3d81219d	0.06305239
253	0xbd522d04	-0.05131246
254	0xba17e6ea	-0.0005794602
255	0x3d176a92	0.036966868

lstm.bias_ih_l0 f4 [512]
0	0x3dabc09d	0.083863474
1	0xbc024577	-0.007951132
2	0xbcd59005	-0.02606965
3	0xbc0f94f4	-0.008763541
4	0xbd089453	-0.033344578
5	0xbd00462f	-0.031316932
6	0x3d51b058	0.051193565
7	0x3da12dee	0.078700885
8	0x3bad0586	0.0052801995
9	0x3c3a9c34	0.011389781
10	0xbd04bcdf	-0.032406684
11	0x3d4ff029	0.050766144
12	0x3d6a3205	0.05717661
13	0x3ba71531	0.0050989618
14	0xbbd3eda8	-0.00646754
15	0x3d0cc1cd	0.03436451
16	0xbd530f31	-0.05152816
17	0x3c4894d3	0.012242514
18	0xbd3137cb	-0.0432661
19	0xbd876489	-0.066109724
20	0x3c488cfb	0.012240644
21	0x3d3164b7	0.04330894
22	0xbd288a68	-0.04114762
23	0xbc50d183	-0.012745264
24	0xbcd7e241	-0.026353003
25	0x3db2daba	0.08733125
26	0x3d88ce9a	0.06680031
27	0xbd4e867a	-0.050421216
28	0x3c152495	0.00910296
29	0x3c1cba38	0.009565882
30	0x3baea5cb	0.0053298227
31	0x3d137d01	0.036007885
32	0xbbc0d3f4	-0.005884642
33	0xbd8c8ea2	-0.068631425
34	0x3caa1e64	0.020766445
35	0xbdd25045	-0.102692164
36	0x3dac2312	0.08405127
37	0x3d81540b	0.06314858
38	0x3d43a923	0.047768723
39	0xbd3e647c	-0.046482548
40	0xbc2fb91f	-0.010725289
41	0xbce3e88f	-0.027820854
42	0xbc4ed62c	-0.012624305
43	0x3c1e0813	0.00964548
44	0xbd78d9c9	-0.06075457
45	0x3dbf3fd7	0.09338348
46	0xbc0377f8	-0.008024208
47	0xbc1301f0	-0.00897263
48	0x3ca84397	0.020540042
49	0xbcdddd7b	-0.02708315
50	0xbd9145b4	-0.07093373
51	0x3ddaef42	0.10690166
52	0xbc49720b	-0.012295256
53	0xbdb89e0f	-0.09014522
54	0x3c257090	0.010097638
55	0x3c813979	0.015774475
56	0x3d351d70	0.044217527
57	0xbd591691	-0.053000037
58	0xbd68a46c	-0.05679743
59	0x3d962128	0.07330543
60	0xbcada5a7	-0.021197153
61	0x3d00e7c2	0.03147102
62	0x3d91e1e4	0.07123163
63	0xbcc45cc4	-0.023970015
64	0x3c6efb5b	0.014586295
65	0xbbeb1568	-0.0071741827
66	0xbcf51af9	-0.029920088
67	0x3db0bd5c	0.086298674
68	0xbdbb3ec6	-0.091428325
69	0x3d82f291	0.06393922
70	0x3d75e771	0.060035173
71	0x3dbeb68d	0.093121625
72	0xbd4fc08a	-0.05072073
73	0x3d04dc0f	0.032436427
74	0x3ab70e50	0.0013966057
75	0xbdbbfb29	-0.091787644
76	0x3c0a3127	0.00843457
77	0xbd327ce8	-0.04357615
78	0xbd98d2e9	-0.07462103
79	0x3c8083ca	0.015687842
80	0xbbb98715	-0.005661855
81	0xbd38b737	-0.045096602
82	0x3c91cc99	0.017797755
83	0x3d7f2c2d	0.06229799
84	0x3d00772e	0.03136366
85	0xbc69c535	-0.014268209
86	0xbd408bd2	-0.047008343
87	0xbccccefa	-0.025001038
88	0x3d9cf5ad	0.076640464
89	0x3d3ac31f	0.04559624
90	0x3d7c895d	0.061654437
91	0xbd698e13	-0.05702026
92	0xbd5cdf17	-0.053923693
93	0x3bb8992c	0.005633494
94	0xbd3c2844	-0.045936838
95	0xbc9ce94d	-0.019154215
96	0xbd0284db	-0.031864982
97	0x3d00f155	0.031480152
98	0x3c805e44	0.01566995
99	0x3c94f419	0.018182801
100	0xbceb9929	-0.028759556
101	0xbd5222e9	-0.051302824
102	0xbc078e8f	-0.008273735
103	0x3d93cdbc	0.07216975
104	0xbbfc578b	-0.0077008656
105	0x3c304635	0.010758926
106	0xbd40aec1	-0.04704166
107	0x3d23db1c	0.04000388
108	0x3d740f3b	0.059584837
109	0xbabaf14b	-0.0014262585
110	0x3d3ede9e	0.046599023
111	0xbd885b22	-0.06658007
112	0xbbb9b15f	-0.0056668962
113	0xbd9b92d9	-0.07596368
114	0xbb364474	-0.0027811797
115	0xbd0a4a51	-0.03376228
116	0x3d7ce2cb	0.061739724
117	0xbd4694bf	-0.0484817
118	0x3d8694ac	0.06571326
119	0xbcccc823	-0.024997776
120	0xbc898934	-0.016789056
121	0x3bbbd1af	0.0057317833
122	0xbd04195e	-0.032250755
123	0x3db7ac57	0.08968418
124	0x3dbceb42	0.09224559
125	0xbd041847	-0.032249715
126	0x3c7d8b03	0.0154750375
127	0x3d66d354	0.056353882
128	0x3ce2d2a9	0.027688341
129	0x3d16a9cf	0.036783036
130	0x3dbafaf4	0.09129897
131	0xbd8c50fd	-0.06851385
132	0x3d1c1bad	0.03811233
133	0xba61e681	-0.00086174166
134	0xbcc36fed	-0.023857081
135	0x3c665de2	0.014060469
136	0x3b997e6f	0.0046842615
137	0xbd8811d0	-0.066440225
138	0xbd3ff66e	-0.046865873
139	0xbdd0b8b5	-0.1019148
140	0x3b8b6e90	0.0042551234
141	0x3ca3669a	0.019946385
142	0x3c271997	0.010198972
143	0xbd815ff1	-0.063171275
144	0xbce4a622	-0.02791125
145	0xbc24ce79	-0.010058993
146	0xbd934006	-0.07189946
147	0x3d7e666a	0.06210939
148	0x3dacea76	0.084431574
149	0x3d33e98e	0.043923907
150	0xbc5a5330	-0.0133254975
151	0x3ca812a9	0.02051671
152	0x3c940eb4	0.018073417
153	0xbd944e14	-0.07241455
154	0x3d71d906	0.05904486
155	0xbdc71974	-0.09721652
156	0xbd991e50	-0.07476485
157	0xbd785e90	-0.060637057
158	0xbd00da9d	-0.031458486
159	0xbd268734	-0.040656283
160	0xbd9da466	-0.07697372
161	0xbced4b51	-0.028966578
162	0xbda0e178	-0.07855505
163	0x3d3d77f6	0.04625698
164	0xbd88b017	-0.066742115
165	0xbcdefa03	-0.027218824
166	0x3d89d132	0.06729354
167	0xbd1420db	-0.036164146
168	0x3c96e582	0.018419985
169	0x3b81329b	0.0039428
170	0x3d73a668	0.05948487
171	0x3da677cc	0.08128318
172	0xbd80ee92	-0.06295504
173	0x3ce8e050	0.028427273
174	0x3d6edc24	0.05831541
175	0x3d1b97cd	0.037986565
176	0xbd40f054	-0.047104195
177	0xbd2fee42	-0.04295183
178	0xbdacf5a5	-0.084452905
179	0x3cdab62f	0.0266982
180	0x3bfb485e	0.007668539
181	0x3cf1877c	0.02948355
182	0x3dbba172	0.091616526
183	0x3d552af1	0.052042905
184	0xbda80a02	-0.08205034
185	0x3d999353	0.07498803
186	0x3d997860	0.07493663
187	0x3d426616	0.047460638
188	0xbd2a70d8	-0.041611522
189	0x3cd4660f	0.025927572
190	0x3b40d0f7	0.0029421428
191	0xbc4562e4	-0.012047503
192	0xbd7da5a2	-0.061925538
193	0x3d08fec2	0.03344608
194	0x3d6dd0a7	0.058060315
195	0x3cffea91	0.03123978
196	0x3c4389c0	0.011934698
197	0xbc8f722a	-0.017510492
198	0xbdaab41d	-0.08335135
199	0x3cdecfb0	0.027198642
200	0xbd07af64	-0.03312625
201	0x3b433ff2	0.0029792753
202	0xbd38c9f6	-0.04511448
203	0xbd5e4145	-0.054261465
204	0x3d460baf	0.048350986
205	0x3dae1689	0.08500392
206	0xbd7724bc	-0.060337767
207	0xbdc48e0a	-0.09597404
208	0xbd4e55f5	-0.050374944
209	0x3d33c6ff	0.04389095
210	0x3da04f7b	0.0782766
211	0xbd6594b2	-0.05605001
212	0xbc85d449	-0.016336577
213	0xbd37f75e	-0.044913642
214	0x3db47914	0.08812156
215	0x3d2131e2	0.039354213
216	0x3d585c17	0.0528222
217	0xbd037b47	-0.03209999
218	0xbd3b287f	-0.045692917
219	0x3d91eedf	0.07125639
220	0xbd8381ac	-0.06421217
221	0x3d456d7d	0.04820012
222	0x3d71c48c	0.059025332
223	0xbd149231	-0.03627223
224	0xbdb31700	-0.08744621
225	0x3d36ad6f	0.044598993
226	0x3c2c4cb2	0.010516332
227	0x3d8288e6	0.063737676
228	0x3d42583f	0.04744744
229	0xbcf568f8	-0.02995728
230	0xbd36efbe	-0.04466223
231	0x3da0c947	0.078508906
232	0x3d89f88b	0.06736859
233	0xbd8c68fd	-0.068559624
234	0xbd9da046	-0.07696585
235	0xbd36589d	-0.044518102
236	0xbc18a76c	-0.00931726
237	0x3cf2e29b	0.02964907
238	0xbd9f70b9	-0.07785172
239	0x3d5c0c49	0.053722654
240	0x3d9787c5	0.07398943
241	0xbdab5741	-0.08366252
242	0x3d814f69	0.063139744
243	0xbb2956c5	-0.0025839072
244	0x3da0fd96	0.07860868
245	0x3d5a6d32	0.053326793
246	0x3d37cabc	0.044871077
247	0x3db73ed6	0.08947532
248	0xbd873686	-0.066021964
249	0xbcc14c4a	-0.023595948
250	0x3d19f69a	0.037588693
251	0xbd6a7765	-0.05724277
252	0xbcdc7255	-0.026909987
253	0xbd30d2c9	-0.04316977
254	0xbda86b8e	-0.082236394
255	0xbccdf2f8	-0.02514027

lstm.bias_hh_l0 f4 [512]
0	0x3db219ad	0.086963035
1	0xbda035c0	-0.07822752
2	0xbd87c99c	-0.06630251
3	0x3db1e135	0.08685533
4	0xbdb03124	-0.08603123
5	0xbdab8ea3	-0.08376815
6	0x3cf1ba6a	0.029507834
7	0xbd0f4e3e	-0.034986727
8	0x3db2b6e1	0.08726288
9	0xbc902ec1	-0.017600419
10	0x3da34e8e	0.079739675
11	0x3caa6596	0.020800393
12	0x3d44cbf5	0.04804607
13	0xbd10fe0a	-0.03539852
14	0xbd50015f	-0.050782558
15	0xbc087f20	-0.00833109
16	0xbd9ca6f3	-0.076490305
17	0x3d1240d7	0.035706367
18	0xbd113c31	-0.035457794
19	0x3c81c165	0.015839288
20	0x3daa312a	0.083101586
21	0xbc44615d	-0.011986104
22	0x3d7c0527	0.06152835
23	0x3d91374c	0.07090625
24	0x3d8b5412	0.068031445
25	0x3d9ca8c4	0.07649377
26	0x3b9c3bd9	0.0047678766
27	0xbb7adf7d	-0.0038280182
28	0xbc88bbe3	-0.016691154
29	0x3d916666	0.07099609
30	0x3dc1b4b3	0.09458294
31	0xbd31d715	-0.04341801
32	0x3cc675a9	0.024226027
33	0xbd93e421	-0.072212465
34	0x3d5ab1dd	0.05339228
35	0x3d2e140c	0.042499587
36	0x3d0fbf37	0.035094466
37	0xbd09ed7b	-0.033673745
38	0x3dbd2e53	0.09237351
39	0xbc58e37f	-0.013237833
40	0xbd903f9f	-0.07043385
41	0xbd8fc05a	-0.0701911
42	0xbd31c78e	-0.0434032
43	0x3c8834ef	0.016626803
44	0xbb1c5d07	-0.002385916
45	0x3c3ae882	0.011407973
46	0x3d808c7c	0.06276795
47	0xbd8fc011	-0.07019056
48	0x3cef9f18	0.029250666
49	0xbc7883d3	-0.015168148
50	0x3d0753b5	0.033038814
51	0x3cd8f08b	0.026481887
52	0x3d047725	0.032340188
53	0xbd7a83ff	-0.061161038
54	0x3d975698	0.07389563
55	0x3cfc71b4	0.030815937
56	0x3d2fd360	0.042926192
57	0xbd807e4d	-0.0627409
58	0x3d8a5c2d	0.067558624
59	0xbc808328	-0.01568754
60	0xbbc00099	-0.0058594462
61	0x3b3b061d	0.002853758
62	0x3d285ea5	0.041105885
63	0xbd96c379	-0.07361502
64	0xbbfc1cf5	-0.0076938816
65	0x3d7f7175	0.06236406
66	0xbd5b8537	-0.05359384
67	0xbd004ef0	-0.03132528
68	0xbcf39579	-0.02973436
69	0xbc9440e7	-0.018097354
70	0x3d46d81d	0.048545945
71	0xbd860c2c	-0.0654529
72	0xbdbe9904	-0.09306529
73	0x3dbb61bc	0.09149501
74	0xbbe6d326	-0.007044214
75	0xbd563208	-0.052293807
76	0x3dc32c1a	0.09529896
77	0x3d82ddc1	0.063899525
78	0x3d8b05ff	0.06788253
79	0xbd746055	-0.059662182
80	0xbc953822	-0.018215243
81	0xbbb630e0	-0.0055600256
82	0x3cb290a3	0.021797484
83	0x3cc24a56	0.023717087
84	0xbd8639e2	-0.06554009
85	0x3bd3f41d	0.0064683096
86	0xbc8ec031	-0.017425628
87	0xbc5ca18b	-0.013466249
88	0x3d236d90	0.03989941
89	0xbd7cf6a2	-0.061758645
90	0x3bed3866	0.0072393892
91	0xbd9c72e7	-0.076391034
92	0xbdb61cb6	-0.08892195
93	0xbcec2121	-0.02882439
94	0x399e8a99	0.00030239372
95	0xbd92e40e	-0.07172404
96	0xbc3de880	-0.011591077
97	0x3d9a3ce8	0.07531148
98	0xbd8e2d0b	-0.06942185
99	0x3d07328b	0.033007186
100	0xbd432cf7	-0.047650304
101	0x3d6faaa8	0.05851236
102	0x3d45bca0	0.04827559
103	0x3d80a476	0.062813684
104	0xbd3e7e3d	-0.04650711
105	0xbd00626d	-0.031343866
106	0xbc83eff2	-0.016105626
107	0x3c8cb2ba	0.017175067
108	0xbc57e947	-0.013178176
109	0xbc8ee82e	-0.017444696
110	0x3d060612	0.032720633
111	0xbd77462b	-0.06036965
112	0xbd5fa0ff	-0.054596897
113	0x3c8270c4	0.015922911
114	0xbd5f6f9c	-0.0545498
115	0x3c7f4f42	0.015582861
116	0xbcc9c826	-0.024631571
117	0xbd9f4055	-0.07775942
118	0x3d2ef628	0.04271522
119	0x3da70b22	0.0815642
120	0x3a4410f5	0.00074793334
121	0xbd318c1a	-0.043346502
122	0xbdc4c90c	-0.09608659
123	0x3d474e99	0.04865894
124	0x3db873b4	0.090064436
125	0xbd4aa06b	-0.049469393
126	0xbd9b2614	-0.07575622
127	0xbda8b5dc	-0.08237812
128	0xbd2a1614	-0.04152496
129	0xbc16fb00	-0.0092151165
130	0x3da13740	0.07871866
131	0xbcde27a2	-0.027118508
132	0xbd877cd3	-0.06615605
133	0xbcd5fbcd	-0.026121045
134	0xbc7dfa76	-0.015501609
135	0xbd130107	-0.03588965
136	0x3a4d8195	0.00078394386
137	0xbd268377	-0.04065272
138	0xbd07e9aa	-0.033181824
139	0x3d862815	0.06550614
140	0x3c45ee45	0.012080734
141	0x3ba0b3d6	0.0049042506
142	0xbd330f92	-0.04371602
143	0x3b1f8eaa	0.002434651
144	0xbd128fa3	-0.035781514
145	0xbc99afaa	-0.018760521
146	0xbb341699	-0.002747929
147	0xbca194e4	-0.019724317
148	0x3d2bb514	0.041920736
149	0x3d86e704	0.065870315
150	0x3ca8c85c	0.020603351
151	0x3c501913	0.012701291
152	0x3d4b5d1d	0.049649347
153	0xbc78fc72	-0.015196906
154	0xbd108b93	-0.03528936
155	0xbba28307	-0.0049594673
156	0x3ca2808b	0.019836685
157	0xbce1523a	-0.027505029
158	0xbd9473f4	-0.07248679
159	0x3db3b715	0.087751545
160	0xbcddbc67	-0.027067376
161	0x3c400c1f	0.01172164
162	0x3ab9c5dd	0.0014173348
163	0xbd7f3ae8	-0.062312037
164	0x3da47d65	0.080317296
165	0x3d9091c1	0.0705905
166	0xbc49265c	-0.012277212
167	0x3d97f717	0.074201755
168	0x3d624df3	0.05525012
169	0x3d1fd1d3	0.039018463
170	0xbc411b8b	-0.011786352
171	0x3bf1e2eb	0.007381787
172	0x3baad24c	0.0052130576
173	0xbd95e36b	-0.07318767
174	0xbd144c04	-0.036205307
175	0xbd60cf43	-0.05488516
176	0x3da96c55	0.08272616
177	0x3db234d4	0.087014824
178	0xbd6a6028	-0.057220608
179	0xbcae9fab	-0.02131637
180	0xbd988a04	-0.074481994
181	0xbd45e4ff	-0.04831409
182	0x3d38e50e	0.04514032
183	0x3cc85ff5	0.024459818
184	0xbd201db7	-0.03909084
185	0x3d4fa383	0.050693046
186	0xbc50bf9b	-0.012740995
187	0x3d5e918a	0.054338016
188	0x3d46c27a	0.04852531
189	0xbd9838a9	-0.07432682
190	0xbc96308a	-0.018333692
191	0x3d116f2b	0.03550641
192	0xbd644905	-0.0557337
193	0x3d6e17a1	0.058128003
194	0xbd6dadd7	-0.058027115
195	0xbd415545	-0.04720046
196	0x3d19c8fa	0.03754518
197	0xbc67211b	-0.014107014
198	0xbc4db925	-0.012556349
199	0xbd3b9623	-0.04579748
200	0x3d5581f3	0.052125882
201	0x3cacf469	0.021112638
202	0x3da7fa80	0.08202076
203	0xbdae1eda	-0.08501978
204	0x3c986b3d	0.018605823
205	0xbd870a59	-0.065937705
206	0x3d6223fc	0.0552101
207	0x3d0944df	0.033512946
208	0x3d53d4a2	0.051716454
209	0xbd3e57e7	-0.04647055
210	0xbd8a9caa	-0.067681625
211	0xbc2abe41	-0.010421337
212	0x3d9a9a6b	0.07548984
213	0xbd86bfdf	-0.06579565
214	0x3d21bcf5	0.039486844
215	0xbd3f77a0	-0.046744943
216	0xbdaf910b	-0.085725866
217	0x3c626e89	0.013820299
218	0xbbf3b88b	-0.0074377707
219	0xbdb5a3c7	-0.08869129
220	0xbcdcfd50	-0.026976258
221	0x3da994cc	0.08280334
222	0x3d6aa72e	0.05728834
223	0xbdb3916c	-0.087679714
224	0x3d016d4f	0.031598385
225	0xb9defa90	-0.00042529823
226	0x3d8883e4	0.06665781
227	0x3d05777c	0.032584652
228	0x3d384c1f	0.04499447
229	0x3d953c52	0.07286896
230	0xbb345997	-0.002751922
231	0xbd13c837	-0.03607961
232	0xbcefa800	-0.029254913
233	0x3cf47bc4	0.029844172
234	0xbd889ac8	-0.06670147
235	0xbcfd2c9f	-0.030905066
236	0xbdc616e4	-0.09672335
237	0x3d4be2f6	0.049776994
238	0xbc938889	-0.018009441
239	0xbd8b1036	-0.06790201
240	0x3c51c235	0.01280265
241	0xbc4d062d	-0.012513679
242	0x3c97b18f	0.018517284
243	0x3d280674	0.04102178
244	0x3da880f4	0.08227721
245	0x3b242d79	0.0025051518
246	0xbd150f76	-0.036391698
247	0xbd91998d	-0.071093656
248	0x3d32b693	0.043631148
249	0x3d9f7274	0.07785502
250	0xbc191bd7	-0.009345016
251	0x3d1fdd9b	0.0390297
252	0xbd1a3970	-0.037652433
253	0x3d7f42b1	0.06231946
254	0x3cb9c09b	0.02267485
255	0xbdb37ecc	-0.08764419

lstm.weight_ih_l1 f4 [512, 128]
0	0x3d17e017	0.037078943
1	0xbd923ac0	-0.07140112
2	0xbbe0a3d0	-0.0068554655
3	0x3c864516	0.016390365
4	0x3d78dc1e	0.060756795
5	0x38a730a4	7.9722406e-05
6	0x3dc0f6f1	0.094221
7	0xbce9afb5	-0.028526166
8	0x3cab4172	0.02090523
9	0xbd93fa92	-0.07225527
10	0xbd94a3b1	-0.07257784
11	0x3d42bf4b	0.047545712
12	0x3daef12d	0.085420944
13	0xbb160992	-0.0022893888
14	0xbcc49320	-0.023995936
15	0x3d55f113	0.05223186
16	0xba4b11a5	-0.00077464647
17	0xbd6d53ef	-0.057941373
18	0x3d8692d1	0.06570972
19	0x3d86175c	0.06547424
20	0x3c7f18fe	0.015569923
21	0xbd2f7d20	-0.042843938
22	0xbcd944d1	-0.026522072
23	0x3d88648f	0.06659805
24	0x39f86a58	0.00047381478
25	0xbd74640f	-0.059665736
26	0x3d08c74b	0.033393186
27	0x3d85adc9	0.065272875
28	0xbd88d240	-0.06680727
29	0x3d77120a	0.060319938
30	0x3ca053a0	0.019571126
31	0xbc1ac58e	-0.009446515
32	0x3d7ff09b	0.06248532
33	0xbcde108c	-0.0271075
34	0x3b749941	0.0037322792
35	0x3b154fc2	0.0022783135
36	0xbdb82c6a	-0.08992846
37	0xbd4409c7	-0.047860887
38	0x3d6321ae	0.05545204
39	0x3d5efa6d	0.054438043
40	0xbd9058ea	-0.07048209
41	0xbd142c98	-0.03617534
42	0x3c361cc5	0.011115258
43	0xbd1738d0	-0.036919415
44	0xbd567eee	-0.052367143
45	0xba45350d	-0.0007522859
46	0xbc6afd73	-0.014342654
47	0xbd2935eb	-0.041311186
48	0xbd0af8c9	-0.033928666
49	0x3d8d203d	0.068909146
50	0xbd7499a6	-0.059716843
51	0xbd82e19c	-0.06390688
52	0x3ce26e59	0.027640508
53	0x3b3fc948	0.002926426
54	0x3c01a1cc	0.007912111
55	0x3da296da	0.07938929
56	0x3d096a38	0.033548564
57	0x3d93e631	0.0722164
58	0x3c8aa97e	0.016926523
59	0x3c068ce1	0.008212299
60	0xbdb53499	-0.08847923
61	0xbdba93e0	-0.09110236
62	0x3d41162a	0.047140278
63	0xbcd2fe68	-0.025756076
64	0xbd3158be	-0.04329752
65	0x3d8b1baa	0.06792386
66	0xbd1efce9	-0.038815413
67	0x3d38b7a9	0.045097027
68	0x3d2a1442	0.041523226
69	0xbcdd2c36	-0.02699862
70	0x3d811dee	0.06304537
71	0x3d90f900	0.07078743
72	0x3dcbe19e	0.099551424
73	0x3c1b4567	0.009476996
74	0xbdbd65d7	-0.0924794
75	0x3bbc83b7	0.0057530063
76	0x3d362dfc	0.044477448
77	0xbcd4d785	-0.025981674
78	0xbd6ae7c7	-0.057349946
79	0x3c2d7f1b	0.010589386
80	0x3d889531	0.06669081
81	0xbd9637bc	-0.07334849
82	0xbc46b607	-0.01212836
83	0x3d2ac4cd	0.04169159
84	0xbdad705a	-0.08468695
85	0xbdab03c2	-0.08350326
86	0x3d088496	0.03332957
87	0x3d4d67bb	0.050147753
88	0xbd7ba89f	-0.061440106
89	0xbacc904a	-0.0015606966
90	0x3d190938	0.037362307
91	0xbdb98995	-0.09059445
92	0xbcfdcd8d	-0.030981803
93	0xbd54e4e5	-0.051976103
94	0xbd84c7fa	-0.06483455
95	0x3d22e862	0.0397724
96	0xbd85a7ce	-0.06526147
97	0x3d05e9e3	0.032693755
98	0xbdc5ad77	-0.096522264
99	0xbd42d6a3	-0.047567975
100	0xbd6d3ffe	-0.057922356
101	0xbd07a9ff	-0.033121105
102	0x3bcadf77	0.00619119
103	0x3d757c34	0.059932902
104	0x3dbd9440	0.09256792
105	0x3d84b106	0.06479077
106	0xbdc56e78	-0.09640211
107	0x3c86baa7	0.016446425
108	0xbb6d6d79	-0.003622858
109	0xbd64fcd7	-0.05590519
110	0x3d11f596	0.0356346
111	0x3b57b169	0.0032912141
112	0xbd218b75	-0.039439637
113	0x3d8402a3	0.064458154
114	0x3d2c7a36	0.042108737
115	0x3cd8249b	0.026384642
116	0xba387342	-0.0007036218
117	0xbcd5f36c	-0.02611705
118	0x3caef930	0.021359056
119	0xbd9d3f2d	-0.076780654
120	0xbb295e14	-0.0025843428
121	0xbdb10339	-0.08643193
122	0xbd800028	-0.0625003
123	0x3d72a007	0.059234645
124	0xbd598073	-0.053101014
125	0x3d82db28	0.06389457
126	0xbd7ce206	-0.06173899
127	0x3d4b7036	0.04966756
128	0x3d388615	0.045049746
129	0xbd394be2	-0.045238383
130	0xbc67fd90	-0.014159575
131	0xbc8e5d7e	-0.017378565
132	0x3d8699ac	0.06572279
133	0x3d06fda9	0.032956753
134	0x3c910a41	0.017705085
135	0x3dbd3178	0.09237951
136	0xbdaae1c2	-0.08343841
137	0xbda4b80e	-0.08042918
138	0x3b726928	0.0036988948
139	0x3cd63f51	0.026153238
140	0xbd9344c6	-0.07190852
141	0xbd9cc911	-0.07655538
142	0xbbaca217	-0.005268346
143	0x3c8ae7f7	0.016956313
144	0x3d16daf8	0.03682992
145	0xbd01c8fe	-0.03168582
146	0x3d196c76	0.037456952
147	0xbd944b6e	-0.072409496
148	0x3d87aa80	0.06624317
149	0xbd29541f	-0.04133999
150	0x3dbd8f53	0.092558526
151	0x3d4fcec3	0.050734293
152	0xbcde7e06	-0.027159702
153	0x3c9dc3d9	0.019258427
154	0x3c1b35f4	0.009473313
155	0x3d727f30	0.059203327
156	0xbd425fcf	-0.04745465
157	0x3c49f085	0.012325411
158	0xbd08cb8c	-0.033397242
159	0xbda2ed7a	-0.07955451
160	0x3ca5f889	0.020260112
161	0x3c6ed253	0.014576512
162	0xbd91ce29	-0.071194
163	0xbcc0afc1	-0.023521306
164	0x3b797c5e	0.0038068513
165	0x3cbf904b	0.023384234
166	0x3ca355fe	0.019938465
167	0x3c29855d	0.010346738
168	0xbd69b15a	-0.0570539
169	0x3995fcb1	0.00028607764
170	0xbd9cdb0d	-0.07658968
171	0x3d3a6afe	0.045512192
172	0x3d813b14	0.063100964
173	0x3d9dcca8	0.07705051
174	0x3cd2b58a	0.02572133
175	0x3db35786	0.08756928
176	0xbd98efab	-0.07467588
177	0x3d7a1df8	0.061063737
178	0xbc31de83	-0.010856274
179	0x3d845804	0.064621
180	0xbdc5f400	-0.0966568
181	0x3d02b088	0.031906635
182	0xbd32f0ab	-0.04368655
183	0x3cb538ee	0.022121873
184	0x3c098579	0.008393639
185	0x3c95ada3	0.018271273
186	0xbc809c49	-0.015699523
187	0x3ce8af6e	0.028403964
188	0x3b9cb323	0.004782097
189	0xbd1b7326	-0.03795161
190	0x3cb64b5b	0.02225273
191	0x3c803b01	0.015653135
192	0x3d755c17	0.059902277
193	0xbd40f927	-0.04711261
194	0xbda38175	-0.07983676
195	0xbdadb882	-0.08482458
196	0xbd9b3b8c	-0.07579717
197	0x3d8c416a	0.06848414
198	0xbb526226	-0.0032101958
199	0xbd920428	-0.07129699
200	0xbd0ef76c	-0.03490393
201	0x3db239dc	0.08702442
202	0xbcb0fd55	-0.021605173
203	0x3c164935	0.009172727
204	0xbc87eded	-0.016592944
205	0x3d224f4d	0.03962641
206	0x3d3c7e2c	0.046018764
207	0xbcf3f596	-0.02978019
208	0x3d9124ad	0.070870735
209	0xbd563ef1	-0.05230612
210	0x3d5fd3cd	0.05464535
211	0x3ce1102f	0.027473537
212	0x3c91749d	0.0177558
213	0x3d5a49cc	0.053293034
214	0x3cc729f5	0.024311999
215	0x3d3efcb9	0.046627734
216	0x3d8e2824	0.0694125
217	0x3d8e3f57	0.06945675
218	0x3d69f46c	0.057117864
219	0x3d6d38b4	0.057915404
220	0x3d183410	0.037159026
221	0xbcaff5c2	-0.021479491
222	0xbc1e4c86	-0.009661799
223	0x3dbf6014	0.09344497
224	0x3d0fe2eb	0.035128515
225	0x3d26e94a	0.040749826
226	0xbdbe7edc	-0.0930154
227	0xbd53689d	-0.05161344
228	0xbd4fb753	-0.05071194
229	0x3d008d32	0.031384654
230	0xbd7441cf	-0.059633072
231	0x3ca51a2d	0.020154083
232	0x3dbc3039	0.09188885
233	0x3d1fed0c	0.039044425
234	0xbdc21a7b	-0.09477707
235	0xbb216a00	-0.0024629831
236	0x3d52ff5f	0.051513072
237	0x3d5fa243	0.054598104
238	0xbd09657d	-0.033544052
239	0xbd1cd9f7	-0.038293805
240	0x3b8d3d34	0.0043102745
241	0x3d37d4a6	0.04488053
242	0xbd94909d	-0.07254145
243	0xbd5ce4e0	-0.05392921
244	0xbd890a55	-0.06691424
245	0xbd7dddd2	-0.061979122
246	0xbd78b4b7	-0.060719218
247	0xbd964d5c	-0.07338974
248	0xbd4a5c4c	-0.049404427
249	0x3d676ea0	0.056501985
250	0x3cb3f884	0.021969087
251	0x3c8b38e8	0.016994908
252	0x3dc1d1d9	0.094638534
253	0xbbeb1147	-0.0071736905
254	0xbcce4586	-0.025179636
255	0xbdad6c38	-0.08467907

lstm.weight_hh_l1 f4 [512, 128]
0	0xbcd87647	-0.026423587
1	0xbd1048a1	-0.035225514
2	0xbd570ebd	-0.05250429
3	0xbd9cb0f9	-0.07650942
4	0x3dab9724	0.08378437
5	0x3d7cd4ae	0.061726265
6	0xbd77f076	-0.060532056
7	0x3b1a2714	0.0023521828
8	0xbd2fb1b9	-0.0428941
9	0x3dac27c7	0.084060244
10	0x3d42effe	0.047592156
11	0x3ae1043c	0.00171674
12	0xbd542da4	-0.05180134
13	0x3db52825	0.088455476
14	0x3cda22be	0.026627894
15	0x3ca8a46b	0.020586213
16	0xbd92f84a	-0.07176264
17	0xbba8760c	-0.0051410254
18	0x3d36172b	0.04445569
19	0xbcf14022	-0.029449526
20	0xbd631eaf	-0.055449184
21	0xbcf62299	-0.030045794
22	0x3d2e7744	0.04259421
23	0xbc576b0e	-0.013148082
24	0xbb32653d	-0.0027220987
25	0x3d917609	0.071025915
26	0x3d83eb5e	0.06441377
27	0x3d8a7762	0.06761052
28	0xbd7ab06d	-0.06120341
29	0xbce0a894	-0.027424134
30	0x3ba9d15c	0.0051824283
31	0x3d542922	0.05179704
32	0x3d13b891	0.036064688
33	0x3ac01004	0.001465321
34	0xbdaed246	-0.085362
35	0x3d002da4	0.031293526
36	0x3d8d3cbd	0.068963505
37	0xbd00b652	-0.031423874
38	0x3cd4467b	0.025912514
39	0x3d7cf350	0.06175548
40	0xbd1d682c	-0.038429424
41	0xbd89e239	-0.06732602
42	0x3c28c9d3	0.010302025
43	0xbca13f27	-0.019683434
44	0x3dae9979	0.08525366
45	0xbc9a173d	-0.018809909
46	0xbd53e119	-0.05172834
47	0xbd90d289	-0.070714064
48	0x3cb8ce49	0.022559302
49	0x3d209713	0.039206576
50	0x3c88fb1f	0.016721306
51	0x3d96e706	0.07368283
52	0xbdb02142	-0.086000934
53	0xbdb8cdde	-0.09023641
54	0xbcddb203	-0.027062422
55	0xbce324e5	-0.027727554
56	0xbbe41ce8	-0.0069614537
57	0x3db624f2	0.088937655
58	0xbcde1a04	-0.027112015
59	0x3d419c91	0.047268454
60	0xbd7923ea	-0.060825266
61	0xbd91d430	-0.0712055
62	0xbd0144a9	-0.03155962
63	0x3bcd8014	0.0062713716
64	0x3d9dde0a	0.07708366
65	0xbd40b720	-0.04704964
66	0x3d7f888d	0.062386084
67	0x3d862bcc	0.06551322
68	0xbd5632f1	-0.052294675
69	0x3d86fd5a	0.06591292
70	0xbc1639c0	-0.009169042
71	0xbd1525e3	-0.036413085
72	0xbd3d0388	-0.046145946
73	0x3c83e5e8	0.016100839
74	0x3dcbd4ac	0.09952673
75	0x3bd3f234	0.006468082
76	0xb9fcc50e	-0.00048212003
77	0x3d56b7ae	0.052421264
78	0xbd8712bc	-0.0659537
79	0xbcafa59d	-0.021441275
80	0xbd85f903	-0.06541636
81	0xbdcaddc8	-0.09905583
82	0xbdc575d1	-0.09641612
83	0xbbd9bc0b	-0.006644731
84	0xbd8445e7	-0.06458645
85	0xbc97a137	-0.01850949
86	0xbd43ec39	-0.0478327
87	0x3da1bcfd	0.07897375
88	0x3d08b17e	0.033372395
89	0xbd4513a9	-0.048114453
90	0x3da0169b	0.07816812
91	0x3c2fa1a8	0.010719694
92	0x3c8c9666	0.01716156
93	0xbd580352	-0.05273754
94	0xbcf8c3c4	-0.030366786
95	0x3d363c4f	0.04449111
96	0x3d4beb6d	0.049785066
97	0xbd146db2	-0.036237426
98	0x3cdb8bf0	0.026800126
99	0x3d77ca78	0.060495824
100	0x3d9ef816	0.077621624
101	0x3d9e379f	0.07725453
102	0xbdcb4d47	-0.09926849
103	0x3d2b430d	0.04181199
104	0xbd8eb2fd	-0.06967733
105	0x3dc0fb8c	0.09422979
106	0xbd87f949	-0.06639344
107	0x3d25ae2d	0.04044931
108	0xbd7d7e5c	-0.061888084
109	0x3d7f88a7	0.06238618
110	0x3a684c97	0.00088615104
111	0xbda959f3	-0.082691096
112	0xbd36bfd5	-0.04461654
113	0x3d074cb8	0.03303215
114	0xbcd44ff8	-0.025917038
115	0xbbf7c116	-0.0075608594
116	0x3d298979	0.04139087
117	0x3d9b41c4	0.07580903
118	0xbc3bc814	-0.011461277
119	0x3d80a5af	0.06281602
120	0xbd97aa8f	-0.07405578
121	0xbd5d9d8f	-0.054105338
122	0xbd81d4a8	-0.06339389
123	0x3cfcc377	0.030854924
124	0xbd6b0229	-0.057375107
125	0x3c4905ab	0.012269418
126	0x3c0b72e8	0.0085112825
127	0xbd3d65bf	-0.04623961
128	0xbcfa72b5	-0.030572275
129	0xbd327f8a	-0.043578662
130	0xbd9c947c	-0.07645509
131	0xbd12ca87	-0.035837676
132	0xbd0cc227	-0.034364846
133	0xbda6b6bb	-0.08140322
134	0xbd8e0cff	-0.069360726
135	0x3d7576a0	0.059927583
136	0x3ce5f3be	0.028070327
137	0x3d1f4e6c	0.03889315
138	0x3da352a2	0.07974745
139	0xbd9b7b50	-0.07591879
140	0xbcd932c2	-0.026513461
141	0xbb8187ed	-0.003952971
142	0x3d0eb799	0.03484306
143	0xbcde946c	-0.027170382
144	0x3d6518e9	0.05593196
145	0x3d4fcd84	0.050733104
146	0x3d607a3e	0.05480408
147	0xbc013b33	-0.007887649
148	0xbd0b1280	-0.03395319
149	0xbc8fa4c0	-0.017534614
150	0xbcc02494	-0.023454942
151	0x3bd249a8	0.006417472
152	0xbcaac3a6	-0.020845246
153	0xbdb2d79f	-0.08732533
154	0x3a6cb5bd	0.00090297667
155	0xbd918f07	-0.071073584
156	0xbd6fa895	-0.05851038
157	0xbd39cb34	-0.045359805
158	0x3d53ba0b	0.051691096
159	0xbda0cdfd	-0.07851789
160	0xbd558331	-0.052127067
161	0xbd40d7c5	-0.047080774
162	0x3d02be05	0.031919498
163	0xbdc1305c	-0.09433052
164	0x3d53bfb2	0.051696487
165	0xbc8eac56	-0.01741616
166	0x3d82b29f	0.063817255
167	0x3d12a96c	0.035806105
168	0xbccc10c6	-0.024910342
169	0xbb2dcb42	-0.0026518856
170	0x3d823f82	0.063597694
171	0xbda07809	-0.07835395
172	0x3d7c4ad2	0.06159479
173	0xbd6d7a22	-0.057977803
174	0xbcb68279	-0.022279011
175	0xbc9c2c34	-0.019064046
176	0xbd8a491b	-0.06752225
177	0x3d875768	0.06608468
178	0xbd0fca7b	-0.03510521
179	0x3db6d149	0.08926637
180	0xbda294ab	-0.079385124
181	0x3d353033	0.04423542
182	0x3db0e3e7	0.08637219
183	0x3d2556e1	0.040366057
184	0x3d20cf20	0.03926003
185	0xbd26a5a4	-0.04068531
186	0xbdbe8937	-0.093035154
187	0xbd06d1cb	-0.032914918
188	0xbc9384c9	-0.018007653
189	0xbd04a16f	-0.032380518
190	0xbd19955f	-0.037495967
191	0x3c33ccb3	0.010974097
192	0xbd005762	-0.031333335
193	0xbb5f5012	-0.0034074825
194	0xb731fac7	-1.0608411e-05
195	0xbda0503e	-0.07827805
196	0x3d8ea2a9	0.06964619
197	0xbda040c0	-0.0782485
198	0xbd850d6c	-0.06496701
199	0xbb5b6e40	-0.0033482462
200	0xbdcdce30	-0.10049093
201	0x3c90b0b5	0.017662385
202	0x3c8cae75	0.017173031
203	0x3d18e9d3	0.037332367
204	0x3db43e51	0.088009484
205	0xbda66fc1	-0.08126784
206	0xbd0d1d4a	-0.03445176
207	0xbd2df8b8	-0.042473525
208	0x3db5cb47	0.08876663
209	0xbcfb35d9	-0.030665325
210	0x3d23959b	0.039937597
211	0xbac43491	-0.0014969279
212	0xbd493e34	-0.049131587
213	0xbd7b5169	-0.061356936
214	0x38cbed97	9.724049e-05
215	0xbdc4d363	-0.09610631
216	0x3d6340cb	0.055481713
217	0x3d8961d5	0.06708113
218	0xbd0b9b6f	-0.03408378
219	0xbda4ffcc	-0.08056602
220	0x3cf79bfe	0.03022575
221	0xbd32350e	-0.04350763
222	0xbdb30cd8	-0.08742684
223	0xbcfe4c25	-0.031042168
224	0x3d177a4e	0.036981873
225	0x3b6a74d5	0.0035775204
226	0xbdc64811	-0.09681714
227	0x3ccc1c83	0.02491594
228	0x3d0401d4	0.032228306
229	0x3d925069	0.07144243
230	0xbc84086a	-0.016117293
231	0x3cfafacc	0.030637167
232	0xbbe58e2b	-0.007005473
233	0xbd8626c5	-0.065503635
234	0x3d9c1ea7	0.07623034
235	0xbd7c3c83	-0.061581146
236	0x3b53fb88	0.003234597
237	0xbc5662ed	-0.013085109
238	0x3c986e3c	0.018607251
239	0xbc4c25f8	-0.012460224
240	0x3d62647c	0.05527161
241	0x3d2a2928	0.041543156
242	0xbdc6a438	-0.09699291
243	0xbc81049e	-0.015749272
244	0xbca94bdd	-0.020666057
245	0x3d7d230d	0.061801005
246	0xbd0dfc21	-0.034664277
247	0x3bd42319	0.0064739105
248	0x3cb64488	0.022249475
249	0x3d00dc70	0.031460226
250	0xbdc82e59	-0.09774465
251	0x3d9452ed	0.07242379
252	0x3d65437e	0.05597257
253	0x3c6fcb0d	0.014635813
254	0xbcb920f1	-0.022598715
255	0x3ccba54b	0.024859091

lstm.bias_ih_l1 f4 [512]
0	0xbd89b8f2	-0.06724729
1	0x3cef0a50	0.029179722
2	0x3c1e2110	0.009651437
3	0x3d2007f1	0.039070074
4	0x3cfe9258	0.031075642
5	0xbd169873	-0.03676648
6	0xbcc81f13	-0.02442888
7	0xbd9dadd4	-0.07699171
8	0x3da16836	0.07881205
9	0xbcc4ecd0	-0.024038702
10	0x3a2f9e4c	0.0006699308
11	0x3ca41e82	0.020034079
12	0xbd9b3d82	-0.07580091
13	0x3dc0277d	0.09382532
14	0x3d72e2a3	0.05929817
15	0x3d235dac	0.039884254
16	0xbc3dc8d5	-0.011583527
17	0x3d8243a4	0.06360558
18	0xbdb4c56a	-0.08826716
19	0x3d4712ce	0.048601918
20	0x3cf7fc5b	0.0302717
21	0xbd580a8b	-0.05274443
22	0xbd661501	-0.056172375
23	0xbd6da99f	-0.05802309
24	0x3c6684ab	0.014069716
25	0x3d3be9f3	0.04587741
26	0xbd8b562d	-0.06803546
27	0x3d5ca0f6	0.05386444
28	0x3d8a319c	0.067477435
29	0x3cf6f6ed	0.03014704
30	0x3d7f644c	0.06235151
31	0xbbce62d8	-0.006298404
32	0xbd65c1ba	-0.056092955
33	0x3c4293a3	0.01187602
34	0x3c8ff7f1	0.017574282
35	0x3ce20972	0.027592395
36	0x3ce5c56a	0.028048236
37	0xbd7ce0c9	-0.06173781
38	0x3da542af	0.080693595
39	0x3d804a73	0.062642
40	0x3b68b32b	0.0035507183
41	0x3d7fef51	0.06248409
42	0x3b9b4845	0.00473884
43	0xbd9c5151	-0.076326974
44	0x3d35ed50	0.044415772
45	0x3d5d7fba	0.054076888
46	0xbd4e3a08	-0.05034831
47	0xbd74ce3c	-0.059766993
48	0x3b62da71	0.0034615065
49	0xbd0b5306	-0.034014724
50	0x3d39a5fa	0.045324303
51	0x3ccc592c	0.024944864
52	0xbd4ad405	-0.049518604
53	0xbd67d7ea	-0.056602396
54	0xbd64c4bf	-0.055851694
55	0x3c593c9e	0.013259081
56	0x3d921fbd	0.0713496
57	0x3d9d533a	0.0768189
58	0xbdc4f259	-0.09616537
59	0x3ca85788	0.02054955
60	0xbd931c68	-0.071831524
61	0xbd29fd7d	-0.04150151
62	0xbd3b9048	-0.045791894
63	0xbd0a2b52	-0.03373272
64	0xbda29380	-0.0793829
65	0x3d89b83b	0.06724592
66	0xbd1fbbba	-0.03899739
67	0x3b05397f	0.002032846
68	0x3c9f5d41	0.019453647
69	0x3d2dbb7a	0.04241512
70	0xbda7b3eb	-0.081886135
71	0x3be4b716	0.0069798334
72	0xbb83b81b	-0.00401975
73	0xbb3414c9	-0.002747821
74	0xbc170d56	-0.009219488
75	0xbc8111fb	-0.015755644
76	0xbc618693	-0.013764995
77	0xbdadac9a	-0.08480187
78	0x3d3dd8b5	0.046349246
79	0xbd9e6cbd	-0.07735584
80	0xbd4f9933	-0.05068321
81	0x3d058026	0.032592915
82	0x3c18769e	0.009305624
83	0xbc932cb3	-0.01796565
84	0xbd1b0928	-0.03785053
85	0x3d2f3388	0.042773753
86	0xbd364683	-0.04450084
87	0xbda46e29	-0.08028824
88	0x3d9cd73e	0.07658242
89	0x3da5c41b	0.08094045
90	0xbdb4acd9	-0.088220306
91	0x3d9300dc	0.07177898
92	0x3d237a41	0.039911512
93	0x3d4d75c8	0.050161153
94	0xbd41c55e	-0.047307365
95	0xbb6aae8f	-0.0035809611
96	0xbd5c4168	-0.053773314
97	0xbd686072	-0.056732602
98	0xbc5adb03	-0.0133578805
99	0x3bb72917	0.005589615
100	0xbc888cd6	-0.016668718
101	0x3bc98d6a	0.006150891
102	0x3c245205	0.010029321
103	0xbd898de6	-0.06716518
104	0x3d59437b	0.05304287
105	0x3d24c6e7	0.04022875
106	0xbd857d6b	-0.06518062
107	0xbc984425	-0.018587181
108	0x3d6f2335	0.058383185
109	0xbd87f33e	-0.06638192
110	0x3c648d3b	0.013949688
111	0xbd52bb80	-0.051448345
112	0xb9db1bdf	-0.000417917
113	0xbd82c249	-0.06384713
114	0xbc44bf3c	-0.012008484
115	0xbd543dde	-0.051816814
116	0xbd9e20ff	-0.07721137
117	0x3c26a9bd	0.010172305
118	0xbd88eb87	-0.06685548
119	0x3d6bcea1	0.057570104
120	0xbd51855d	-0.051152576
121	0xbccb3455	-0.024805227
122	0xbcfdcea8	-0.03098233
123	0xbd567f5d	-0.052367557
124	0xbc478cb5	-0.012179543
125	0x3d94ea48	0.07271248
126	0xbd963c4f	-0.07335722
127	0xbd8779ec	-0.066150516
128	0xbd7dd165	-0.061967272
129	0x3d2c07f3	0.04199977
130	0xbd3757ad	-0.04476135
131	0x3d3c68e8	0.045998484
132	0xbd7bcb26	-0.061473034
133	0x3d29b5ed	0.041433264
134	0xbc426670	-0.011865243
135	0x3d653abd	0.05596422
136	0x3daac2da	0.08337946
137	0xbd7c1d55	-0.06155141
138	0xbd6f557e	-0.05843114
139	0x3cf023fc	0.029314034
140	0xbd377258	-0.04478678
141	0xbb78c0de	-0.0037956755
142	0xbdb2677b	-0.087111436
143	0xbd22f11b	-0.039780717
144	0x3beb54e5	0.007181751
145	0xbdc82285	-0.09772209
146	0xbccff4fe	-0.025385376
147	0xbd6fa409	-0.058506045
148	0x3d7a3078	0.06108138
149	0x3d5d0a0d	0.053964663
150	0x3da5cdbc	0.08095881
151	0x3d865774	0.06559649
152	0xbd7f91cc	-0.062394902
153	0x3c806073	0.01567099
154	0xbcbe55bb	-0.023234239
155	0xbbeb16f4	-0.007174367
156	0xbdaee5b1	-0.08539904
157	0xbd42422f	-0.0474264
158	0xbdaec489	-0.0853358
159	0x3c9caeaf	0.019126264
160	0x3cef6ee0	0.029227674
161	0xbd8b7d24	-0.06810978
162	0x3c9af2b5	0.01891456
163	0x39a559df	0.00031538212
164	0xbc9faf59	-0.019492792
165	0x3d762393	0.06009252
166	0xbc11af9b	-0.008891965
167	0x3da7d857	0.081955604
168	0xbda38ed3	-0.07986226
169	0x3a456875	0.0007530519
170	0xbdc68a29	-0.09694321
171	0xbc0f4007	-0.008743293
172	0xbda90219	-0.08252353
173	0xbcca31c6	-0.024681937
174	0x3d8a8f4a	0.067656115
175	0xbd19218c	-0.03738551
176	0x3d96c845	0.07362417
177	0x3db8c762	0.09022404
178	0xbd9628c3	-0.073319934
179	0x3da3ac3c	0.079918355
180	0x3d541e97	0.051786985
181	0x3bf158cb	0.0073653213
182	0x3d72f44a	0.059315003
183	0xbd9129bb	-0.070880376
184	0xbc73a03e	-0.014869748
185	0x3b35c8b2	0.0027738032
186	0xbdc8ac8e	-0.09798537
187	0xbcfe8e0c	-0.031073593
188	0xbd617091	-0.055038992
189	0xbc81d6e9	-0.015849547
190	0x3d52fe06	0.051511787
191	0x3da3121e	0.0796244
192	0xbd4dc7eb	-0.050239485
193	0x3d5f4c06	0.05451586
194	0xbd8a537f	-0.06754207
195	0x3d646e6b	0.055769365
196	0x3ae109e7	0.0017169089
197	0x3d8cb394	0.06870189
198	0x3d36660b	0.04453091
199	0xbc922f5d	-0.01784485
200	0x3ce01cee	0.027357545
201	0x3db2e548	0.08735138
202	0x3d291e49	0.041288648
203	0xbc8db4cc	-0.017298125
204	0x3c646f10	0.013942495
205	0xbd7572bf	-0.059923884
206	0xbda66078	-0.08123869
207	0x3ccfb5a1	0.025355162
208	0xbd8d1921	-0.068895586
209	0x3d8c5f45	0.06854109
210	0x3da9b09c	0.08285639
211	0x3d83e274	0.06439677
212	0xbd6fbd1e	-0.058529966
213	0xbd80a7ec	-0.062820286
214	0x3d7d3df7	0.061826672
215	0x3d867f26	0.065672204
216	0xbdb15b09	-0.08659942
217	0x3cf88de5	0.030341098
218	0x3c238d61	0.009982438
219	0x3b30c37a	0.0026971982
220	0xbdc688a7	-0.09694033
221	0x3cbbccd1	0.022924813
222	0xbc1dc8cd	-0.009630394
223	0x3d33b958	0.04387793
224	0xbd0ad2d7	-0.03389248
225	0xbd99b994	-0.07506099
226	0x3ce708bb	0.028202405
227	0xbd8d3b7e	-0.06896113
228	0x3c679d6b	0.014136652
229	0x3d3f38eb	0.04668514
230	0xbd845ed9	-0.06463403
231	0x3d8e4acb	0.069478594
232	0xbc6fd903	-0.014639142
233	0xbc09c7ce	-0.008409454
234	0xbcfaa4dd	-0.030596191
235	0x3d985d22	0.07439639
236	0xbc08ee50	-0.008357599
237	0xbd8fed5f	-0.07027697
238	0x3d484ef5	0.048903424
239	0x3cb186d8	0.021670744
240	0xbd12e879	-0.035866234
241	0x3d6f3286	0.058397792
242	0xbc8cef74	-0.017204024
243	0x3c1a78d2	0.00942822
244	0xbcdfb4ba	-0.027307857
245	0x3d9f5f75	0.07781879
246	0xbc9c0241	-0.019044043
247	0x3cfdce7d	0.03098225
248	0x3d906d7a	0.07052131
249	0xbdb96b98	-0.09053725
250	0xbc978c22	-0.018499438
251	0xbd8d3b4f	-0.06896078
252	0x3d8c1400	0.06839752
253	0x3d164d2a	0.036694683
254	0xbbaee82f	-0.005337737
255	0x3c97db1d	0.018537099
