backend/ml_models/BA/model.pt (torch, 807686 bytes, 9 tensors)

lstm.weight_ih_l0 f4 [512, 5]
000000 26 c5 0b 3c 28 30 08 3c 63 dc 16 bd 48 91 4e 3d
       0.008530891 0.008312263 -0.03683127 0.05043152
000010 1b 24 b2 bd bd 2e b6 3d 1b 72 87 3d a5 ae 30 3d
       -0.08698293 0.08895633 0.06613561 0.043135304
000020 22 ed b5 3c 86 69 86 3c 10 38 d8 3d d9 eb 32 bd
       0.0222078 0.01640774 0.10557568 -0.043681953
000030 f2 42 99 3d a2 a9 76 3d d0 8a b1 bd 89 00 8c 3d
       0.07483472 0.06022037 -0.086690545 0.068360396
000040 ac 79 82 3c a9 9b b4 3d 19 42 a1 3d d3 8f 50 bd
       0.015927158 0.08818752 0.07873935 -0.05091841
000050 9e 5f 01 3d 97 81 d7 bc 1f e7 df bb 09 34 cd 3b
       0.03158533 -0.02630691 -0.0068329717 0.0062623066
000060 98 4f a0 bd 35 56 f5 bb 8c 78 31 bd e5 06 92 3d
       -0.07827681 -0.0074870833 -0.043327853 0.07130221
000070 0c 91 80 3d 62 81 b7 bd 67 61 47 3d a7 a2 85 3d
       0.062776655 -0.08960225 0.048676874 0.06525164
000080 f6 4d e9 3c 57 b6 55 3d 0e 5e c8 3c 70 75 95 3d
       0.028479557 0.052175846 0.024458911 0.0729779
000090 ac 8f 2c bb 3a 68 84 3b 2d 34 9c 3d e2 35 8b bd
       -0.0026330752 0.004040745 0.07627139 -0.06797387
0000a0 6b 8c fd bc 53 c4 82 bd b7 d3 6b 3d dd ef ba bb
       -0.030950746 -0.06385102 0.057574954 -0.0057048635
0000b0 d0 1f a6 bd 83 2f 66 bd 0b a0 a2 3d f1 e3 38 bc
       -0.081115365 -0.056197654 0.07940682 -0.011284814
0000c0 ce d4 d5 3c 9b 1e b2 ba 86 d1 c6 bc ea dd 60 3d
       0.02610245 -0.0013589443 -0.02426983 0.054899134
0000d0 a8 5f 13 bd 3e 00 43 bc 59 0a a9 bd a6 72 1b bc
       -0.035979897 -0.011901913 -0.08253927 -0.009487784
0000e0 f2 f6 8f 3d 6a e9 b2 3d 04 26 5f 3d 56 f1 1d bd
       0.07029523 0.087359264 0.054479614 -0.038560234
0000f0 7e 48 72 3d 3a fd a5 3d 89 26 bb 3d 46 61 34 bc
       0.059151165 0.0810494 0.091382094 -0.01100952
000100 06 84 a9 3b c1 f9 98 bd 6c ed c1 bc e4 9f b0 3c
       0.005173209 -0.07469512 -0.023672782 0.021560617
000110 24 a9 38 bd 55 ee a1 bc a2 5e 80 3d 21 48 49 bd
       -0.04508318 -0.019766966 0.0626805 -0.049141053
000120 02 19 f6 bc 79 83 7e 3d e9 69 6d 3d c8 be 15 3d
       -0.030041222 0.0621371 0.057962332 0.036558896
000130 1d ce 6a bc ae 3c cc bd 2b 67 c6 3c 3d 47 78 3d
       -0.014331368 -0.09972511 0.024219116 0.060614813
000140 60 11 01 bd da bc 62 bd da 28 59 3c ac 2a 23 3d
       -0.03151071 -0.055355884 0.013254369 0.039835617
000150 c9 0b f0 bc fd 00 1b 3c f1 22 7e 3d 7b 6b 0c bc
       -0.029302495 0.009460685 0.06204504 -0.008570547
000160 ec ec 03 bd 3b 27 f7 bc 82 c8 1b bc 80 c3 19 3e
       -0.03220837 -0.030170074 -0.009508254 0.15015984
000170 96 28 ec 3d 8d c5 f2 bc 29 89 09 3e f0 f4 ca bc
       0.11531179 -0.029635215 0.13431229 -0.024774998
000180 aa 18 7e 3d 34 46 46 3d ab 27 6e 3d 0a fb 2e bd
       0.06203524 0.048406795 0.0581433 -0.04271988
000190 c9 3b 63 3d a3 61 40 bd 3d 98 9e 3d dd 39 0d 3d
       0.055476937 -0.046968114 0.07743881 0.03447901
0001a0 9b e7 78 bd b5 ef 2c bd 5f 79 be 3d d8 dd 16 bd
       -0.06076775 -0.04222079 0.093004934 -0.03683266
0001b0 5f 36 c2 bc 8d f9 8a 3d 70 b9 49 bd c7 26 c2 3c
       -0.023707567 0.06785879 -0.049249113 0.023700131
0001c0 16 79 92 3d 10 ae 52 3d 73 7e e6 3d f5 b4 6d 3d
       0.071520016 0.05143553 0.11254587 0.058033902
0001d0 98 29 e8 3c c4 00 35 bd 09 80 af 3d 62 da 82 3d
       0.028340146 -0.044190183 0.08569343 0.063893095
0001e0 f6 a6 ae 3c f0 9c ec bb db bc 0a bd 9d 00 a1 3b
       0.021319848 -0.007220857 -0.033871513 0.004913403
0001f0 85 66 f7 bb 9e cd 42 bd 6d e6 46 bd b7 27 10 3d
       -0.007550063 -0.047559373 -0.048559595 0.035194125
000200 7b 31 8a bd f2 3b 67 bd 94 c3 f4 3d 2a 9b b3 3d
       -0.06747719 -0.056453653 0.11951366 0.087698296
000210 97 8a 4a 3d d6 05 98 bc 40 42 b4 3d a2 6a fd 3c
       0.049448576 -0.01855747 0.08801699 0.030934636
000220 fd 57 6e 3d 73 15 f2 3c c3 09 85 3d 0e eb 6b bd
       0.05818938 0.029551243 0.064960025 -0.057597212
000230 f9 ea 7a 3d 1d d5 b5 3d 52 1f 65 3c 59 a1 ee bc
       0.061259244 0.08878539 0.013984518 -0.029129671
000240 c7 90 d2 bc ce 3e 8b bc fa bb a5 3c 0b cd 84 3d
       -0.0257038 -0.016997721 0.020231236 0.06484421
000250 26 86 bf 3c bc 2a 00 3d 66 2d 10 bd e1 25 5c 3d
       0.023379397 0.031290755 -0.035199545 0.05374706
000260 84 c5 7b bd ee 04 3f bd f9 7f 02 3d 45 d0 0e ba
       -0.061467662 -0.04663556 0.031860325 -0.00054479047
000270 dd e0 b3 bc 2b 02 87 bd cf 28 77 3d 83 9c 38 3d
       -0.02195781 -0.065922104 0.060341652 0.045071136
000280 27 31 73 bc f3 76 6b bd c0 5f 12 3d 02 89 d6 3d
       -0.014843262 -0.057486486 0.035735846 0.10475351
000290 2f 5e 08 bd 92 a5 7b 3d 78 0e 42 bd 61 0e 53 bd
       -0.033292945 0.061437197 -0.04737708 -0.051527385
0002a0 74 4e 1c 3c f9 ad d8 3d 38 27 4b 3d 5e 70 16 3d
       0.009540189 0.10580058 0.04959795 0.036728255
0002b0 5a be 0e bd 12 91 a8 bc 72 d8 d4 bd 07 8e 67 bd
       -0.034849502 -0.020576987 -0.10392846 -0.056531932
0002c0 1b 74 9e 3d 61 27 e7 3c 7c ed 92 3c b2 b9 e7 bc
       0.07736989 0.02821702 0.017935507 -0.028286789
0002d0 47 4b c5 3b 15 ce bf 3d 78 bd 02 bc 48 3a 06 3c
       0.0060209366 0.09365479 -0.007979743 0.008192606
0002e0 0c 3a 48 3d 20 d5 f4 3c d6 c8 49 bc 6f a1 73 bd
       0.048883483 0.029886782 -0.012315949 -0.059480127
0002f0 2f e9 80 bd f8 09 97 3d e0 b2 37 bd 5e 7c bc 3d
       -0.06294476 0.07374948 -0.044848323 0.09203409
000300 63 78 f1 3d 4f 8d 8d 3d 40 2e 7a 3d e1 1c 39 3d
       0.1179054 0.06911718 0.061079264 0.045193557
000310 2c c0 27 bc 44 ae dd bc ab 10 d2 3c 59 61 c5 bd
       -0.010238688 -0.027060635 0.025642714 -0.09637708
000320 6b 08 da 3c 7c f2 63 3b 5d 60 9a bc 93 51 da 3d
       0.026615342 0.0034781983 -0.018844778 0.1066009
000330 81 11 9f bd 9e c8 16 bc 21 22 b1 3c d8 d4 8d 3d
       -0.077670105 -0.009203104 0.02162272 0.06925362
000340 74 af 58 3d f8 b0 98 bd b6 23 db 3a 0a 0d d2 3d
       0.0529017 -0.07455629 0.0016719017 0.10256393
000350 64 67 48 bd 0d 30 65 3c 8c ec 16 3c 79 56 75 3d
       -0.048926726 0.013988507 0.009211671 0.05989692
000360 02 ae be 3c f0 b0 d9 3c c0 81 d6 bc d2 f4 d2 bc
       0.023276333 0.026573628 -0.026184916 -0.025751505
000370 69 74 a5 3d 82 84 32 3d 64 6c 82 bd e0 c5 0f 3d
       0.08078844 0.0435834 -0.0636833 0.035100818
000380 d7 8b 80 3d 2d 11 8e 3d ea ba 22 bd 4f 6c 25 bd
       0.06276672 0.0693687 -0.039729036 -0.040386494
000390 74 c0 58 3c 2c 75 0d bd 48 6c 78 3d ec 82 94 b8
       0.013229478 -0.034535572 0.06065014 -7.081576e-05
0003a0 15 ab 29 bd 0a 56 6b 3d a6 ec 87 3c 00 ac 67 bd
       -0.041422922 0.0574551 0.016592335 -0.056560516
0003b0 ed 66 8c 3b fd e1 12 3c ba 47 43 bd 43 5a 05 bc
       0.0042847306 0.008965013 -0.047675826 -0.008139196
0003c0 c1 b8 59 3d c7 8e 67 3a 4f 0b f2 3c 62 fd be 3c
       0.05315471 0.0008833226 0.029546408 0.023314182
0003d0 c5 9d 8f 3c 90 36 c1 3c 75 c4 bf 3d df 20 b7 bb
       0.017531285 0.023585588 0.09363643 -0.0055886353
0003e0 a0 81 9e 3c 8f c2 3d 3d 55 e7 b0 3d 1b 6b 97 3c
       0.01934892 0.046328124 0.08637873 0.018483689
0003f0 27 a2 df 3d 72 48 5d 3d 26 dd ae bd d5 cd 87 3c
       0.109196 0.054024167 -0.085382745 0.01657764

lstm.weight_hh_l0 f4 [512, 128]
000000 c1 36 7e bc 3c aa 28 3d f1 42 91 3d 61 cc a8 bd
       -0.015515984 0.041177973 0.07092846 -0.08242107
000010 4c 34 8e 3d be ae 9b 3d 44 52 7a bd fd 6f 99 3d
       0.069435686 0.07601689 -0.06111361 0.07492063
000020 9d a9 5b 3b a8 9f ae bd c5 83 81 bd a8 2f 5d 3d
       0.0033517845 -0.08526546 -0.06323961 0.054000527
000030 82 d2 ab bd 36 e0 f2 3a 52 dd 2d bc fb f9 0f bc
       -0.083897606 0.0018529955 -0.010611849 -0.008787627
000040 0b 1e 0d bd 5c f6 f8 3b b9 60 84 bd c1 f9 a6 3c
       -0.03445248 0.0075977277 -0.06463761 0.020382764
000050 19 67 64 bd d2 88 fb ba 9a 7a e0 39 13 15 dc bc
       -0.055762384 -0.0019190556 0.00042815955 -0.026865518
000060 1d cb f9 bc 83 77 80 bd e7 a0 5f 3c cf 5b 78 bd
       -0.03049236 -0.06272795 0.013649202 -0.06063443
000070 2a 0a e8 bb 7f 9b a0 3d e7 71 1a bd cc 64 73 3c
       -0.00708129 0.078421585 -0.037706282 0.014855575
000080 3c 87 f4 bc 2b c2 e3 bc f0 ee 3b 3d a2 f8 3f 3d
       -0.029849641 -0.027802547 0.045882165 0.046867974
000090 54 05 7a 3d 3e 9a 81 3d 88 8a ad 3d 96 3f 0e bd
       0.061040238 0.063282475 0.08473688 -0.03472861
0000a0 c4 15 38 bc 8f 8b 8b 3d be 2a 54 3d e7 6a 96 bc
       -0.011235658 0.06813728 0.051798575 -0.018361522
0000b0 65 bb 6d 3d e9 83 dd 3c f2 14 f9 bc 7b 7b af 3d
       0.05804004 0.027040439 -0.030405495 0.08568474
0000c0 bf 81 3d bc 5c 1e aa bd 55 ea 2d bd 77 eb 77 bc
       -0.011566578 -0.08306572 -0.042459805 -0.015131823
0000d0 fd c4 02 3c 4f fc 2b 3d 53 2d 35 bd 48 5b 35 bd
       0.007981536 0.041988667 -0.044232678 -0.044276506
0000e0 73 78 90 3d 04 f8 8f bd 93 93 c2 bd 80 e7 8c 3d
       0.07054224 -0.07029727 -0.09500804 0.068800926
0000f0 3e b4 72 3d b6 9b 15 bd da 33 66 3d 52 a7 43 bd
       0.059253924 -0.03652545 0.056201793 -0.04776699
000100 56 25 22 bd e3 c1 99 3c 7e 07 fb 3c 06 e3 cf 3c
       -0.039586388 0.01876921 0.030643221 0.025376808
000110 88 7c a1 bc 8a 0f 93 3b f1 19 08 bd 37 ba 0c bd
       -0.019712701 0.0044879364 -0.033227865 -0.034357276
000120 ab cf 5e 3b 97 b6 92 3b bd a6 8e bd 97 9a 5e 3d
       0.0033998291 0.004477333 -0.069653966 0.054346647
000130 28 31 58 bd 76 37 40 bd f3 0c b2 bd df 42 e1 3c
       -0.052781254 -0.04692789 -0.08693876 0.027497707
000140 9a ea 68 3c 1b eb 2d 3c 65 04 0e 3d ec 6a 5b bd
       0.01421609 0.010615136 0.03467216 -0.053568766
000150 72 8e 2f bd 0b 4d 56 bc 49 d1 1b 3d 22 27 09 3d
       -0.042860456 -0.013079892 0.038041387 0.033484586
000160 7a 6d 1c bd 44 27 97 bd dc 36 1a bd b6 49 ea 3c
       -0.038190342 -0.07380536 -0.037649974 0.028599601
000170 e5 41 52 3b 64 ff 80 3c 45 92 a2 bc 5b 00 e6 bd
       0.0032082733 0.01574678 -0.019845137 -0.112305366
000180 b4 73 a9 bd ce 16 a3 3d 40 02 83 3d 4c ae 1c bd
       -0.08274022 0.07963334 0.063969135 -0.03825216
000190 27 da 8f 3d 84 5f fa 3c a3 20 d3 bc 54 f7 fb bc
       0.07024031 0.030563124 -0.025772398 -0.030757584
0001a0 b5 53 af bd cd e2 6b 3c 63 b4 91 3d c5 38 99 bc
       -0.08560888 0.014397335 0.07114484 -0.018703828
0001b0 d6 a5 85 bc c9 71 11 3d 11 d2 86 bd 3f 79 b3 bd
       -0.016314428 0.035508905 -0.06583036 -0.0876336
0001c0 8e e5 8c bd 47 bc ea bc 5c d6 2a bd 90 5d a5 3d
       -0.068797216 -0.02865423 -0.041708335 0.08074486
0001d0 19 01 2a 3d b8 b3 52 3d bd 65 95 3d ca 35 89 bd
       0.041504953 0.051440924 0.07294796 -0.066997126
0001e0 f1 cd 50 3c 87 8b 6d bd cd 4e 8a bd 15 96 59 bd
       0.012744413 -0.05799439 -0.06753311 -0.053121645
0001f0 bf a2 ab 3d 16 57 23 bd c1 86 c3 3d 45 b4 10 bd
       0.08380651 -0.039877973 0.09547187 -0.03532817
000200 d7 f3 49 bd ce cd 3c 3b a2 8f 8d bd a6 c8 85 bd
       -0.04930481 0.0028809193 -0.069121614 -0.06532411
000210 6a e6 08 3d b2 7c 7c 3d d5 61 74 bd c5 76 6f bd
       0.033422865 0.061642356 -0.059663612 -0.058462877
000220 6d d0 89 3d 0a c7 38 3d 62 5b 11 bd aa dd c6 3d
       0.06729207 0.045111693 -0.03548754 0.09710248
000230 e4 f7 be 3d d5 14 cc bc e3 f4 ad bb 94 ce 7c bd
       0.09324625 -0.024912277 -0.005308734 -0.061720446
000240 c1 c6 c2 3d 2c 6e b1 3d 11 e1 ab bd 21 d6 c4 3d
       0.095105655 0.08663592 -0.083925374 0.09611154
000250 8b e6 24 3d ac 95 c0 bd bc d1 c7 bd 3c 7c 72 bc
       0.040258925 -0.09403548 -0.097568005 -0.014800128
000260 b6 a5 ab bd f6 08 af bc 87 39 e3 bc f2 49 c9 3d
       -0.08381216 -0.021366578 -0.027737392 0.09828557
000270 66 17 67 bd 13 2e d7 bc d9 f8 bd 3b e5 72 17 bd
       -0.0564188 -0.026267087 0.005797487 -0.036974806
000280 a6 b3 8a 3d ac 95 97 3d cc 18 cc bc 78 e5 90 3d
       0.067725465 0.074015945 -0.024914168 0.07075018
000290 6b 68 a4 bc 50 18 3b bd 93 31 c7 bd 04 23 3d 3c
       -0.020069322 -0.045677483 -0.097262524 0.011543993
0002a0 0a 60 d3 bc 31 ee 05 bc af 43 a9 bd 58 59 ab 3d
       -0.02580263 -0.008174465 -0.08264863 0.0836665
0002b0 2a ae b8 bd bb 48 a4 3c 1f 55 d3 3c d3 cc 40 3d
       -0.09017594 0.020054212 0.025797425 0.047070336
0002c0 b7 07 a1 bc 0c 3f 54 bd d5 3d 75 3d 84 39 88 3d
       -0.019656999 -0.05181794 0.05987342 0.06651595
0002d0 45 81 ed bc 02 9b 15 3d 2c 4c fd bb 1e fd 39 3d
       -0.028992305 0.03652478 -0.0077300277 0.045407407
0002e0 4f 9b 8c 3d 77 eb 4c bd a4 04 87 bd aa 6e f8 3c
       0.0686556 -0.050029244 -0.06592682 0.030326206
0002f0 16 2c c6 3d 96 46 9b bd 03 d6 cf 3c a3 9d 9a bd
       0.096763775 -0.075818226 0.025370603 -0.07549598
000300 81 c8 8c 3c 92 53 31 bd 0a 40 22 bd b0 52 c6 3d
       0.017185451 -0.04329259 -0.039611854 0.0968374
000310 15 31 97 3d f7 db 45 bb ac 33 de 3c 18 1b 92 bd
       0.073824085 -0.0030190924 0.027124248 -0.07134074
000320 f3 48 f2 3c 79 45 60 bd dd 1b 8a bd f4 86 42 3d
       0.0295758 -0.054753754 -0.06743596 0.047491983
000330 0b 90 1b 3d 1d fd c2 3c 04 b8 4e bc 71 22 2d 39
       0.037979167 0.023802334 -0.012617115 0.00016511396
000340 14 eb 5e 3d fe 57 6d 3c 9c 01 80 bd 5e 27 03 bd
       0.054423407 0.014486311 -0.06250307 -0.032019965
000350 83 6b 35 3d 13 16 79 3d 70 3c 89 bb b9 55 93 bd
       0.044291984 0.060812067 -0.004188113 -0.07194085
000360 04 d6 cf bd d5 9a 18 bd f1 84 98 3d 31 49 81 3d
       -0.10148242 -0.037257034 0.074472316 0.06312788
000370 2c 23 a6 bd ba 03 85 bd 23 84 62 3d a0 87 0f bc
       -0.08112177 -0.064948514 0.055301797 -0.008760363
000380 97 9d 1f 3c 1a 04 4f bd 2d ea c0 3d 24 e5 3a bd
       0.009742162 -0.05054102 0.094196655 -0.04562868
000390 76 fc a4 3c ca a7 a5 bd 5e e6 8b bc 5b c3 40 3d
       0.020139914 -0.08088644 -0.017077621 0.047061305
0003a0 f3 2d 42 bd e6 3b 49 3d 38 d9 31 3d 62 b5 8f bd
       -0.0474071 0.04912939 0.043420047 -0.07017018
0003b0 40 cd 2f bd b8 a2 61 bd eb c5 c8 bb 40 13 e8 3c
       -0.04292035 -0.05508682 -0.0061271093 0.028329492
0003c0 c8 7d be 3c 1d 8a 38 bd 55 0f 8a bd 27 70 17 bd
       0.023253337 -0.04505359 -0.067412056 -0.03697219
0003d0 b9 cc 95 bd c0 23 8e bd 0b 90 1b bd f7 3e 8d 3d
       -0.073144384 -0.069404125 -0.037979167 0.06896775
0003e0 be 24 8e bc 99 73 85 bd c9 fe b6 3d 34 e9 78 3d
       -0.017351504 -0.06516189 0.08935315 0.060769275
0003f0 23 72 99 3d 3b 0a 6c 3d cd d5 8e bd 8d 9e 8f 3c
       0.07492473 0.057626944 -0.06974373 0.017531658

lstm.bias_ih_l0 f4 [512]
000000 63 11 90 bd 80 26 80 3c f6 51 70 3d 05 25 77 3d
       -0.07034566 0.015643358 0.058671914 0.06033804
000010 51 bd 08 3d e1 07 05 3c b4 0f bb bd 2f 7b 33 bd
       0.03338367 0.008119554 -0.091338545 -0.04381865
000020 32 26 72 bd 7b 4f b7 3d 2c 17 81 3d 8c 81 06 bd
       -0.059118457 0.089507066 0.06303248 -0.03283839
000030 14 eb 27 3d 4d 64 a3 bc a2 3d 55 3d 3e 66 ed bc
       0.040995672 -0.019945288 0.05206073 -0.028979417
000040 0c 1f f0 3c e3 84 06 3d 6f ec 2f 3e 56 10 a4 3d
       0.02931168 0.032841574 0.17180036 0.08010928
000050 1e 3b d3 3c 2c 5a b5 3d cb 2b 0d bd 84 ac 12 bd
       0.025785025 0.088550895 -0.034465592 -0.035809055
000060 ba 89 92 bd 60 c5 45 bc 9a 79 07 3e 92 e2 4b 3d
       -0.071551755 -0.012070984 0.13229981 0.04977662
000070 37 00 24 3d 29 9e 85 bd 88 11 88 bd 13 97 88 3d
       0.040039267 -0.06524307 -0.06643969 0.0666944
000080 29 83 24 3d 05 36 4b bd 1e 41 00 bd 77 42 5b bd
       0.040164147 -0.049612064 -0.0313121 -0.053530183
000090 c9 a5 e3 3c 7c e5 cf 3d 04 24 54 bd 20 4f 91 3c
       0.027789013 0.101511925 -0.05179216 0.017737925
0000a0 cb 5f e5 bc 32 1a cc bc 1d 96 45 bd c9 53 93 3b
       -0.02799978 -0.024914835 -0.048238862 0.004496072
0000b0 b9 6c 27 bd 1c 69 b3 3d 61 e6 a1 bc 2e a9 8a bd
       -0.04087517 0.087602824 -0.019763174 -0.0677055
0000c0 5e 98 04 3c 3d 9a 0d bd cc 0e 14 bd b3 2a 84 bd
       0.008092968 -0.03457092 -0.036146924 -0.06453457
0000d0 ad 40 7c 3d 77 fe ac 3c e1 2e ed bc d4 eb 82 3d
       0.061585117 0.021117432 -0.028953018 0.06392637
0000e0 81 11 56 3d d2 97 ac bd 4d 24 55 3d c8 06 82 3a
       0.052262787 -0.08427395 0.052036572 0.0009920234
0000f0 e9 ff 83 3d 1f 85 40 3d 04 dd 3f 3d 35 22 9b 3d
       0.06445295 0.047001954 0.046841636 0.07574884
000100 04 81 17 3d 37 90 33 b9 e0 43 22 3c b6 8f 13 3d
       0.036988273 -0.00017124494 0.009903878 0.036025725
000110 ab 5e af 3c 3d f6 5f bd 49 32 de 3c e6 2b 9b bd
       0.021407446 -0.05467819 0.027123587 -0.07576732
000120 40 67 51 bd ab d1 32 3c 6f 80 09 3d 54 ba c3 bc
       -0.051123857 0.010914247 0.03356975 -0.02389256
000130 a1 47 8c 3d d1 72 6e bd d8 b4 74 bd 49 ce 83 3d
       0.068496 -0.058214966 -0.05974278 0.0643583
000140 07 40 66 bd ff e4 1f 3e 90 8f f1 bc a8 bd dc 3c
       -0.056213405 0.15614699 -0.029487401 0.026945904
000150 d8 35 b0 3b 84 09 87 3d f6 0f 8b 3d 4e fb ac bc
       0.0053775124 0.06593612 0.06790154 -0.021115925
000160 4a 56 95 3d 4f a6 6b bd 83 3a 73 bd a5 14 ae bd
       0.07291849 -0.05753165 -0.059381973 -0.085000314
000170 3a 13 60 bc dd e6 4b 3d 04 df c3 3b 33 a7 0e 3d
       -0.013676459 0.049780715 0.0059775133 0.034827422
000180 f8 70 e9 bc 39 24 08 bd bf 56 8d bd 33 7d aa 3d
       -0.02849625 -0.03323767 -0.06901311 0.08324661
000190 b6 7e a7 3d 6b 53 a6 39 9a 55 58 3d 1d aa 41 bc
       0.08178465 0.00031724139 0.05281601 -0.011820343
0001a0 83 85 e6 bc 06 e5 94 bd 97 02 56 bd be 1c 6e 3c
       -0.028139835 -0.07270245 -0.052248564 0.01453322
0001b0 56 1e 05 bd c4 6c 7c 3d e4 5b 86 bd 06 b8 55 bd
       -0.032499634 0.061627164 -0.065604955 -0.05217745
0001c0 e1 69 2f bd fe 61 e7 3c d4 dc dc bc c1 6f 9e 3d
       -0.042825583 0.028244969 -0.026960768 0.07736159
0001d0 66 ab 40 3c 7c 93 8f bd ff 07 89 bd a4 23 46 bd
       0.011759615 -0.07010552 -0.06690978 -0.048373833
0001e0 e8 23 2c bc 32 07 92 bd b1 c9 fb 3c 85 cd 4a 3d
       -0.010506608 -0.07130279 0.030735822 0.049512405
0001f0 f9 06 ac 3d ad 95 b3 3d 36 ec c5 3d 0e f7 19 3d
       0.083997674 0.08768783 0.09664194 0.037589125
000200 8f da 53 bb b8 bb 82 bd 10 54 9d 3c 98 bf aa bd
       -0.0032326316 -0.06383461 0.019205123 -0.08337325
000210 74 8d c8 bc d3 81 ad bc 65 b8 54 bd fb 7d 40 3c
       -0.024481513 -0.02118007 -0.051933665 0.011748786
000220 72 8e 77 3d 88 40 82 3d b5 ff 4b bb 19 8f 99 3c
       0.06043858 0.063599646 -0.0031127755 0.018744992
000230 34 0e 9b 3d 9c 7f df bc 57 63 40 3d b6 05 a5 3c
       0.075710684 -0.027282529 0.046969738 0.020144325
000240 66 2f 6b 3d c4 ea 5d 3b 7f 9d 37 3d e8 aa a6 bd
       0.05741825 0.0033861855 0.044827934 -0.081380665
000250 6d 8e 84 3d 01 e4 78 3d 1e 3c a1 3c 8c 08 91 bb
       0.06472478 0.060764316 0.019681986 -0.0044260677
000260 98 b8 9d 3d bd 3d cb bc 6c b7 9c 3b de f1 79 3c
       0.07701224 -0.024809713 0.004782608 0.01525542
000270 ba 73 38 bd eb 60 fa 3b 95 9d 3d 3c 8b 64 9d bd
       -0.04503224 0.007640948 0.011573215 -0.07685193
000280 a4 7c c1 3c ed 8a 87 bd d4 ab 28 bc 38 8c 0b 3d
       0.023619004 -0.06618295 -0.010294873 0.03406927
000290 8a 14 91 bd 11 56 95 3d 9e bc 65 bd 2c ce c4 bd
       -0.07083996 0.072918065 -0.056088082 -0.09609637
0002a0 cc 2c 9c 3d 96 3c 58 bd 93 30 90 39 f3 a5 45 bd
       0.07625732 -0.052792154 0.0002750201 -0.048253965
0002b0 7c 4a cc 3b 6b a2 26 bc f0 04 19 3c 88 8f 6b bd
       0.006234465 -0.010170559 0.009339556 -0.05750993
0002c0 df 94 9d 3b 85 6b 24 bd 6d 5e 72 3c c3 62 c7 bc
       0.0048090066 -0.0401416 0.014793021 -0.024339085
0002d0 6a 9e ba 3c 5a 83 a2 bd f4 3e f0 bb de 9e 9a bd
       0.022780616 -0.079352096 -0.0073317233 -0.07549833
0002e0 be 0c 91 3d 5b c0 77 bd 8b 8f 6c 3d 9c b7 c0 3d
       0.070825085 -0.06048618 0.05775408 0.09410021
0002f0 c2 56 a5 bc 51 70 5c bd 71 7e 81 3d d3 24 26 3b
       -0.02018297 -0.05381805 0.06322945 0.0025351539
000300 b3 8f 96 bc b9 99 5b bd 59 b8 11 bd 55 7f 40 bd
       -0.018379068 -0.0536134 -0.0355762 -0.046996433
000310 25 c0 90 bd 25 30 9d 3d 8b 23 a5 3d 53 5d 8f bd
       -0.07067899 0.076751985 0.0806342 -0.07000222
000320 14 e3 fd bc 7e 26 93 3b e1 38 ca bc 86 49 5a bc
       -0.030992068 0.0044906726 -0.024685325 -0.013323193
000330 98 de 46 bd bc 72 47 3d b2 93 84 bd 25 64 92 3d
       -0.048552126 0.048693404 -0.06473483 0.07148007
000340 64 7a a9 3d ac 61 24 bc ee 4b c5 bd 1a a4 a9 bc
       0.08275297 -0.010033052 -0.09633623 -0.020708133
000350 2e ce 0f bd 96 27 09 3d 3d a2 8a bd cf 6d 1e bd
       -0.035108738 0.033485018 -0.06769226 -0.03867894
000360 d3 4e 86 bd 99 e5 82 bd a5 a3 07 bc da 30 b5 bd
       -0.06558003 -0.063914485 -0.008278762 -0.08847208
000370 bf fe 3f bd 13 e1 87 3d 87 74 a1 bd bd 4e 59 bd
       -0.046873804 0.066347264 -0.07883554 -0.053053606
000380 e3 05 80 3c df 35 c0 3c 1b 60 5e 3d d6 df 36 3d
       0.015627807 0.023463188 0.054290872 0.04464706
000390 c2 60 ae bc ac 7a a1 bd e0 af ff bc f9 62 97 bd
       -0.021286372 -0.07884726 -0.031211793 -0.073919244
0003a0 cb 8b 5e bd 35 5d b3 bc 03 b0 9e 3d ce 12 27 bd
       -0.054332536 -0.02189503 0.07748415 -0.040789418
0003b0 a2 54 6a bb 69 53 91 3d cb fb 2d 3d 32 f6 bd 3c
       -0.0035756011 0.07095987 0.042476457 0.023188684
0003c0 04 d6 1d bc 90 2e 6f bd 7a f8 df 3c 79 28 2e 3d
       -0.009633545 -0.058394015 0.027340163 0.042519066
0003d0 5c de ae bc 19 66 a4 bd a9 c7 23 3d d5 39 66 bd
       -0.021346264 -0.08027286 0.039985333 -0.056207497
0003e0 eb 07 90 3c 52 c1 9a 3c 70 21 3f 3d e8 fe 42 bd
       0.0175819 0.01889101 0.046662748 -0.04760638
0003f0 0b 08 2d bd e4 05 77 bd b2 a2 8e 3d 31 8e 88 3c
       -0.042244 -0.060308352 0.069646254 0.016669365

lstm.bias_hh_l0 f4 [512]
000000 d8 74 6b 3d 02 c7 a7 bb 19 61 8b 3d 0b cd 8b bd
       0.057484478 -0.005120159 0.06805629 -0.06826218
000010 8d fb a1 3d 93 0d 70 3d 19 c3 35 3c 78 1b 76 3b
       0.07909308 0.058606695 0.011093878 0.0037552994
000020 29 30 2e 3d fb 0d df ba f0 e1 16 bd 52 72 c3 3d
       0.042526398 -0.0017017716 -0.036836565 0.09543289
000030 e5 84 c3 3d 40 04 8e 3c 3e 35 80 bd 67 93 a9 bd
       0.09546832 0.017336011 -0.06260155 -0.08280068
000040 27 d0 5c bb 86 d8 6f 3d 9b 80 2a 3e f0 0a 13 3d
       -0.0033693404 0.058556102 0.16650622 0.035899103
000050 8e 99 9e bd 70 76 9f 3d b5 00 d0 3d ff 5a 15 bd
       -0.07744132 0.07786262 0.10156385 -0.036463734
000060 47 cf b7 bc 94 1e 31 3d 7b fb 45 3e e2 09 71 3d
       -0.022437705 0.043242052 0.19334213 0.058847316
000070 8e 8c 4a 3c 71 27 d6 3c 5a e8 96 bd d7 3f c4 3c
       0.012362612 0.026141854 -0.07368536 0.023956222
000080 6c df 5f 3c 18 1b b4 3d de 90 29 3d ef fe 04 3d
       0.013664108 0.0879423 0.04139792 0.032469686
000090 1c 5b 80 bb 20 08 c1 3d ce 49 30 3d e1 0f 88 bc
       -0.003917111 0.09425378 0.043039136 -0.016609134
0000a0 fb ce 9d 3a b0 e6 6e bd 60 ea 48 bd dc 46 c5 bd
       0.0012039834 -0.05832547 -0.049051642 -0.09632656
0000b0 1b 74 8e 3b bd af ee bc d0 8c 1a 3d 42 b9 86 bd
       0.004347337 -0.029136533 0.037731946 -0.06578304
0000c0 07 e4 5d 3d a8 97 75 bd bf fe 62 3d 15 14 3b 3d
       0.054172542 -0.059959084 0.055418726 0.04567345
0000d0 c5 26 57 bc a7 27 8b bd 86 81 3b 3d 3c 4c f9 bc
       -0.013131802 -0.067946725 0.04577782 -0.03043186
0000e0 5d 90 a0 3d f7 c6 4a 3d 69 fb a8 3d 4d 25 9c 3b
       0.07840035 0.049506154 0.08251078 0.004765189
0000f0 b7 91 0f bd aa 5f ec 3c 51 39 c3 3c f0 a4 3d 3b
       -0.035051074 0.02885421 0.023831042 0.0028937422
000100 c9 d1 b5 3c 8a 06 0a 3d 3a a5 17 3d 52 d8 86 bd
       0.02219476 0.033697642 0.037022807 -0.065842286
000110 cc 23 2b 3c ca a9 82 3d ba 91 ad 3d c9 11 23 bb
       0.010445546 0.06380041 0.08475061 -0.0024882427
000120 7d 50 3d bc 45 1d 8f 3d 20 1e 5d 3c b7 0b 0c 3d
       -0.011554834 0.069880046 0.013495952 0.03419086
000130 c5 9f 69 3d 12 6c b9 3d 57 35 1c 3d ae 6e 9e 3d
       0.057037134 0.09053816 0.038136806 0.07735954
000140 00 ad bf 3a 2e 3f 6f 3d 54 4e 41 bd 6f af ab 3c
       0.0014623702 0.058409862 -0.04719384 0.020957677
000150 7c 9c a8 bb 5d 56 6e 3d 17 f4 9d bd 3c 4a c2 bd
       -0.0051456075 0.05818783 -0.07712572 -0.09486815
000160 24 b0 64 bc 66 28 ae bc 2c 30 c0 3d 15 75 9e 3d
       -0.013958011 -0.021259498 0.09384188 0.077371754
000170 0a bb 8f bd b6 06 1d bd dd 7c 9f 3d 62 71 ce 3d
       -0.07018097 -0.03833648 0.07787488 0.1008022
000180 a2 81 19 bd 63 67 f7 3c c2 b9 f5 3c 81 14 44 bd
       -0.037477143 0.030200666 0.029995803 -0.047871117
000190 34 be c0 3d ad 09 a5 3d c6 e7 a5 3c 1d 1c 63 3b
       0.09411278 0.08058486 0.02025212 0.0034654208
0001a0 bf fd 8d bb 99 31 78 bd 3f a0 54 3d 01 f8 08 3d
       -0.0043332274 -0.060594175 0.051910635 0.03343964
0001b0 95 27 b6 bd 82 05 87 3d bc 61 d5 bc 89 d6 b0 bd
       -0.088942684 0.065928474 -0.02604758 -0.08634669
0001c0 51 46 5d bd 99 a8 a9 3c 3d e8 40 bd e3 29 00 3d
       -0.054022137 0.020710276 -0.04709648 0.031289946
0001d0 2d af b6 3d bc a9 54 3d 88 92 06 3c 85 74 88 bd
       0.08920131 0.051919684 0.008213647 -0.06662849
0001e0 9e f0 a5 bd c6 6d 45 3d e2 8f 15 3d 15 40 59 3c
       -0.08102535 0.04820039 0.03651417 0.013259907
0001f0 ca 11 4f bd 5d df 6a bd 55 1e 3d bc 9f 00 a4 bc
       -0.050554074 -0.057341922 -0.011542876 -0.020019827
000200 1c 28 7e bc 7b fb 8b bc cc d3 1c bd 61 4f 9c 3d
       -0.0155124925 -0.017087689 -0.038287923 0.07632328
000210 56 cd af bc d0 59 a5 bd 36 2d 1c bd e5 c8 74 bb
       -0.021460216 -0.08073771 -0.038129054 -0.0037351188
000220 21 49 78 3d 0c dc 20 bd 33 d4 c4 bc 61 0c da bb
       0.060616616 -0.039272353 -0.024026966 -0.0066543077
000230 cd 83 5a 3d d9 57 9b bb f9 20 30 bd aa db 84 bd
       0.05334835 -0.004740697 -0.043000195 -0.0648721
000240 7b b4 18 3d 1b 21 46 bd a5 30 e0 3c c8 e5 57 bd
       0.037281495 -0.048371416 0.027366946 -0.05270937
000250 05 64 8e 3c e3 c8 c2 3c 92 fe 90 3d a3 87 a2 bd
       0.017381677 0.02377743 0.070798054 -0.07936027
000260 b6 35 38 3d 25 31 a8 3d 91 18 9b 3c 98 ca a5 3d
       0.044973098 0.082124986 0.018932613 0.08095282
000270 2d d2 24 3d 76 e0 ae 3d 20 7e 4d bd 30 ad 14 3c
       0.0402395 0.08538906 -0.05016911 0.009074494
000280 72 98 5b bd 11 f5 81 bd 02 a1 8b bd e2 f3 a5 bd
       -0.05361218 -0.06345571 -0.06817819 -0.081031576
000290 ec 07 83 bd bd 07 99 3d d9 00 81 3d cc d1 9d bb
       -0.06397995 0.07472179 0.0629899 -0.0048162695
0002a0 94 76 a1 3d 44 51 93 3d 4b 20 05 3d 8b 5d 83 3d
       0.07883945 0.071932346 0.0325015 0.06414326
0002b0 4d e6 9d bd ed 31 3c 3c 2c 30 90 bd 0a 1b 77 bd
       -0.07709942 0.011486513 -0.07040438 -0.06032852
0002c0 0d 45 08 bd fa 9c 41 bc ad 96 fe 3c ac 65 0d bd
       -0.033268977 -0.011817211 0.031077707 -0.03452079
0002d0 b5 73 21 3d 87 46 b2 bd 93 a1 34 bd 36 a7 85 bd
       0.039416987 -0.08704858 -0.0440994 -0.065260336
0002e0 2e 20 b5 3d c4 2c c8 3c 3d 8a c4 bd f6 f1 57 bd
       0.088440284 0.024435408 -0.09596679 -0.052720986
0002f0 92 03 01 bd e6 1e 32 bd 94 77 53 bd 40 52 8c 3d
       -0.031497546 -0.0434865 -0.05162771 0.068516254
000300 6a 3d 1c 3b 44 d4 91 bd 3a 41 34 3d f3 3d 76 bd
       0.0023840317 -0.071205646 0.044007517 -0.060117673
000310 86 7c 22 bd b5 ec 58 bc 58 f6 ac 3b 79 5c 37 bd
       -0.039669536 -0.013240029 0.00527839 -0.044765923
000320 09 7e 64 bc 11 af 60 bc f3 1e 9e bd 7c f3 65 3d
       -0.013946065 -0.013713614 -0.07720747 0.056140408
000330 a4 fa 32 bc 31 c5 97 3c 58 e7 a3 bd 8b 07 97 bc
       -0.010924015 0.018526645 -0.0800311 -0.018436214
000340 55 9f 12 bd 41 37 16 bd 79 e2 58 bb f9 24 90 3d
       -0.035796482 -0.036673788 -0.0033093973 0.07038302
000350 5d 25 91 bd c6 30 02 bd 14 57 98 bd 0b 35 60 bd
       -0.070872046 -0.031784795 -0.07438484 -0.054738086
000360 87 1d fe bc 19 2f 6b bd 04 24 80 bc 66 82 b2 3c
       -0.03101994 -0.057417963 -0.015642174 0.021790694
000370 9f c3 b1 bd 6f a2 fe bc b1 b8 9a bb 5c 9f 84 3d
       -0.0867989 -0.031083314 -0.004721724 0.06475708
000380 48 0f 3c bd 54 e2 1e 3d 20 f1 8f 3d 58 cc a0 bb
       -0.04591301 0.038790062 0.07028413 -0.004907172
000390 80 8a ff 3c 0c 02 17 bc 2f 7f 42 bd f4 57 35 3d
       0.031193972 -0.009216797 -0.047484573 0.04427333
0003a0 ca 95 49 bd be c3 13 bd 8b 50 28 3d ac e7 89 bc
       -0.049215116 -0.036075346 0.041092437 -0.016834103
0003b0 34 db 97 bc 0c 84 84 bd 59 28 b2 3c 0d 8f 3d bd
       -0.018537141 -0.064704984 0.021747755 -0.046279002
0003c0 16 63 e2 3b dd fa 83 3d c5 28 c5 bb 4d b1 fa bc
       0.0069087846 0.06444333 -0.006016823 -0.030602122
0003d0 7e b5 77 bc 1c 2b a9 bd a8 c8 1b bd 49 e7 44 bd
       -0.015118955 -0.082601756 -0.038033158 -0.048072133
0003e0 52 d6 a5 3c 21 cc 07 3d 6f 93 9c bc bf 61 e0 3c
       0.020243797 0.033153657 -0.01911327 0.027390359
0003f0 7f 0a 73 ba 95 09 b4 3d ef b8 1e bd 63 ab 99 3d
       -0.00092712784 0.0879089 -0.038750585 0.075033925

lstm.weight_ih_l1 f4 [512, 128]
000000 f5 06 be bc 69 41 89 3c 23 6e 2d bd e5 7f 76 bd
       -0.023196677 0.016754823 -0.042341363 -0.060180563
000010 46 93 2e 3d 3c 2e 17 bd 00 69 96 bd d3 dd 82 3d
       0.04262092 -0.036909327 -0.07344246 0.06389966
000020 ce a6 c2 3d 8b 5b 39 3c 9f 0b d4 bc f2 1d 64 3b
       0.09504472 0.011313329 -0.025884448 0.0034807888
000030 f2 1e c5 bd aa 93 73 bd c3 99 67 3d 1e 61 f2 3c
       -0.09625043 -0.059466995 0.056543123 0.029587325
000040 78 c6 20 3d 3d 90 37 3d 33 88 0e 3d 23 15 49 3d
       0.039251775 0.04481529 0.03479786 0.049092423
000050 48 62 22 3d 99 02 0f bc 0e 01 0c 3d 8a 33 0c 3d
       0.03964451 -0.008728647 0.034180693 0.03422884
000060 36 28 10 3d 8b 5a 51 bd e0 bb 8c bd 5a 51 2d 3d
       0.0351946 -0.05111174 -0.06871772 0.04231391
000070 28 ef cb bd e9 3a 3c bd 1a 7b 76 3d a1 06 51 bd
       -0.09957725 -0.04595462 0.060175993 -0.051031712
000080 0f 8e 8a bc f8 03 ea bb c4 24 6c bd 21 bb b4 bd
       -0.016913442 -0.0071415864 -0.05765225 -0.088247545
000090 6a ee 9a bd 2c d5 b6 bc b5 08 2e bc 36 1b 9c 3b
       -0.07565005 -0.022318445 -0.010622193 0.004763986
0000a0 b2 6d 4b 3d 57 13 78 bc 21 c8 10 3d 93 7d da bb
       0.04966516 -0.01514133 0.035347108 -0.0066678016
0000b0 bf 34 12 3d 28 aa 65 3b 8f 6f 15 3c db a5 79 3d
       0.035694834 0.0035044048 0.009120836 0.060949188
0000c0 f2 b5 e0 3c ff a5 28 bd 8b fa 9b 3d a4 18 eb 3c
       0.027430508 -0.04117393 0.07616147 0.028698273
0000d0 ed 31 34 bd 83 63 0d bd dd 25 87 3d 43 3c ba 3d
       -0.043992925 -0.03451873 0.06599019 0.09093525
0000e0 02 02 b5 3d e2 11 80 3d 5f d6 8d 3d b8 3d 46 bd
       0.088382736 0.06253411 0.06925654 -0.048398703
0000f0 63 93 b9 bc 79 01 88 3d ff 12 45 bd 85 4f db 3b
       -0.022653287 0.06640906 -0.04811382 0.006692829
000100 6d 8f 8c 3d 85 93 9b 3d 96 7b 94 bd ab ef 89 bd
       0.06863294 0.075964965 -0.07250135 -0.06735166
000110 e1 e7 8e bc 46 d1 6a bd 41 67 13 bd 11 6a 26 3d
       -0.017444553 -0.057328485 -0.035987142 0.040628497
000120 32 f6 e8 3b 0f 8f a6 bd ee 7d 49 3c 2f 2d f3 3b
       0.007109427 -0.08132755 0.01229809 0.007421158
000130 29 3c 1d bd df 16 4b bd 86 7a 44 3d d1 74 d5 3c
       -0.03838745 -0.04958236 0.04796841 0.026056679
000140 7f 56 06 bd a1 e1 de bc 0f 77 34 3d 25 85 90 bd
       -0.032797333 -0.027207198 0.044058856 -0.07056645
000150 f9 ed 93 3b 47 60 b8 bd 24 26 98 bd fa da b3 3b
       0.0045144525 -0.090027384 -0.0742915 0.0054887505
000160 ec 7b 6c 3d 60 ef 5e bd d6 f9 07 3d 95 dd 72 bc
       0.05773537 -0.054427505 0.033197246 -0.014823337
000170 31 95 89 bc bb 5e 47 3d 06 b3 8e 3b 2a 6a b4 bb
       -0.016794773 0.048674326 0.0043548374 -0.00550582
000180 0d c3 a8 bb 41 53 f0 bc 05 b3 25 3d e6 4d 7b 3d
       -0.005150205 -0.029336574 0.04045393 0.061353587
000190 e6 7c 9b bd 9d ec a5 3d 2f 64 75 3d fc 1a b1 3d
       -0.07592182 0.08101771 0.059909996 0.08647725
0001a0 6d c1 c3 3d 81 d8 97 bd d6 ad 22 3d 12 4f 4a bc
       0.095583774 -0.07414342 0.039716564 -0.012347953
0001b0 ea ae ef 3b 47 d3 55 3c a5 bb 52 bd 31 ba 87 3d
       0.0073145526 0.013050861 -0.051448483 0.0662731
0001c0 b0 5e 9f bd 37 f2 5d bc 12 a1 8d 3d 09 75 00 bd
       -0.07781732 -0.013546518 0.06915487 -0.031361613
0001d0 15 01 04 3b c4 dc a8 3d e9 30 c8 bb 98 e1 3e 3d
       0.0020142247 0.08245233 -0.006109346 0.04660186
0001e0 e3 75 d6 bc ae 57 29 3d 28 4e 66 3d 0b f3 36 bd
       -0.02617926 0.041343383 0.05622688 -0.044665378
0001f0 d3 1d 9c bd 71 70 30 ba b1 1a 14 bd 54 1b af bd
       -0.07622876 -0.0006730622 -0.036158267 -0.08550134
000200 f9 4e a4 3c e4 0a a8 3c c0 a6 33 bd 7b 03 bf 3b
       0.020057188 0.020513006 -0.043860197 0.0058292723
000210 51 26 ef bc da a1 9b 3c 15 6d 85 3d ef 9e 61 bd
       -0.029193075 0.018998075 0.06514946 -0.05508321
000220 17 67 a0 bc a1 f6 ac bd 2f d3 9b 3d e4 40 1e 3d
       -0.019580407 -0.08445478 0.076086394 0.038636103
000230 16 37 0c 3d 95 b6 a8 3d 1f ef d3 3d 52 8e 89 bd
       0.03423222 0.0823795 0.10348343 -0.067165986
000240 3f 78 48 3d 92 41 5b 3d 49 cf 0e bd 34 31 cd 3d
       0.0489428 0.05352933 -0.03486565 0.100191504
000250 a4 4c ab 3d b5 95 4b 3c 95 55 8b bb 89 dc c1 3d
       0.083642274 0.01242583 -0.0042521455 0.09465892
000260 f0 24 81 3d 97 3d 55 bc 0c f8 19 3e 29 97 87 bd
       0.063058734 -0.013015172 0.15036029 -0.066206284
000270 26 4c 50 3d f8 ce d5 bd bd 9f 96 bd 79 09 69 3d
       0.05085387 -0.10439867 -0.073546864 0.0568938
000280 fa a7 4a 3d 1c c3 0e bd 7e 6d 5d bd 71 29 1b bd
       0.0494766 -0.03485404 -0.054059498 -0.03788132
000290 59 b0 a0 3c ab 72 95 3d 2b 9f 01 bd bf 58 83 3d
       0.01961534 0.07297262 -0.031645935 0.06413411
0002a0 ee b7 3b bb 35 17 fa 3c 42 ee 10 bd 8b 32 75 3c
       -0.0028643566 0.030528644 -0.03538347 0.014965664
0002b0 34 70 9b bc c6 e4 3b bd 47 5b 19 bc 93 c5 b0 bc
       -0.018974401 -0.045872472 -0.009360141 -0.021578586
0002c0 e7 51 1a 3d f1 9e 39 3c 45 62 84 3c 32 78 92 bd
       0.037675764 0.0113293985 0.01616014 -0.07151832
0002d0 e5 8d 62 3d 21 d4 38 bd 52 1c 12 3d 19 51 83 bd
       0.055311102 -0.045124177 0.03567154 -0.064119525
0002e0 bb 8a f3 3c ac cb e5 3c 3b 60 a3 bd 21 61 8d bd
       0.029729238 0.02805122 -0.07977339 -0.069032915
0002f0 02 41 d0 3d 6b 5a 56 3c d3 ce 20 bd 82 f8 ea bd
       0.10168649 0.013083081 -0.039259743 -0.1147318
000300 6b 20 60 3d c8 e6 1e 3d 68 95 b9 3b fe 94 f0 39
       0.054718416 0.03879431 0.0056635626 0.00045887375
000310 dd c5 8c b8 8a e3 3f bd d3 f6 b2 bc a9 6e 58 3d
       -6.712575e-05 -0.046847858 -0.02184621 0.05283991
000320 17 8d 36 3d ee f4 dd 3d 6c 0c 65 bd fe 3b b3 bc
       0.044568148 0.10837732 -0.05592005 -0.021879192
000330 46 67 28 3d 30 8e c8 bd b2 16 84 bd b7 f3 77 bd
       0.041114114 -0.09792745 -0.06449641 -0.06053516
000340 68 f8 e3 bc d6 c5 e0 3c 3d 6b 89 bc 35 ed 22 3d
       -0.02782841 0.027438086 -0.016774768 0.039777
000350 0c 84 81 3c 73 4d c9 3d c4 2b be 3c e6 fb aa bd
       0.015810035 0.098292254 0.023214228 -0.08348827
000360 2d ed 29 bc 6a 5b b7 3c 34 e4 bc 3d 70 47 ff 3c
       -0.0103714885 0.022382457 0.09223214 0.031161994
000370 9e 8b 1f 3d 20 e1 87 3d 70 46 09 3d 3e 31 f0 bd
       0.03895151 0.06634736 0.03351444 -0.11728142
000380 6e 50 88 bd f4 22 9c bd 01 c9 ce 3d ae 7a a2 3d
       -0.06655966 -0.07623854 0.10096932 0.079335555
000390 81 8c a7 3c 50 57 82 3d 75 0c 84 3a 37 ef 8c bd
       0.02045274 0.0636431 0.0010074513 -0.06881564
0003a0 28 7e 3c 3d 21 2f d5 bc 1f 4a de bb d0 d0 94 3c
       0.04601875 -0.02602345 -0.0067837383 0.018165976
0003b0 77 b2 c5 3c 57 a7 31 bd 9f 59 86 3d 1a d0 c7 bd
       0.02413295 -0.04337248 0.065600626 -0.09756489
0003c0 8f 7d 09 bc 8a 41 b5 bb 1b 09 92 bd bf b5 15 3d
       -0.008391752 -0.0055314945 -0.07130643 0.03655028
0003d0 04 a5 8a 3d 6c 0e bf 3c 02 27 2b bd d6 1b ce 3d
       0.067697555 0.023322307 -0.041785248 0.10063903
0003e0 d4 45 fa bc e1 7a 54 3c 5a 4e 76 3d e0 7a 89 bd
       -0.030550875 0.01296875 0.060133316 -0.0671289
0003f0 16 8b 0c bd f8 88 75 bd 22 27 8d 3d c6 de 35 bd
       -0.03431233 -0.059945077 0.068922296 -0.044401906

lstm.weight_hh_l1 f4 [512, 128]
000000 16 f8 4e 3d 76 90 b7 bd d2 05 c1 bd 51 d6 5e 3d
       0.050529562 -0.089631006 -0.09424938 0.054403607
000010 cd 4e 66 3c f7 83 9b bb 33 1e 60 bc 43 04 33 bd
       0.0140568735 -0.004745956 -0.013679075 -0.043705236
000020 a2 87 2d 3d d1 ca eb bc 37 c5 2d 3d 49 cd 04 bd
       0.042365678 -0.028783234 0.042424407 -0.032422338
000030 f0 2c 82 bc 87 28 4f 3d 5e 0e 97 3d 7b 79 ef bc
       -0.015890568 0.05057576 0.07375787 -0.029232731
000040 99 fe 5b bd c5 1e 51 bc 34 b3 8b bd c3 76 0f bd
       -0.0537096 -0.012763684 -0.0682129 -0.03502537
000050 02 e4 17 bc 0a 0e 5a bd 9a 18 03 3d 9e 12 ca 3c
       -0.00927067 -0.053236045 0.032005884 0.02466708
000060 9a 36 4c 3c 07 37 ab bd da 57 06 3d 3e d2 3d bd
       0.01246419 -0.08360105 0.032798626 -0.04634308
000070 1e 26 e4 3b 6f ad 52 3d 4c 32 bd 3d a2 f6 d4 bc
       0.0069625517 0.05143493 0.09238109 -0.02599651
000080 91 2e b0 3d d5 3a cb 3c 6c 18 a1 bd a2 fa ac bc
       0.08602632 0.024808327 -0.07865986 -0.021115605
000090 51 70 8c bd 34 ee b6 3c 13 2c bc bb b9 28 57 bd
       -0.0685736 0.022330381 -0.0057425587 -0.05252907
0000a0 70 70 13 39 06 8e 62 3d 26 29 c4 3d 07 65 4e bc
       0.00014060899 0.055311225 0.09578161 -0.012597329
0000b0 d6 f4 47 bb 44 43 6d bd c4 b0 07 3d 18 36 c7 bc
       -0.0030510924 -0.057925478 0.03312756 -0.024317786
0000c0 a6 1d 97 3d de 14 34 3d da 61 03 bd 61 44 90 3c
       0.07378702 0.043965213 -0.03207574 0.01761073
0000d0 6e 0a 99 3d 12 88 49 bd 6e 8f 25 bd d5 7e 24 bd
       0.074726924 -0.049202032 -0.04041999 -0.04016002
0000e0 9c 08 8d bd db 06 70 3c 33 66 4a 3d 1b 3e 99 3d
       -0.06886408 0.014650072 0.04941387 0.07482549
0000f0 ed f9 06 bd 9c 29 83 3d f4 db 7f 3d e9 a4 49 bd
       -0.03295319 0.06404421 0.062465623 -0.049229536
000100 5d bc 36 3d c1 54 98 3d fc 55 9b 3c 73 a7 86 bd
       0.04461323 0.074380405 0.018961899 -0.06574907
000110 57 eb f2 bc 5b d4 77 bd b8 27 c7 3b bf 9a b2 3d
       -0.029653234 -0.060505252 0.006077733 0.08720922
000120 ba 28 8f 3b 66 77 11 bc 6a 6e e0 3c ec 2b 42 bd
       0.0043688687 -0.008878564 0.0273964 -0.04740517
000130 60 89 86 bd a8 f1 85 bd 4e f9 fd 3c 86 59 9e 3c
       -0.06569171 -0.06540233 0.031002667 0.019329797
000140 8c bc 59 3d aa 3c 08 3d 1d 2c 73 bd 8d d1 d3 3d
       0.053158328 0.03326098 -0.05936824 0.10342703
000150 0f cf dc bc 5b 00 3b 3d 94 96 0f ba cc 09 95 bd
       -0.026954202 0.045654636 -0.0005477455 -0.07277259
000160 84 1a 03 3d c1 db 55 bd 87 1a 10 3c 29 45 d8 bb
       0.03200771 -0.052211527 0.008795387 -0.0066000414
000170 5f 6a 3b 3d d1 0a b4 bd a4 39 70 bd b1 fa 8b bd
       0.04575574 -0.087911256 -0.05864872 -0.06834925
000180 94 01 38 3d 6b 58 1a 3d 49 80 dd 3c f0 2a be bd
       0.04492338 0.03768198 0.02703871 -0.092855334
000190 bb ba 22 bd 62 5f f5 bc 9c 96 c6 3c 06 62 a0 bd
       -0.03972886 -0.029952709 0.024241738 -0.078311965
0001a0 d1 08 3e 3d 81 26 26 b9 2a 3b 81 bc a4 c0 aa bc
       0.046395127 -0.00015845337 -0.015775282 -0.020843811
0001b0 b5 db 28 bd fc 11 99 bd 2b ac 21 bd 80 82 bd 3d
       -0.041225154 -0.07474133 -0.039470833 0.092534065
0001c0 35 67 5c 3c d7 79 02 3d e6 11 d6 3b ad 7f ab 3d
       0.013452341 0.031854477 0.0065328954 0.083739616
0001d0 5d 19 58 bd 52 ea 95 3d 46 7c b7 bd 2e 3e 4e bc
       -0.052758563 0.07320084 -0.0895925 -0.012588067
0001e0 74 75 18 3d f7 c0 9f bb cd a0 e8 3c 3b 5e 44 bd
       0.037221387 -0.004875298 0.028396988 -0.047941428
0001f0 85 67 20 bc 74 a6 ee 3b 82 32 00 3a 46 c5 7e bd
       -0.009790306 0.0072830264 0.0004890339 -0.062199853
000200 a8 a5 88 bd 23 26 81 bc 1a da 2f 3d e2 c7 9d bd
       -0.066722214 -0.015765255 0.042932607 -0.0770414
000210 c0 22 ab 3d 1e 55 26 bd f0 4c 3e 3d bb 3a 41 bd
       0.083562374 -0.040608518 0.046460092 -0.04717515
000220 56 46 42 bd 21 38 a2 3d 8b 7e a5 3d c3 b2 63 bd
       -0.04743036 0.07920862 0.08080777 -0.055590402
000230 62 e4 fe 3c c9 c6 71 bc 69 5a 9c 3d fc ab 62 3d
       0.03111476 -0.014756867 0.07634432 0.0553398
000240 68 3b 4b bd bd 46 4c 3d e7 2e 42 3d 74 ea ad 3d
       -0.0496172 0.04987215 0.04740801 0.08491984
000250 57 b5 33 3c 71 d5 ba 3b 5e 5f eb 3c 44 cf 8e bd
       0.010968528 0.0057017137 0.028731998 -0.069731265
000260 79 09 0a bd d0 a7 04 bb 06 2c cf 3c 60 72 bf bc
       -0.03370044 -0.0020241626 0.025289547 -0.023369968
000270 ec f8 87 3d 05 5f 33 bd 68 67 92 bd 2c 44 df bc
       0.06639275 -0.04379179 -0.071486294 -0.027254187
000280 1d fc 5f 3d 4d 07 bb bd 1a cf 29 3d d6 35 6c bd
       0.054683793 -0.09132252 0.041457273 -0.05766853
000290 f3 51 15 3d 33 3c 78 3d 01 47 6d 3c e3 bc bf bc
       0.036455106 0.060604285 0.014482261 -0.023405498
0002a0 26 23 b4 3c 08 33 84 bd ec 8f a2 3d 6a 4d a0 bc
       0.021989416 -0.06455046 0.07937607 -0.019568164
0002b0 8f b6 88 3d cd 94 e5 3c 6d ee 58 3d 10 7f 69 bd
       0.06675445 0.028025055 0.052961756 -0.057005942
0002c0 e7 b2 05 3d 41 7e 79 3d 87 cb 82 bc 41 33 86 3d
       0.032641318 0.06091142 -0.01596619 0.06552745
0002d0 50 71 31 bd bd fd 9a bd 0d 08 48 3d ff 51 96 3c
       -0.043320954 -0.07567928 0.048835803 0.018349646
0002e0 31 8a f1 bb 3f 06 d8 3c 36 9d 8a 3d 26 93 81 3d
       -0.00737121 0.026370166 0.06768267 0.063268945
0002f0 01 17 97 bd 29 39 ab bc b0 4b a0 3c d7 01 5b bd
       -0.073774345 -0.02090128 0.01956734 -0.05346855
000300 68 88 2a bc 55 d5 61 3d 59 bc 4a bd c4 06 2e bd
       -0.010408498 0.05513509 -0.04949603 -0.04248692
000310 24 4d 3d bd 7d c2 fe bc 3a ce 1e 3c ad 51 97 bd
       -0.046216145 -0.031098599 0.009692723 -0.07388625
000320 de a9 69 3d d5 ed b7 bd 21 3d 93 bd 25 f4 49 3d
       0.057046764 -0.0898091 -0.07189394 0.0493051
000330 42 b2 11 3d 3e 5b 8c 3c c3 61 9c 3c 6d 19 9c bd
       0.03557039 0.017133351 0.019089585 -0.07622037
000340 84 10 8b bd 3a 7d 8b bb 0a 91 3a 3c d9 e9 92 3d
       -0.067902595 -0.0042568715 0.011387119 0.07173509
000350 fd 8e bc bd ca dd 0e bc 50 93 69 bd 92 cb e7 3b
       -0.0920696 -0.008719871 -0.057025254 0.007073828
000360 1c 3c 9e bd ce dc 3d bd 26 89 02 3d 60 58 98 3c
       -0.07726309 -0.046353154 0.031869076 0.018596828
000370 1f c3 6f 3d 75 84 c7 39 77 0a 8e bd 38 c4 95 3d
       0.05853569 0.00038054926 -0.0693559 0.073128164
000380 16 d7 9b bd 12 b2 6f 3d ed 6c a7 bc be b4 cc bc
       -0.07609384 0.05851943 -0.020437682 -0.024988528
000390 12 97 13 3d 42 78 f4 3c 30 3c 3d bc be e6 93 3d
       0.036032744 0.0298425 -0.011549994 0.07221745
0003a0 56 92 d5 3c 8a ae 76 bd ae f6 75 bd f5 9a 81 bd
       0.026070755 -0.060225047 -0.060049705 -0.06328384
0003b0 3f dc 45 3d 15 01 be 3c 72 7d 78 3d ae ac a2 3d
       0.048305746 0.023193875 0.06066651 0.07943092
0003c0 68 ee 3e bd 15 d0 47 3d d2 2a a0 bd 94 45 da 3b
       -0.04661408 0.048782427 -0.07820667 0.0066611264
0003d0 63 a9 43 bd c5 9f c4 bc 41 10 6f 3d 6f 7b 55 bd
       -0.04776896 -0.024001965 0.05836511 -0.05211967
0003e0 e2 1a c7 3c 1d 28 8e 3b ab 30 03 3c 42 7e b6 3d
       0.02430481 0.004338278 0.008007209 0.089108005
0003f0 5e 22 45 bd 0f fd 47 3c 79 78 85 3c ff a4 9f bd
       -0.04812848 0.01220633 0.016292797 -0.077951424

lstm.bias_ih_l1 f4 [512]
000000 ec 20 5d bc 42 8f 20 3d 1c 67 7f bc e4 ab 42 3c
       -0.013496619 0.03919912 -0.015588548 0.011881802
000010 51 62 69 bd 74 e7 8d 3d 20 92 71 bd b9 fb 14 bd
       -0.056978527 0.06928912 -0.058977246 -0.036372874
000020 d2 8a 95 bd 40 9d 17 bd 78 3f 8e bd 72 fa 9c bd
       -0.073018685 -0.0370152 -0.069456995 -0.07664956
000030 30 64 99 bb c5 17 5d bd ed 9b c0 bc 0a 40 fb 3b
       -0.0046811327 -0.053977747 -0.023511851 0.007667546
000040 1a f3 98 bc d3 67 93 3c b4 21 86 3d 44 a0 3c bd
       -0.018670607 0.017993843 0.06549397 -0.04605128
000050 ba e2 a9 3d 28 ad 78 bd 1a c4 a7 3d 7a c6 8d 3d
       0.08295198 -0.06071201 0.081917 0.06922622
000060 52 e7 21 3d db 92 e3 bb 88 79 b4 bb fa c8 91 3d
       0.039527245 -0.006944997 -0.0055076517 0.07118411
000070 9d 74 a0 3d ce 2f 45 3d 64 8f b5 bc a5 aa c9 3d
       0.07834742 0.048141293 -0.0221631 0.09847001
000080 7a 33 95 bd 48 d7 93 3d 14 04 1e bd b5 3d 4d bd
       -0.07285209 0.07218796 -0.038578108 -0.050107677
000090 72 57 ad bd a6 aa b7 bc 18 ad fe bc b3 f8 b8 3d
       -0.084639445 -0.022420239 -0.031088397 0.090318106
0000a0 b4 e5 b2 3c a4 31 6c bd cc 5c 24 bd 5b 45 af bd
       0.021838047 -0.05766453 -0.04012756 -0.085581504
0000b0 2c 52 0b bd 15 93 4f bd cc e7 d7 3c 83 44 f1 bc
       -0.034013912 -0.050677378 0.026355647 -0.029451614
0000c0 54 3a 2b bd 96 df d7 bc b9 25 2f bd 80 59 af 3d
       -0.041803673 -0.026351731 -0.042760585 0.08561993
0000d0 84 03 c0 3c 6f 30 68 3c 9a 0f 2c bc d8 0f 9f 3d
       0.023439176 0.014171704 -0.010501767 0.07766694
0000e0 0d 80 9f 3d 93 00 1e bd 7d 77 e9 3b 76 6d 00 3c
       0.077880956 -0.038574766 0.00712484 0.0078385975
0000f0 fc 64 cc 3c 29 28 1f 3d c1 d4 88 bd df 73 02 3d
       0.024950497 0.03885666 -0.066812046 0.031848785
000100 a5 36 b3 bc 65 3f c6 3d 4c af 24 bc a0 80 f7 3c
       -0.021876642 0.0968006 -0.01005156 0.0302127
000110 1f 63 89 3d ec c4 28 bb 31 4d a1 bd 72 27 ac bd
       0.06708359 -0.002575214 -0.07876051 -0.08405961
000120 70 41 c7 3d e9 96 50 bc ee 7e db bb 63 5f db bc
       0.09729278 -0.012731292 -0.006698481 -0.026778882
000130 38 2a b6 bd 94 89 69 3d 61 b6 ff 3c 7c 6f 6a bd
       -0.08894771 0.05701597 0.031214895 -0.057235226
000140 d2 95 03 bb 78 b5 29 bd 69 36 9f 3d 35 bb b8 bc
       -0.0020078314 -0.041432828 0.0777405 -0.022550205
000150 28 3a 17 3c 2b ed 92 3d 34 b3 25 bc ca d1 97 3c
       0.009230174 0.071741425 -0.010113526 0.018532652
000160 3b ee 75 3c 7e 19 51 3d 4c 19 57 3d 6e e0 19 3d
       0.015010412 0.051049702 0.05251436 0.03756755
000170 6e 1c ef bc b9 cb 58 3d 7b 8f 94 bd 75 41 27 bd
       -0.029188361 0.05292866 -0.07253929 -0.04083391
000180 35 d8 e6 3c 18 bd 53 3d 19 11 96 bd 8d 19 43 bd
       0.028179267 0.051694006 -0.0732748 -0.04763179
000190 00 dd 1f bd fd a1 08 3c de 5d 42 bd e6 2e 60 bd
       -0.03902912 0.008339402 -0.0474528 -0.054732226
0001a0 51 21 1d 3d da 2e 85 3c a3 e0 46 3d 96 80 93 bd
       0.03836185 0.016257692 0.048554074 -0.0720226
0001b0 a8 b4 de bb fb 8e 93 3d b8 b8 81 bd 2e e5 9c bd
       -0.0067964382 0.07205006 -0.063340604 -0.076609
0001c0 3e 6f a9 3d f0 22 58 bd 1f a2 70 3d ec 85 9e bd
       0.08273171 -0.052767694 0.05874836 -0.07740387
0001d0 b0 d6 94 3d c2 76 0a bd 37 c9 6d bd e4 7c 89 bd
       0.07267511 -0.033804663 -0.05805322 -0.06713274
0001e0 59 60 5a 3d 14 9f bf 3d 34 01 8e bd d9 e9 10 3d
       0.05331454 0.093565136 -0.06933823 0.035379265
0001f0 fa 52 a0 bd 9e 6e 49 bd dd 7e 05 bd 11 93 7a bc
       -0.078283265 -0.04917776 -0.03259169 -0.015293852
000200 6d aa c9 bd 25 4c 3a 3d fb 84 8d 3d b5 ad 29 bd
       -0.09846959 0.045482773 0.0691013 -0.041425426
000210 ee 70 12 3d 7f fd 65 3d cd ff c0 bd de 9c c1 3c
       0.03575223 0.056149956 -0.0942379 0.02363437
000220 08 8d 16 bd ce 3a 16 bd 70 83 1c bd 74 f2 b4 bd
       -0.03675559 -0.036677174 -0.038211286 -0.08835307
000230 d5 70 ab 3b 17 e4 69 bd dc da b9 3d 1e 8e 59 3d
       0.0052319565 -0.05710229 0.09074947 0.05311405
000240 a1 cc 4f bd 7a d1 90 3d 59 c7 91 bd 3e 51 8d bd
       -0.05073226 0.070712045 -0.07118101 -0.06900261
000250 42 f4 84 bc 71 fa de 3c 1b 0e 84 3b 53 8b 85 bc
       -0.016229752 0.02721903 0.004030002 -0.016301787
000260 b2 f9 2a 3d 00 22 7b bd 50 d0 eb bc 93 e3 c9 3a
       0.041742034 -0.06131172 -0.028785855 0.0015402905
000270 eb 37 b4 3c 9d 37 42 bd 07 15 93 bd 13 aa 45 3d
       0.02199932 -0.04741632 -0.07181745 0.0482579
000280 15 8d 5e 3c f6 ed 35 bd 82 11 54 3d 26 a2 91 bd
       0.013583441 -0.04441639 0.05177451 -0.071110055
000290 c5 1c 47 bd 7c 84 ec bc 67 c3 e7 bc 9c d6 61 bd
       -0.04861142 -0.028871767 -0.028291417 -0.055136308
0002a0 30 ae f4 3c 2b 24 0b 3d 84 dc 6a bd 8e 36 0d 3d
       0.029868215 0.03397004 -0.057339206 0.034475856
0002b0 71 f6 b1 bd 2d 59 78 3c df 2a 25 3d 3e 32 95 bd
       -0.08689583 0.01515798 0.04032409 -0.072849736
0002c0 3b 89 79 bd 61 a0 c4 bd 96 13 a8 3b 7c e3 97 3c
       -0.06092189 -0.09600902 0.005129288 0.01854109
0002d0 75 7e 9b bc 05 6d 64 3d de ff 95 3d 25 03 93 bd
       -0.018981198 0.05576803 0.073241934 -0.07178334
0002e0 ff e2 94 3c 2c 4b 60 bd c7 bf e5 3b f3 27 c3 bd
       0.018174646 -0.05475919 0.007011387 -0.09529104
0002f0 66 3d 36 3d e0 7a f4 b9 56 9b a2 bd cd fa 3a 3d
       0.044492148 -0.00046630856 -0.07939784 0.04564934
000300 87 14 6a 3d cb 98 bc 3c a6 0e 3e bd de 1c 76 3c
       0.057148483 0.023022076 -0.04640069 0.015021531
000310 66 21 ab 3c d2 58 54 3d 15 4f 45 bd a8 17 80 bd
       0.020889949 0.05184252 -0.04817112 -0.06254512
000320 83 f4 36 bd 6c e4 40 3d 0a 14 58 3d d7 92 25 3d
       -0.04466678 0.04709284 0.052753486 0.04042324
000330 5f 8a e4 bc d3 4d 45 3d b0 85 87 bd 59 f2 17 bd
       -0.027898012 0.048169922 -0.06617296 -0.037096355
000340 1a a3 9f bd bb d6 63 3d 6c 70 b8 3d ae 8d b0 3d
       -0.07794781 0.055624705 0.09005818 0.08620773
000350 2f cd a8 bc bd 17 84 3c e2 b2 21 3c b5 e1 28 3d
       -0.020605652 0.0161246 0.009869309 0.041230876
000360 c5 ce 3d 3d 19 82 4f bd db bb 92 3d 9f b1 95 3d
       0.04633977 -0.05066118 0.07164737 0.07309269
000370 fb 41 fe 3c 19 4d af 3d 64 74 7d bd b1 fb 45 3d
       0.031037321 0.08559627 -0.061878577 0.048335735
000380 7f ae 03 3d 55 38 d5 3c a8 63 90 ba 96 83 a5 3d
       0.032148834 0.026027838 -0.0011016028 0.08081739
000390 8f c1 76 3c 5e 69 7e bc 27 d1 fa bc 5f 7c 56 bd
       0.015060796 -0.015528051 -0.03061731 -0.052364703
0003a0 1a 41 1f bb c1 d4 42 bc 78 74 8c 3d fd 06 a6 3a
       -0.0024300278 -0.011891545 0.06858152 0.0012666878
0003b0 d0 65 b7 3d 1b bd 01 3d 6a f9 a8 3d 43 7b 47 bd
       0.08954966 0.031674486 0.08250697 -0.048701536
0003c0 17 6e 94 bc 4e fb b7 3d 1f a5 09 bc 60 e6 89 3c
       -0.018118901 0.089834794 -0.008401184 0.016833484
0003d0 1c ec 9f 3d 77 70 b2 bd ab 9a 46 bd fe c7 95 bd
       0.07808706 -0.08712857 -0.048487347 -0.07313536
0003e0 5b 2c 40 3c 86 5c 86 3d 9c 8f 51 3d cd 81 ac bd
       0.011729325 0.06560616 0.051162347 -0.08423195
0003f0 dc 5d ae 3d 2d 3b 2e 3d ac 47 9a 3c 85 37 a7 bd
       0.08513996 0.042536903 0.018833004 -0.081648864
