backend/ml_models/PETR4.SA/model.pt (torch, 807686 bytes, 9 tensors)

lstm.weight_ih_l0 f4 [512, 5]
0	0x3dcec8d7	0.10096901
1	0x3df33027	0.11874419
2	0x3e32ef5c	0.17474121
3	0x3e2207ff	0.15823363
4	0x3f02a411	0.51031595
5	0xbc79c0fc	-0.015243765
6	0xbbd9437d	-0.0066303597
7	0x3db3b857	0.087753944
8	0x3d006a3f	0.031351324
9	0x3d371cec	0.044705316
10	0x3d536c2c	0.051616833
11	0x3db767fd	0.08955381
12	0x3de9d00b	0.11416634
13	0x3cc9923e	0.024605867
14	0x3d807779	0.062727876
15	0x3bf07b40	0.0073389113
16	0x3d28ad37	0.041180816
17	0x3dad7525	0.08469609
18	0xbc99e038	-0.018783674
19	0x3bc84473	0.0061116754
20	0xbcb734f7	-0.022364123
21	0x3c7bc0a5	0.015365754
22	0xbd03edc6	-0.03220918
23	0xbbf5b635	-0.0074985274
24	0x3d1c8ebe	0.038222067
25	0xbce3eb0a	-0.027822036
26	0xbd152381	-0.036410812
27	0x3c0b7ab8	0.008513145
28	0xbcaf15e3	-0.021372741
29	0xbe15b6b4	-0.14620477
30	0x3cf22441	0.029558303
31	0xbdd2bc61	-0.10289837
32	0xbbb21772	-0.005434924
33	0xbdbdafd3	-0.092620514
34	0x3d45ede0	0.04832256
35	0xbcb4c4a7	-0.022066427
36	0x3d500ec1	0.05079532
37	0x3c9c6025	0.019088814
38	0x3d0d15ee	0.034444742
39	0xbdbf72e0	-0.093480825
40	0x3c894090	0.016754419
41	0x3c54fbe6	0.01299951
42	0xbd58031b	-0.052737337
43	0xbd0aede2	-0.03391827
44	0x3ab4797c	0.0013769115
45	0x3d8b8747	0.068129115
46	0x3a543576	0.00080951245
47	0x3d3e710b	0.046494525
48	0x3ddaff71	0.10693253
49	0xbd285376	-0.04109522
50	0x3c102422	0.008797677
51	0xbc029539	-0.007970148
52	0xbc9be0c8	-0.019028082
53	0x3db8f07b	0.09030243
54	0xbd726564	-0.059178725
55	0x3c8f1359	0.01746528
56	0xbcee2376	-0.029069643
57	0x3de0d2e2	0.10977723
58	0x3da87886	0.08226113
59	0xbca74869	-0.02042027
60	0x3cba86f8	0.022769436
61	0x3c545fc2	0.012962284
62	0x3dc228ec	0.094804615
63	0x3d785f6e	0.060637884
64	0xbd100342	-0.035159357
65	0xbd197a45	-0.03747012
66	0xbd682f4d	-0.056685735
67	0xbc378de1	-0.01120326
68	0x3d2c7736	0.042105876
69	0xbd9bbfb1	-0.076049216
70	0xbcbf9cb0	-0.023390144
71	0x3db1a43a	0.08673902
72	0x3de070ce	0.10959016
73	0xbd079a44	-0.033106104
74	0x3c8451bf	0.01615226
75	0x3af09349	0.0018354441
76	0x3d749280	0.059710026
77	0x3dd4fcc7	0.10399776
78	0x3dc0bf88	0.09411532
79	0x3c9f4863	0.019443696
80	0x3d88dace	0.06682359
81	0x3db5e619	0.08881778
82	0x3c044875	0.008073916
83	0xbd696e1e	-0.05698978
84	0x3db3b3a9	0.08774502
85	0x3dbbb1d6	0.09164779
86	0x3d5c413e	0.053773157
87	0x3d231d78	0.039823025
88	0x3d696cbc	0.056988463
89	0xbd4c7367	-0.049914744
90	0xbc038bfa	-0.0080289785
91	0x3d9b603b	0.07586714
92	0x3deef5b1	0.11667956
93	0xbd3c69ef	-0.045999464
94	0xbda48d9e	-0.08034824
95	0x3dba4a1a	0.09096165
96	0xbbc6fc42	-0.006072552
97	0x3d265490	0.04060799
98	0x3c00bf66	0.007858133
99	0x3baf112f	0.0053426246
100	0xbadcf7fe	-0.0016858575
101	0x3d11980b	0.03554539
102	0xbd551539	-0.052022193
103	0x3d92d8b0	0.07170236
104	0xbcc95c70	-0.02458021
105	0x3db94cc5	0.09047846
106	0xbcd7da2c	-0.02634915
107	0xbcf2bd34	-0.029631235
108	0x3dcbf4c1	0.099587925
109	0xbc30f483	-0.010800484
110	0xbd9c958f	-0.076457135
111	0xbdb2f5d7	-0.087382965
112	0xbce162e5	-0.027512977
113	0xbca7d4a5	-0.020487139
114	0xbd53be6a	-0.051695265
115	0x3d845e7d	0.06463335
116	0x3d8ff27f	0.07028674
117	0xbd04555d	-0.03230797
118	0x3cc706e4	0.024295278
119	0xbcdbfa28	-0.026852682
120	0x3beadbdf	0.007167324
121	0x3e2f4480	0.17115974
122	0x3d87b5cc	0.06626472
123	0x3d50f33b	0.051013213
124	0x3e0a5751	0.13509871
125	0x3c6444f0	0.013932452
126	0x3df42371	0.119208224
127	0x3c873e0b	0.016509077
128	0xbc7001de	-0.014648883
129	0x3d311f94	0.043243006
130	0x3d3522a6	0.044222496
131	0x3c761168	0.015018798
132	0x3bea9447	0.0071587893
133	0x3cfe232e	0.031022634
134	0x3ca4335a	0.020044018
135	0xbde54dee	-0.111965045
136	0xbd7de5cf	-0.06198674
137	0xbc901331	-0.017587276
138	0xbdad4060	-0.08459544
139	0xbdbca84e	-0.09211789
140	0x3dd45062	0.10366894
141	0x3bded9ca	0.006800865
142	0x3c2e6911	0.010645167
143	0x3d784c0c	0.0606194
144	0xbc923835	-0.017849067
145	0x3de19970	0.11015594
146	0x3da81ab9	0.08208222
147	0x3db440fd	0.08801458
148	0x3df44ecc	0.11929092
149	0x3e4df03d	0.20111175
150	0x3d374917	0.04474744
151	0xbbf3e9a1	-0.007443622
152	0x3d4a9aab	0.04946391
153	0x3d114bd5	0.03547271
154	0x3d94936f	0.07254683
155	0xbdc1aac8	-0.09456402
156	0x3d98098d	0.07423697
157	0x3b9730e7	0.004613984
158	0xbd8a52f2	-0.06754102
159	0x3dbd4dc8	0.09243351
160	0x3d987ec7	0.07446056
161	0x3d115ed7	0.035490837
162	0x3c829fa0	0.015945256
163	0xbcbb2aed	-0.022847617
164	0xbbf8503e	-0.007577925
165	0x3d9c027b	0.076176606
166	0xbcaebefa	-0.0213313
167	0x3d712aa4	0.058878556
168	0xbd38a9d4	-0.045083836
169	0x3dea1002	0.114288345
170	0x3d025f2d	0.031829048
171	0xbc3d8799	-0.0115679735
172	0xbc96ba5f	-0.018399416
173	0xbd1550c6	-0.036453985
174	0x3d213e0e	0.03936582
175	0x3d076938	0.03305933
176	0xbc7d1dd1	-0.015449003
177	0xbd2c1a48	-0.04201725
178	0x3d9ece77	0.07754224
179	0xbd9e240d	-0.0772172
180	0xbcdb18ee	-0.026745286
181	0xbd28e272	-0.04123158
182	0xbc1f4054	-0.009719927
183	0x3de4a3a5	0.11164025
184	0x3ac2c823	0.0014860671
185	0xbd6b9fb6	-0.05752536
186	0x3d84ea93	0.06490054
187	0x3d2927b0	0.041297615
188	0x3d300c9f	0.042980786
189	0xbbb27e76	-0.005447204
190	0x3d48f9dd	0.049066413
191	0x3c875e0d	0.01652434
192	0xbd70279f	-0.058631536
193	0xbca54926	-0.020176481
194	0x3b917251	0.0044386764
195	0x3dbdd702	0.09269525
196	0x3d252f3f	0.04032826
197	0xbc24550c	-0.010030042
198	0xbaf947b2	-0.0019018559
199	0xbdd881be	-0.10571621
200	0x3ba42728	0.0050095506
201	0x3d8847a8	0.06654292
202	0x3df2a8db	0.11848613
203	0x3cafcfd2	0.021461401
204	0x3d7591d0	0.05995351
205	0xbcab29a4	-0.02089388
206	0x3d8e0679	0.06934828
207	0x3db9d92a	0.09074624
208	0x3d845f2c	0.06463465
209	0x3dee31fc	0.116306275
210	0xbc49b8f7	-0.012312165
211	0xbd7addc2	-0.06124664
212	0x3ca66303	0.020310884
213	0x3c7e69d4	0.015528161
214	0x3cc44d87	0.02396275
215	0xbc6a0aad	-0.014284772
216	0x3ce27425	0.027643273
217	0x3d7b9db7	0.061429705
218	0xbb859574	-0.004076654
219	0x3c39356d	0.011304242
220	0x3d180e3d	0.037122954
221	0x3e0a880e	0.13528463
222	0x3def73a3	0.11691978
223	0x3d6d2a87	0.057901885
224	0xbd6ca30c	-0.05777268
225	0x3decc6e0	0.1156137
226	0xb91dcb9d	-0.00015048539
227	0x3c654a0c	0.013994705
228	0x3d37ea7a	0.04490135
229	0x3d1be71b	0.038062196
230	0xbd07f3ff	-0.033191677
231	0xbd5c33ee	-0.05376046
232	0x3c5c7de3	0.013457748
233	0x3dd888a3	0.105729364
234	0xbdec2874	-0.11531153
235	0xbba62aa1	-0.0050709997
236	0xbd8d1af2	-0.06889905
237	0xbd89f31e	-0.06735824
238	0xbd9031b2	-0.07040729
239	0xbdc6174a	-0.09672411
240	0x3cc51d54	0.024061836
241	0x3d55f44f	0.052234944
242	0x3b7e7a64	0.0038830275
243	0x3be6dc82	0.0070453295
244	0xbcc5dde7	-0.024153663
245	0x3da17a6b	0.078846775
246	0x3d998268	0.07495576
247	0x3d65c309	0.056094203
248	0xbd31bfea	-0.043395914
249	0x3d05e557	0.03268942
250	0xbd1d6bef	-0.03843301
251	0xbd64020d	-0.05566602
252	0xbd825a53	-0.06364884
253	0x3d957226	0.07297163
254	0x3d822560	0.06354785
255	0x3d8654ac	0.06559119

lstm.weight_hh_l0 f4 [512, 128]
0	0x3b834d8f	0.0040070484
1	0x3d163ed6	0.03668102
2	0xbe2bc0aa	-0.16772714
3	0x3ddd9022	0.10818507
4	0xbdb5ebda	-0.08882876
5	0x3d662012	0.05618293
6	0x3b6cd437	0.0036137232
7	0xbe58cd8e	-0.21172163
8	0x3e126685	0.1429692
9	0x3e00c430	0.1257484
10	0x3cea0a80	0.02856946
11	0xbcde6338	-0.02714692
12	0x3dbab4c3	0.09116509
13	0xbd12114f	-0.035661038
14	0xbddc7d80	-0.10766125
15	0xbca8fbe7	-0.020627929
16	0x3d0b7250	0.034044564
17	0xbdebb67a	-0.11509414
18	0x3e0ba0da	0.13635579
19	0x3cce53ac	0.025186382
20	0xbc574280	-0.013138413
21	0x3ded4b14	0.11586586
22	0xbc787d3b	-0.015166576
23	0xbda409c5	-0.08009676
24	0x3c74c9d2	0.014940696
25	0xbdffdb2b	-0.12492975
26	0x3cf7b579	0.0302379
27	0xbe10bad9	-0.14133777
28	0x3da3ae69	0.079922505
29	0xbc7b2cb5	-0.015330483
30	0x3bc4d116	0.0060063703
31	0xbe3d6f7d	-0.1849956
32	0xbd37081b	-0.044685464
33	0x3d88d660	0.06681514
34	0xbe295631	-0.16536786
35	0xbd01da05	-0.03170206
36	0x3de3df5b	0.11126586
37	0xbddc69fe	-0.10762404
38	0x3cd74d80	0.026282072
39	0x3df2211c	0.11822721
40	0xbdc7aaa2	-0.097493425
41	0xbe3a01f7	-0.18164812
42	0x3e062173	0.13098697
43	0x3db73e65	0.08947448
44	0x3bdab553	0.0066744476
45	0xba65e537	-0.00087698124
46	0x3b23f7aa	0.0025019445
47	0xbe2ab313	-0.16669874
48	0x3e5b53d2	0.21418694
49	0xbd14a873	-0.03629346
50	0xbe36ebe7	-0.17863427
51	0x3ca5ae21	0.020224633
52	0xbd813c01	-0.06310273
53	0xbdbb72e7	-0.09152775
54	0x3d19ae2a	0.03751961
55	0x3db8857b	0.090098344
56	0xbdb0ef0b	-0.08639344
57	0xbd0bc3c9	-0.034122262
58	0xbe516b00	-0.20450974
59	0x3bddccd8	0.006768804
60	0x3e3a29ba	0.1817998
61	0x3de2ac9c	0.11068079
62	0xbdd2035e	-0.102545485
63	0xbd041979	-0.032250855
64	0x3d445404	0.047931686
65	0x3e3378c2	0.17526534
66	0x3d74045c	0.05957447
67	0x3d055e95	0.032560904
68	0xbd8e86b8	-0.06959289
69	0x3df51d8c	0.11968526
70	0x3ba111e5	0.0049154633
71	0x3d1d2e66	0.038374327
72	0xbc84241e	-0.016130503
73	0xbdc88bfe	-0.097923264
74	0x3e1b8a29	0.15189423
75	0x3df2e824	0.118606836
76	0xbd7b3363	-0.061328303
77	0x3d26a048	0.0406802
78	0x3dc6a0bf	0.09698629
79	0x3dc3adb6	0.09554617
80	0xbc856d4d	-0.01628747
81	0xbde7dfed	-0.11322007
82	0x3e164f47	0.1467868
83	0x3dbe2ae0	0.092855215
84	0x3dbbb64c	0.0916563
85	0x3e41246c	0.1886155
86	0xbc36dd9d	-0.011161235
87	0xbd3b56ea	-0.045737185
88	0xbe249872	-0.16073778
89	0x3d07d61a	0.033163168
90	0x3e0fc2ea	0.14039198
91	0xbcdd1003	-0.026985174
92	0x3d743616	0.059621893
93	0x3dba8162	0.09106709
94	0xbd764f60	-0.06013429
95	0x3d8ce283	0.06879141
96	0x3e8dec45	0.27719322
97	0xbc9df94f	-0.019283919
98	0xbda05d04	-0.07830241
99	0xbe01c73c	-0.12673658
100	0xbbf3501e	-0.007425322
101	0xbdaec6e7	-0.08534031
102	0xbcae4484	-0.021272905
103	0xbc6cceb7	-0.0144535815
104	0x3e262897	0.16226421
105	0x3cc05c3b	0.023481479
106	0x3ded8ce7	0.115991406
107	0xbcd6fc0f	-0.026243238
108	0xbd1047fa	-0.035224892
109	0x3c0333da	0.008007968
110	0xbdc0de72	-0.09417428
111	0xbd23ef46	-0.04002311
112	0xbce62192	-0.02809218
113	0xbde01ac9	-0.10942609
114	0x3e294aa1	0.16532375
115	0xbe038d7a	-0.12846938
116	0xbd7c023c	-0.06152557
117	0xbde79381	-0.11307431
118	0xbbf9ca96	-0.007623027
119	0xbd89b837	-0.06724589
120	0x3e7909e4	0.24320179
121	0xbcdafd41	-0.026732089
122	0x3dbf61c9	0.09344823
123	0xbe171c4c	-0.14756888
124	0x3c8b081c	0.01697164
125	0x3d864658	0.06556386
126	0xbd74b07d	-0.059738625
127	0xbcba1097	-0.022712989
128	0xbd5fd5b2	-0.054647155
129	0xbd4398c1	-0.0477531
130	0xbd24ef12	-0.040267058
131	0x3d7ac431	0.06122226
132	0xbc87f194	-0.016594686
133	0x3d58ad2c	0.052899525
134	0xbd993a70	-0.07481849
135	0x3c1bbd72	0.0095056165
136	0xbce8dd84	-0.02842594
137	0xbc871781	-0.0164907
138	0x3d0610d4	0.032730892
139	0x3d59840a	0.053104438
140	0xbd4bf0a4	-0.04979004
141	0x3d29ae10	0.041425765
142	0xba9e0f50	-0.0012059007
143	0x3c0669f7	0.008203975
144	0xbd934984	-0.07191756
145	0x3d845536	0.06461565
146	0x3daadcb6	0.083428785
147	0x3d8b1c7c	0.06792542
148	0xbcdb624c	-0.02678027
149	0xbd6789d4	-0.056527928
150	0x3da04551	0.07825721
151	0x3d344b0c	0.044016883
152	0x3cf30c87	0.02966906
153	0x3ce8bb2e	0.028409567
154	0xbb41186b	-0.0029464017
155	0x3d3b74e2	0.045765765
156	0x3d9a86a5	0.07545213
157	0x3d8dd821	0.06925989
158	0xbd7911a1	-0.060807828
159	0x3d374857	0.044746723
160	0x3d0eb4a9	0.03484026
161	0xbd5d5095	-0.054031927
162	0xbd822413	-0.06354537
163	0xbdcfa75e	-0.10139345
164	0xbd72b541	-0.05925489
165	0x3bbaa5ff	0.005696058
166	0x3d7c819a	0.061647035
167	0x3c5de0d2	0.013542371
168	0xbcfa56d6	-0.030558985
169	0x3d09cfbc	0.033645377
170	0xbd0df331	-0.034655754
171	0x3d71f891	0.059074942
172	0xbd01d076	-0.031692944
173	0xbd9384d1	-0.07203067
174	0x3d8ee13d	0.069765545
175	0x3d028624	0.031866208
176	0x3ce3a424	0.02778823
177	0x3dbd6ebf	0.09249639
178	0xbd5d9025	-0.054092545
179	0xbd532d81	-0.051557068
180	0xbd4519c6	-0.048120283
181	0xbd6e80e2	-0.05822838
182	0xbd9a4517	-0.07532709
183	0x3d8c6448	0.06855065
184	0x3d036d7e	0.03208684
185	0x3d0f6b8b	0.03501467
186	0xbd22b2fc	-0.039721474
187	0x3d4bc1e9	0.049745474
188	0xbd4c994b	-0.04995088
189	0x3cd43901	0.025906088
190	0xbd688388	-0.056766063
191	0xbbae9866	-0.005328226
192	0x3d87fb0d	0.06639681
193	0x3c7500f9	0.014953845
194	0xbd478adc	-0.04871641
195	0x3da6ab14	0.08138099
196	0x3ca4b415	0.020105401
197	0xbd29a5af	-0.041417774
198	0x3d86edbd	0.06588314
199	0xbc4e6988	-0.012598403
200	0x3cf36924	0.02971322
201	0xbc2bb74c	-0.010480713
202	0xbd5e2b90	-0.054240763
203	0x3ceab0c1	0.028648736
204	0xbd2ec9a6	-0.042672776
205	0xbc661977	-0.014044157
206	0x3dce5720	0.100752115
207	0xbda431a5	-0.080172814
208	0xb87df45e	-6.0547485e-05
209	0x3cf1cc04	0.029516228
210	0xbd9cf6d3	-0.076642655
211	0x3d809649	0.062786646
212	0xbb8e3135	-0.004339362
213	0xbd7998ca	-0.060936727
214	0xbd1beaf6	-0.038065873
215	0xbc3b9fe4	-0.011451695
216	0xbc51950d	-0.012791884
217	0x3d3e9dce	0.046537213
218	0x3d4cf65b	0.05003963
219	0xbcbd4560	-0.02310437
220	0x3cbe819a	0.023255158
221	0x3d65ec5d	0.056133617
222	0x3d7ee500	0.06223011
223	0x3d594860	0.053047538
224	0x3bed5a78	0.0072434507
225	0x3dcf37a3	0.10118034
226	0x3dc2f2be	0.09518956
227	0x3c65d2d2	0.014027314
228	0x3d477c53	0.04870255
229	0x3d154360	0.036441207
230	0x3da57577	0.08079045
231	0xbd953e60	-0.07287288
232	0xbd963567	-0.073344044
233	0x3ddb0b91	0.106955655
234	0xbd6c5e69	-0.057707224
235	0xbd6ee635	-0.05832501
236	0x3c9598d7	0.018261356
237	0xbd4f041c	-0.05054103
238	0x3d6ee2b4	0.05832167
239	0xbc935182	-0.017983202
240	0xbd4bbfc4	-0.04974343
241	0xbd56458e	-0.052312426
242	0xbc84b9e8	-0.016201928
243	0xbd096e53	-0.03355248
244	0x3d9780da	0.07397623
245	0x3cc84be7	0.024450256
246	0x3d588c73	0.052868318
247	0x3db1d44a	0.08683069
248	0xbd4141f5	-0.047182042
249	0xb9ca6ca5	-0.0003860939
250	0xbd703e4a	-0.058653153
251	0xbd14cfd3	-0.03633101
252	0xbd7a0ad3	-0.06104548
253	0xbd250e39	-0.040296767
254	0x3ca329ae	0.019917335
255	0x3cb81d5e	0.02247494

lstm.bias_ih_l0 f4 [512]
0	0x3e8d5888	0.27606606
1	0x3d53302c	0.051559612
2	0x3cfdfec1	0.031005265
3	0xbd67903e	-0.056534044
4	0xbcd0bfee	-0.025482144
5	0xbcc9bb07	-0.024625314
6	0x3d906f99	0.070525356
7	0x3c8b866d	0.017031873
8	0xbb0ab3a1	-0.0021164196
9	0x3d94e4e3	0.07270219
10	0x3cb02be7	0.02150531
11	0xbc191da1	-0.009345443
12	0x3c375497	0.011189601
13	0x3d715cb2	0.05892629
14	0xbd8a0e69	-0.0674103
15	0xbd43f3d4	-0.047839954
16	0x3d49f93b	0.04930995
17	0xbd288968	-0.041146666
18	0x3d43237c	0.047641262
19	0xbd2e9f17	-0.04263219
20	0xbd67b93e	-0.056573145
21	0x3dc62b31	0.09676207
22	0xbc5ac475	-0.013352503
23	0x3c2e1e7a	0.010627383
24	0x3cc2b6e6	0.023768853
25	0x3ddfa701	0.10920525
26	0x3c5d52cf	0.013508513
27	0xbc6a4310	-0.0142982155
28	0xbd93902b	-0.07205232
29	0x3da5412c	0.08069071
30	0x3dbc4492	0.09192766
31	0x3d87def2	0.0663432
32	0x3da28e2d	0.07937274
33	0x3cf09e8f	0.029372482
34	0x3c938969	0.018009858
35	0x3ce2e384	0.027696379
36	0xbc86303f	-0.016380427
37	0xbdb0e2e8	-0.08637029
38	0xbd78af21	-0.06071389
39	0x3d896186	0.06708054
40	0x3d47fa12	0.04882247
41	0xbd25b7b9	-0.040458415
42	0xbd6c64f6	-0.05771347
43	0x3cf86275	0.030320385
44	0xbd857492	-0.06516375
45	0x3c22bd2c	0.009932797
46	0x3d8b0125	0.06787328
47	0xbd402d02	-0.046917923
48	0x3d9f3d06	0.07775311
49	0xbd882af8	-0.06648821
50	0x3c99c73c	0.01877176
51	0x3d884761	0.066542394
52	0x3d315cf5	0.04330154
53	0xbdb940ad	-0.09045539
54	0xbd065f35	-0.03280564
55	0xbbd23ea4	-0.0064161588
56	0x3b470412	0.0030367416
57	0xbcf6e5fb	-0.03013896
58	0xbbaf1df1	-0.0053441455
59	0x3d9f6c1f	0.07784294
60	0x38d3489d	0.00010074789
61	0x3dd5b244	0.10434392
62	0x3d90938e	0.07059394
63	0xbd620420	-0.055179715
64	0xbcee8c4b	-0.029119631
65	0xbd98a18c	-0.074526876
66	0xbd4af453	-0.049549412
67	0x39d5fece	0.0004081637
68	0xbd7669e0	-0.060159564
69	0x3d8c012d	0.06836162
70	0x3d7bb100	0.061448097
71	0xbd4c7808	-0.04991916
72	0xbc5bfdfe	-0.013427256
73	0xbaaf3717	-0.0013367858
74	0x3dcc417d	0.099734284
75	0x3d1403db	0.03613649
76	0x3dc1124c	0.09427318
77	0xbc83d0ef	-0.016090838
78	0x3e5dd8ac	0.21664685
79	0x3dae5444	0.08512166
80	0x3da514e7	0.080606274
81	0xbd8a6200	-0.06756973
82	0x3d2d056f	0.04224151
83	0xbd92fe8e	-0.07177459
84	0xbcf5601c	-0.029953055
85	0xbd3a5bf9	-0.04549787
86	0x3d3a41b4	0.045472816
87	0x3bfb8591	0.0076758345
88	0xbda670e0	-0.08126998
89	0xbcc078e9	-0.023495154
90	0x3d4df56a	0.050282873
91	0xbd8ba6ec	-0.06818947
92	0x3d98aa1e	0.07454322
93	0x3d9f0cea	0.07766135
94	0xbd05bb0d	-0.03264909
95	0x3d84dbdf	0.064872496
96	0x3d5f30ed	0.05449002
97	0xbba3cafb	-0.0049985624
98	0x3c58c053	0.013229447
99	0x3d443b10	0.04790789
100	0xbbf6f98a	-0.0075370716
101	0x3d36d5e8	0.04463759
102	0xbb13cc8b	-0.0022552337
103	0x3db088af	0.0861982
104	0xbcb23b42	-0.021756772
105	0x3e28d8e3	0.16488986
106	0x3d90ab5a	0.07063933
107	0x3cfdcd62	0.030981723
108	0xbc09b89c	-0.008405831
109	0x3d8f42fc	0.06995198
110	0x3d100d53	0.035168957
111	0xbc9f40ec	-0.019440137
112	0x3c7a7ad9	0.015288078
113	0xbb22329d	-0.0024749406
114	0x3dc7df95	0.09759442
115	0xbd028fef	-0.031875547
116	0x3cab3d0b	0.020903131
117	0x3d2c5c0b	0.042079967
118	0xbceed5fb	-0.029154768
119	0xbd0dc0f8	-0.034607857
120	0x3d999c43	0.07500508
121	0xbcbcc4af	-0.023043005
122	0x3db3a55f	0.087717764
123	0xbc5447bc	-0.012956556
124	0xbd36520e	-0.044511847
125	0xbda04749	-0.078260966
126	0x3d3abe2f	0.04559153
127	0x3b194bc3	0.0023391105
128	0xbe7219d4	-0.23642665
129	0xbd36f4f2	-0.04466719
130	0xbdb58ec5	-0.08865122
131	0x3cc93d6a	0.024565417
132	0xbb8afc96	-0.0042415364
133	0xbdd2fcc3	-0.10302117
134	0x3d94ea09	0.07271201
135	0xbccd94a8	-0.025095299
136	0xbdcc45e6	-0.099742696
137	0xbdaa61ec	-0.08319458
138	0x3d3d19eb	0.046167295
139	0xbd38433e	-0.044986002
140	0xbda60bbf	-0.08107709
141	0x3d9d6fe3	0.07687356
142	0xbd0722f9	-0.032992337
143	0x3c02938d	0.007969749
144	0xbc43b3ef	-0.011944755
145	0xbd9074db	-0.070535384
146	0xbde15447	-0.11002403
147	0x3d46d02d	0.048538376
148	0xbc920bf3	-0.017827963
149	0xbbd1146b	-0.006380608
150	0xbd9071da	-0.070529655
151	0x3d87d9b3	0.0663332
152	0xbdb8effa	-0.09030147
153	0x3da02183	0.07818892
154	0x3d32ce20	0.043653607
155	0xbda96c64	-0.08272627
156	0x3d4a45a0	0.049382806
157	0xbdc5042e	-0.09619938
158	0x3d7729f7	0.060342755
159	0xbc1da05a	-0.00962075
160	0x3cd31e72	0.025771353
161	0xbd1fa89c	-0.038979158
162	0x3d10739a	0.035266496
163	0xbca02c04	-0.019552238
164	0xbd99052e	-0.07471691
165	0xbd47cf58	-0.048781723
166	0x3cc93b3e	0.024564382
167	0xbbf8223a	-0.0075724395
168	0xbd9ba620	-0.07600045
169	0x3d43d64a	0.047811784
170	0xbd9ab06d	-0.07553182
171	0xbd591329	-0.05299679
172	0xbd699201	-0.057024006
173	0x3d92f88a	0.07176311
174	0x3ce01be3	0.027357047
175	0xbd924050	-0.07141173
176	0x3d21d0d7	0.039505806
177	0xbd8e546a	-0.069496945
178	0xbd02d2a5	-0.031939168
179	0xbda8f22d	-0.08249316
180	0xbb342f0b	-0.002749386
181	0xbdd2fe49	-0.10302407
182	0xbd130653	-0.035894703
183	0x3c35683f	0.0110722175
184	0x3d89f62b	0.06736406
185	0x3dad343f	0.08457231
186	0xbcd102af	-0.025513975
187	0xbd0a5eb9	-0.03378174
188	0x3d15e7d1	0.03659803
189	0x3a7d19d2	0.00096550316
190	0x3d2048dc	0.039131984
191	0x3d7d53f1	0.06184763
192	0xbc412d26	-0.011790549
193	0x3b214194	0.0024605738
194	0xbdaa7b33	-0.0832428
195	0xbd072e7e	-0.033003323
196	0x3c5cbea0	0.013473183
197	0x3caad379	0.020852791
198	0x3d4bc7a1	0.049750928
199	0xbd93e9e1	-0.07222343
200	0xbd01f8d8	-0.031731457
201	0x3c59814b	0.013275455
202	0xbda45164	-0.080233365
203	0x3d789bea	0.060695566
204	0x3d5fd7a2	0.054649003
205	0x3c00437a	0.007828588
206	0xbdcde075	-0.100525774
207	0xbdf48b63	-0.119406484
208	0xbda7455e	-0.081675276
209	0xbca3c5ec	-0.019991837
210	0xbdc857bd	-0.0978236
211	0xbda1d281	-0.079014786
212	0xbdaca83b	-0.08430525
213	0x3baf2591	0.0053450544
214	0xbcb2afb9	-0.021812307
215	0xbd43a5f2	-0.04776568
216	0xbdc973cb	-0.09836539
217	0x3d0aa16a	0.033845343
218	0xbd35a936	-0.044350825
219	0xbbbb0ca7	-0.0057082954
220	0xbddea7c9	-0.10871846
221	0xbcc1c610	-0.023654014
222	0xbd9ca4c1	-0.07648612
223	0x3ca4111d	0.020027691
224	0xbd4859ae	-0.04891365
225	0xbcf0539e	-0.029336747
226	0xbc5de72f	-0.013543888
227	0x3d2f96b1	0.04286832
228	0x3ca8fa7f	0.020627258
229	0x3d8d75a4	0.06907204
230	0x3c870841	0.016483428
231	0xbcb8a58a	-0.022539873
232	0xbd19f3ba	-0.03758595
233	0x3ca7d155	0.02048556
234	0xbd6a4ca0	-0.05720198
235	0xbc865dfc	-0.016402237
236	0xbd87cdba	-0.06631036
237	0xbdb8d499	-0.09024925
238	0x3d57190d	0.052514125
239	0xbd42f12e	-0.047593288
240	0x3a7e938f	0.0009711319
241	0x3caedf2f	0.021346657
242	0xbd86a6ad	-0.0657476
243	0x3c59c160	0.013290733
244	0x3d3fca4c	0.046823785
245	0x3cda014d	0.026611948
246	0xbce36650	-0.027758747
247	0x3a5a5a8a	0.00083295314
248	0xbc85e6b4	-0.01634536
249	0xbdc6b999	-0.09703369
250	0x3c8c160e	0.01710036
251	0x3d3c6b2d	0.04600065
252	0x3d988127	0.07446509
253	0xbd04c56c	-0.03241484
254	0xbd037653	-0.032095265
255	0xbd7243c8	-0.059146672

lstm.bias_hh_l0 f4 [512]
0	0x3e396bb8	0.18107498
1	0x3d9b8fa0	0.07595754
2	0xbda6aa7c	-0.08137986
3	0x3db46683	0.08808615
4	0xbd0a8715	-0.03382023
5	0x3d5ada46	0.053430818
6	0x3d8709c1	0.06593657
7	0x3d53b47e	0.051685803
8	0x3ca098a1	0.01960403
9	0xbc494438	-0.012284331
10	0x3d81b0d7	0.06332558
11	0x3b8e1cf3	0.004336947
12	0xbd2ef9bc	-0.042718634
13	0x3d6d8bd2	0.05799467
14	0x3d15851f	0.036503907
15	0x3c9d55a5	0.019205878
16	0xbcd16ab5	-0.025563577
17	0xbd1a0510	-0.037602484
18	0xba3552b0	-0.00069169234
19	0x3bbcfaf2	0.0057672197
20	0x3c774101	0.015091182
21	0x3db9657b	0.09052559
22	0x3d65f956	0.05614599
23	0xbd4937c5	-0.04912545
24	0x3d8f810e	0.07007037
25	0xbd44967e	-0.047995083
26	0x3ca67cd4	0.020323195
27	0x3d8d17a4	0.06889275
28	0xbda3103c	-0.07962081
29	0x3e43eea0	0.19133997
30	0x3d197216	0.037462316
31	0x3d43864f	0.04773551
32	0x3dabe2f5	0.08392898
33	0xbd9d675c	-0.0768573
34	0xbda8b1f8	-0.0823707
35	0xbc81acfc	-0.015829556
36	0xbb6efd9e	-0.0036467086
37	0x3c068076	0.008209338
38	0x3d8748dc	0.06605694
39	0x3c803cb9	0.015653955
40	0xbd25b7ad	-0.04045837
41	0xbd0fa4ef	-0.035069402
42	0x3c932c23	0.017965382
43	0x3de4ca26	0.11171369
44	0xbb9ee784	-0.004849376
45	0xbd71c734	-0.059027866
46	0xbcad168b	-0.021128913
47	0x3d0c96dc	0.03432356
48	0x3c2a2d10	0.01038672
49	0xbd410972	-0.04712815
50	0xbd87101a	-0.06594868
51	0x3db334a2	0.08750273
52	0x3d35dc57	0.044399586
53	0x3d730132	0.05932731
54	0x3d032d4d	0.032025624
55	0x3ac288df	0.0014841816
56	0x3db4c92c	0.08827433
57	0xbd8d01ef	-0.068851344
58	0x3c4a2441	0.012337745
59	0x3d8c6f5f	0.0685718
60	0xbb2267ea	-0.0024781176
61	0x3dd085ac	0.10181746
62	0x3d875483	0.06607916
63	0x3d691f3e	0.05691456
64	0x3d90530f	0.07047092
65	0x3c058cf9	0.008151286
66	0x3d4ae35c	0.049533233
67	0x3ddabf00	0.106809616
68	0xbd193c27	-0.03741088
69	0xbd84f6fe	-0.064924225
70	0x3ce1428c	0.027497552
71	0xbc4d421b	-0.012527968
72	0x3d6858a4	0.05672516
73	0x3db10e7f	0.08645343
74	0x3da5d342	0.08096935
75	0xbccb17a4	-0.024791546
76	0xbd76a749	-0.06021813
77	0xbd755097	-0.05989131
78	0x3e341184	0.17584807
79	0x3d6ad68e	0.05733352
80	0x3de71943	0.11284115
81	0x3c9ba285	0.018998394
82	0x3ccd280a	0.025043506
83	0x3d0a6470	0.03378719
84	0xbd933fd8	-0.071899116
85	0x3c885b31	0.016645046
86	0x3dd8cf83	0.10586455
87	0xbc305c17	-0.010764143
88	0x3cb9278e	0.022601869
89	0x3d4e33b2	0.05034227
90	0xbc162fdf	-0.009166687
91	0xbdb3b6ac	-0.08775076
92	0xbd911d4e	-0.070856676
93	0xbd8afb73	-0.067862414
94	0x3cd46a85	0.025929699
95	0x3daa34f8	0.08310884
96	0x3d2284a0	0.039677262
97	0x3cb7f819	0.02245717
98	0xbd79f156	-0.06102117
99	0x3d54d78a	0.051963367
100	0x3d8d894d	0.06910954
101	0xbd61d9b4	-0.05513926
102	0x3d81caeb	0.06337532
103	0xbd638eae	-0.05555599
104	0xbcb32e80	-0.021872759
105	0x3c7bf0b9	0.015377217
106	0xbcd9a4b6	-0.026567798
107	0x3db22c29	0.08699829
108	0xbc16a023	-0.009193453
109	0x3d6557f1	0.05599207
110	0x3cd8315d	0.026390726
111	0x3d5de319	0.054171655
112	0xbd2395c8	-0.039937764
113	0xbc7dd3df	-0.015492409
114	0x3cf63543	0.030054694
115	0xbbadf102	-0.0053082714
116	0x3d241ba0	0.040065408
117	0xbd87fe6e	-0.066403255
118	0x3d3e5a4d	0.046472836
119	0xbd8dc83d	-0.06922958
120	0x3ccf1c77	0.025282128
121	0x3dbece94	0.093167454
122	0x3d952dab	0.07284101
123	0x3d3b56d1	0.04573709
124	0x3c8045bc	0.015658252
125	0x3db8b1c3	0.0901828
126	0xbbf31301	-0.007418037
127	0xbcd61d8e	-0.02613714
128	0xbe4e2ee4	-0.20135075
129	0xbcc49ffe	-0.024002071
130	0xbdc1abd9	-0.094566055
131	0x3d448415	0.047977526
132	0xbd530604	-0.05151941
133	0xba339b32	-0.0006851434
134	0xbd39d6aa	-0.045370735
135	0xbe07aea0	-0.13250208
136	0xbdb2870f	-0.08717167
137	0xbd0cc499	-0.034367178
138	0xbd0babdb	-0.03409944
139	0xbe0a75a3	-0.13521437
140	0xbdb5bc19	-0.088737674
141	0xbdae957e	-0.08524607
142	0x3d6ab781	0.05730391
143	0xbca16238	-0.019700155
144	0xbc9bc563	-0.01901502
145	0xbdc93b88	-0.09825808
146	0xbde21334	-0.11038819
147	0xbde081f0	-0.109622836
148	0xbd90b25e	-0.07065271
149	0xbce3835a	-0.027772594
150	0x3b224d74	0.0024765404
151	0xbd3a5319	-0.045489404
152	0xbe0769a2	-0.1322389
153	0xbd025b0c	-0.03182511
154	0xbc0ab85c	-0.008466806
155	0x3bc600cd	0.006042576
156	0x3d3e7d2a	0.046506085
157	0xbdd09a8b	-0.10185727
158	0xbced35bb	-0.028956285
159	0x3caa8940	0.020817399
160	0x3cf50fd4	0.029914774
161	0x3be82c3d	0.0070853517
162	0xbb0ca889	-0.002146276
163	0x3dc33d76	0.09533207
164	0xbd66dda4	-0.056363717
165	0xbdbe6984	-0.09297469
166	0xbdeaea19	-0.11470432
167	0x3cefae10	0.029257804
168	0x3cbfa344	0.02339328
169	0x3d6391b2	0.055558868
170	0xbdaa35c3	-0.083110355
171	0x3c85ca28	0.016331747
172	0xbd1da543	-0.038487684
173	0xbd8cf9fd	-0.06883619
174	0xbd158683	-0.036505233
175	0x3cfc740a	0.03081705
176	0x3d3f857f	0.04675817
177	0xbd835402	-0.064125076
178	0x3d66c018	0.05633554
179	0x3cebe3e9	0.0287952
180	0xbda2384a	-0.079208925
181	0x3d5827e1	0.052772406
182	0xbdbf5340	-0.093420506
183	0xbdcae101	-0.09906197
184	0xbda07cca	-0.078363016
185	0xbd934d27	-0.0719245
186	0xbca9d016	-0.020729106
187	0x3d88c2d1	0.06677783
188	0xbc1d01d5	-0.009582956
189	0xbd2bb96f	-0.04192489
190	0xbd74aac0	-0.059733152
191	0xbd90c60a	-0.07069023
192	0xbc8c25f2	-0.017107937
193	0xbd1216bc	-0.035666212
194	0xbd311fe1	-0.043243293
195	0xbd9b2d95	-0.075770535
196	0xbdb3eac0	-0.087850094
197	0x3d3f4157	0.046693172
198	0xbd2b6754	-0.04184659
199	0xbd6f386a	-0.05840341
200	0xbdacf2f5	-0.08444778
201	0x3d294cf7	0.041333165
202	0xbd40e505	-0.04709341
203	0xbda19494	-0.07889667
204	0x3d059b9d	0.032619108
205	0xbbf0e89f	-0.0073519493
206	0xbdeaa3e8	-0.11457044
207	0xbe094c55	-0.13408025
208	0xbd4240db	-0.047425132
209	0xbd9a670d	-0.075391866
210	0x3c8c251c	0.017107539
211	0xbda7fce4	-0.08202532
212	0xbd9bcd17	-0.07607477
213	0x3da439a9	0.0801881
214	0xbd6a4d71	-0.05720276
215	0xbd76d4f7	-0.060261693
216	0xbd3f9e85	-0.046782035
217	0x3c377b5e	0.011198847
218	0xbca1074b	-0.019656798
219	0xbdc4f34f	-0.0961672
220	0xbd4b6cd4	-0.049664333
221	0xbd8d05b2	-0.06885852
222	0xbbb09aa4	-0.0053895283
223	0xbd3a938d	-0.04555087
224	0x3d51e943	0.051247846
225	0x3d516683	0.051123153
226	0xbdc59533	-0.09647598
227	0xbd31725f	-0.043321963
228	0xbdcfd7c0	-0.10148573
229	0x3c9bf238	0.019036397
230	0x3cce5443	0.025186663
231	0xbcca4100	-0.024689198
232	0x3bd04439	0.006355789
233	0xbd908b61	-0.070578344
234	0xbd9340a0	-0.071900606
235	0xbd5ba0e4	-0.053620234
236	0xbdb93067	-0.09042435
237	0x3b3b8ea7	0.0028618963
238	0x3d5282cc	0.05139427
239	0xbd836b6c	-0.064169735
240	0x3d1c513f	0.03816342
241	0xbdb70344	-0.0893617
242	0x3cea4167	0.02859564
243	0xbd8e6430	-0.06952703
244	0xbde9e28c	-0.114201635
245	0x3d0e394a	0.034722604
246	0xbdcd8dc4	-0.10036805
247	0x3c7b8906	0.015352493
248	0xbd923e08	-0.07140738
249	0xbd96224c	-0.0733076
250	0x3d4ba12c	0.049714252
251	0xbdc5f538	-0.096659124
252	0x3c646854	0.013940889
253	0xbdadc3fa	-0.08484645
254	0xbda6d17d	-0.081454255
255	0xbd9543e1	-0.072883375

lstm.weight_ih_l1 f4 [512, 128]
0	0xbdb2d580	-0.08732128
1	0x3d00f930	0.031487644
2	0xbc6c788c	-0.0144330375
3	0x3d8913ad	0.06693206
4	0xbbc5691b	-0.0060244924
5	0x3deb52ab	0.11490377
6	0xbd76b6a9	-0.060232792
7	0xbdd385bc	-0.10328242
8	0x3d336f62	0.043807395
9	0x3d94026f	0.07227027
10	0xbd783f65	-0.060607333
11	0x3da859fd	0.08220289
12	0x3da6ccf9	0.08144564
13	0x3da3bd5d	0.079951026
14	0xbc30047f	-0.010743259
15	0xbd10afce	-0.03532391
16	0x3e0befd7	0.1366571
17	0x3c8a38d6	0.016872805
18	0x3d961650	0.073284745
19	0x3d4dc1e9	0.050233755
20	0xbdeb6b3a	-0.11495061
21	0x3d2fd086	0.042923473
22	0x3da359f2	0.0797614
23	0x3cb2ec51	0.0218412
24	0xbd8683ef	-0.06568133
25	0xbce85693	-0.028361594
26	0x3cf4e82b	0.029895863
27	0xbd8242c8	-0.06360394
28	0xbd732ea9	-0.05937067
29	0x3c8c7311	0.017144712
30	0x3cf5309b	0.029930403
31	0x3d140e14	0.03614624
32	0xbc977ba9	-0.018491583
33	0xbccf02ca	-0.025269885
34	0xbda2ad79	-0.079432435
35	0xbc59e697	-0.013299606
36	0xbc96e770	-0.018420905
37	0xbd6a3629	-0.057180557
38	0x3da26716	0.07929818
39	0x3da4ea81	0.080525406
40	0x3d85b8b7	0.06529372
41	0x3d2ac6b2	0.041693397
42	0xbd76112e	-0.060074978
43	0x3cc9c059	0.024627851
44	0xbd5954d2	-0.053059407
45	0xbbfc4a43	-0.0076992824
46	0xbcee26ed	-0.029071296
47	0xbc6180ee	-0.013763649
48	0xbd058eb9	-0.032606814
49	0x3beb4517	0.007179867
50	0xbd3370b3	-0.04380865
51	0x3dcd6bbf	0.100303166
52	0x3d758b5c	0.059947357
53	0x3d6ec8cc	0.058296964
54	0xbd5c537c	-0.053790554
55	0x3b0b5e68	0.0021265987
56	0x3d5834be	0.052784674
57	0x3c660fd1	0.014041857
58	0xbc9c233d	-0.019059772
59	0xbc73a16e	-0.014870031
60	0x3dc720fe	0.0972309
61	0x3d1335bc	0.035939917
62	0x3d67bc57	0.0565761
63	0xbd734786	-0.059394382
64	0x3d3d3465	0.046192545
65	0x3d5286db	0.05139814
66	0xbdbb0878	-0.09132475
67	0x3d81ef1d	0.06344435
68	0xbc5eda5c	-0.013601866
69	0xbce79640	-0.028269887
70	0xbcda1efd	-0.026626104
71	0xbe016870	-0.12637496
72	0x3ddb5663	0.10709836
73	0x3d0bf4d3	0.03416903
74	0x3dc5c3cf	0.09656488
75	0xbcaacc56	-0.020849388
76	0x3d2fbf22	0.042906888
77	0xbd1712bc	-0.0368831
78	0xbc87cd81	-0.016577484
79	0x3dbee912	0.093217984
80	0x3baffde7	0.0053708437
81	0xbdbcb369	-0.09213907
82	0xbb702101	-0.0036640766
83	0x3d964b8c	0.07338628
84	0x3cb71b2a	0.02235182
85	0x3da84547	0.082163386
86	0x3bb51826	0.0055265604
87	0xbdc18e84	-0.09451011
88	0x3d7798f4	0.0604486
89	0x3db62172	0.08893098
90	0x3db94c77	0.09047788
91	0xbd5b35b9	-0.05351803
92	0xbc96c860	-0.018406093
93	0x3d58262f	0.05277079
94	0x3cdd2caf	0.026998846
95	0xbd798be3	-0.060924422
96	0x3db65801	0.08903504
97	0x3de4d0cb	0.111726366
98	0x3d16e517	0.03683957
99	0x3d912871	0.07087792
100	0xbd5865e9	-0.052831564
101	0xbc97c7b0	-0.018527836
102	0x3da1c91f	0.07899689
103	0x3da41f5c	0.08013794
104	0xbd7d4311	-0.061831538
105	0x3dbc1a07	0.09184652
106	0x3ce7ce2c	0.028296553
107	0x3cea12be	0.02857339
108	0x3b92236d	0.0044597895
109	0x3d41d39f	0.04732096
110	0xbc8997c3	-0.016795998
111	0xbca065aa	-0.019579727
112	0xbb914706	-0.0044335155
113	0x3bd84f47	0.0066012475
114	0x3ddd3d1a	0.1080267
115	0xbd53b283	-0.051683914
116	0xbd9fa576	-0.07795231
117	0x3d97d3ba	0.074134305
118	0xbd31ed30	-0.04343909
119	0x3bef190c	0.007296687
120	0xbd7f0dea	-0.06226913
121	0xbceb116e	-0.028694835
122	0xbd3d7392	-0.046252795
123	0x3c36bd99	0.011153602
124	0x3ddb5ee4	0.10711458
125	0xbba86edf	-0.00514017
126	0xbdd3c824	-0.10340908
127	0x3d6b517e	0.057450764
128	0x3d91c073	0.07116785
129	0xbd4ecdcc	-0.050489232
130	0xbda2d529	-0.07950813
131	0x3db7a8f6	0.089677736
132	0xbc9b26da	-0.018939424
133	0x3dad32ac	0.084569305
134	0xbd85caf9	-0.065328546
135	0x3d208c82	0.0391965
136	0x3c123ef2	0.00892614
137	0xbc1cb7bd	-0.009565291
138	0xbd1d7e99	-0.03845081
139	0x3ce9ffc5	0.028564343
140	0xbd7edfd6	-0.062225185
141	0x3cb8c2d2	0.022553835
142	0xbd5bcebe	-0.05366396
143	0x3d8a4b0d	0.06752596
144	0x3d2e2c41	0.042522673
145	0x3d2f4f65	0.042800326
146	0x3d2f5341	0.042804006
147	0x3da318e5	0.07963733
148	0xbd5f2ef1	-0.054488126
149	0x3d17f919	0.037102792
150	0xbcc6671e	-0.024219092
151	0xbcd46b7c	-0.025930159
152	0xbcee3916	-0.029079955
153	0x3b431b4a	0.0029770904
154	0xbd099cbf	-0.03359675
155	0x3d96b05f	0.07357859
156	0xbdad3324	-0.0845702
157	0xbc412b79	-0.01179015
158	0xbd94a8bc	-0.07258746
159	0x3c5c6aa4	0.0134531595
160	0xbbfd3ecb	-0.007728433
161	0xbd119159	-0.035539005
162	0xbcb0cdab	-0.021582445
163	0xbd7fb35b	-0.062426906
164	0xbdbe2b14	-0.0928556
165	0xbd0ce074	-0.034393743
166	0xbd8297f6	-0.063766405
167	0xbcdd5080	-0.027015924
168	0x3cea0528	0.028566912
169	0x3c4afdb9	0.012389594
170	0xbbb7aa05	-0.0056049847
171	0x3d077544	0.033070818
172	0xbcc3f557	-0.023920698
173	0x3cd8c68a	0.026461858
174	0x3d3d7b43	0.04626013
175	0xbb81f0e6	-0.003965485
176	0xbcaa1b4f	-0.020764975
177	0xbd3d9f06	-0.046294235
178	0x3da0e516	0.07856195
179	0x3d1bd696	0.038046442
180	0x3bf978ca	0.007613276
181	0xbc913c24	-0.017728873
182	0x3d78b9b2	0.060723968
183	0xbd15868b	-0.036505263
184	0xbc5a6fb4	-0.013332296
185	0x3d8c26ba	0.06843324
186	0xbd6af75e	-0.057364814
187	0xbd6ef61b	-0.058340173
188	0x3ca3a4b1	0.019975992
189	0xbc609dde	-0.0137095135
190	0xbd28b3f0	-0.041187227
191	0xbc1bb2c1	-0.0095030675
192	0xbc0470f9	-0.008083575
193	0xbd4a6701	-0.04941464
194	0x3c0d1add	0.008612362
195	0x3c4917e2	0.0122737605
196	0x3d54208f	0.051788863
197	0xbcbf8161	-0.023377122
198	0xbc7cac8b	-0.015421997
199	0x3d2365a3	0.03989185
200	0xbdab1ab8	-0.083547056
201	0xbd713535	-0.058888633
202	0x3dc8ec39	0.09810681
203	0x3d998d35	0.07497636
204	0x3d70f96a	0.05883161
205	0xbc409861	-0.01175508
206	0xbd322cba	-0.043499686
207	0x3d7a05c6	0.061040662
208	0xbd3ac555	-0.045598347
209	0x3c3ed205	0.011646752
210	0xb9c1320a	-0.0003684911
211	0xbd11d599	-0.035604093
212	0x3c39d265	0.011341666
213	0x3d0cc0b2	0.034363456
214	0x3c20de7d	0.00981867
215	0x3d371e76	0.044706784
216	0x3d5daa2b	0.054117363
217	0xbc79d2aa	-0.01524798
218	0x3d87440b	0.06604775
219	0x3c7744e7	0.015092111
220	0xbd822166	-0.063540265
221	0xbd0f794d	-0.03502779
222	0x3dd88305	0.10571865
223	0x3cc626f9	0.024188505
224	0xbdc0a870	-0.09407127
225	0x3dad6360	0.0846622
226	0x3d4b2750	0.04959804
227	0xbd7d329b	-0.06181584
228	0x3d645799	0.055747602
229	0x3d9f4ec0	0.07778692
230	0x3d69f9c1	0.05712295
231	0xbc8b36b7	-0.016993864
232	0xbd95ee8e	-0.07320891
233	0x3d49b4d3	0.049244713
234	0xbd5a831a	-0.053347684
235	0x3cf9b866	0.030483436
236	0x3d94b4c6	0.07261042
237	0xbcf7176a	-0.030162532
238	0x3c0bef4b	0.008540939
239	0xbc2ccdf4	-0.01054715
240	0xbd575f47	-0.052581098
241	0xbd45dbc7	-0.0483053
242	0xbd6455cd	-0.05574589
243	0x3d63bde6	0.055601023
244	0x3dc5997d	0.09648416
245	0x3dbda06e	0.09259115
246	0x3c128709	0.008943328
247	0xbc2bbd89	-0.0104822
248	0x3d414a5f	0.047190066
249	0xbc775af4	-0.0150973685
250	0x3c0e9a42	0.00870377
251	0x3d985f0c	0.07440004
252	0xbcafae03	-0.02144528
253	0xbceff047	-0.029289378
254	0xbd534f95	-0.051589567
255	0x3b9ff451	0.0048814197

lstm.weight_hh_l1 f4 [512, 128]
0	0x3cb209b6	0.021733146
1	0x3daf5334	0.085607916
2	0x3d539452	0.05165512
3	0xbd809b16	-0.0627958
4	0x3d90aff1	0.07064808
5	0x3c85ec9f	0.016348181
6	0xbbf66a3c	-0.0075199883
7	0xbca71903	-0.020397669
8	0x3be7fb45	0.007079514
9	0x3d6a8575	0.05725618
10	0x3cdbb773	0.026820874
11	0x3cbf70e6	0.023369264
12	0xbc41aabd	-0.011820492
13	0xbd9ae54f	-0.075632684
14	0x3c5e5052	0.013568955
15	0xbd37593c	-0.044762835
16	0x3dbc6390	0.091986775
17	0xbcb4a237	-0.022050006
18	0xbbf5b63e	-0.0074985316
19	0x3c42aa8f	0.011881485
20	0x3d08cfd7	0.033401337
21	0x3d9285b1	0.07154406
22	0xbd557656	-0.052114807
23	0xbd0de452	-0.03464157
24	0xbd3640a4	-0.04449524
25	0x3ba5e006	0.005062106
26	0xbd0774ff	-0.03307056
27	0xbc8d450d	-0.01724484
28	0xbd1f40fd	-0.038880337
29	0xba8a1f3d	-0.0010537874
30	0x3dd7e20e	0.105411634
31	0xbbc32b45	-0.005956086
32	0xbc0ba7e8	-0.008523919
33	0x3c055030	0.008136794
34	0x3d321451	0.043476406
35	0xbd8bb5b3	-0.06821766
36	0xbdbe989d	-0.093064524
37	0xbd7a210e	-0.06106668
38	0x3caa095c	0.020756416
39	0xbda91be9	-0.082572766
40	0xbdbd5a0b	-0.0924569
41	0xbc501b09	-0.012701758
42	0x3d10586c	0.035240576
43	0xbd8cc6cd	-0.06873856
44	0x3db053b1	0.08609713
45	0xbdb262c9	-0.08710248
46	0xbceeb63e	-0.029139634
47	0xbd8e0810	-0.069351315
48	0x3dc7c926	0.09755163
49	0x3d424277	0.047426667
50	0xbdb807a7	-0.089858346
51	0x3c880cea	0.01660772
52	0xbd4cf32d	-0.050036598
53	0xbdb098e1	-0.08622909
54	0xbd02225c	-0.03177105
55	0x3d01bb01	0.03167248
56	0x3db5bbfd	0.088737465
57	0x3cf566cc	0.029956244
58	0x3d2edce8	0.04269114
59	0xbd98f392	-0.07468332
60	0x3d844231	0.064579375
61	0xba88a090	-0.0010423828
62	0xbc12cb54	-0.00895961
63	0xbcfc3d78	-0.03079103
64	0xbd900708	-0.07032591
65	0xbd96bb46	-0.07359938
66	0xbc8589a7	-0.01630099
67	0x3dc77b17	0.097402744
68	0xbd210d99	-0.03931961
69	0xbd861416	-0.065468
70	0xbd5c3f7e	-0.05377149
71	0x3d7a6b80	0.061137676
72	0xbd9ba125	-0.07599095
73	0x3d316369	0.043307696
74	0x3d3a22ae	0.04544323
75	0xbd3a7a35	-0.045526702
76	0xbd2d4c33	-0.042308997
77	0x3c73b7d7	0.014875374
78	0x3d4fda63	0.05074538
79	0x3d913246	0.07089667
80	0x3d08444b	0.033268254
81	0xbd086244	-0.03329684
82	0xbcd52c9e	-0.026022252
83	0x3cb26668	0.021777347
84	0x3da7cd0f	0.08193409
85	0x3d64caea	0.055857576
86	0xbc8ad8cc	-0.01694908
87	0x3c0dfaa3	0.0086657135
88	0xbcd48040	-0.02594006
89	0x3d7a8bea	0.06116859
90	0xbd7bbd7f	-0.061460014
91	0x3cc968dd	0.024586136
92	0x3d844054	0.06457582
93	0x3d96b414	0.07358566
94	0xbd423a34	-0.047418788
95	0x3cc3e744	0.023913987
96	0xbdaa4024	-0.08313015
97	0x3d61004d	0.054931927
98	0xbc6b3f8f	-0.014358415
99	0xbdb3313b	-0.08749624
100	0xbd8106b7	-0.06300109
101	0xbd97d315	-0.074133076
102	0xbd7f213c	-0.062287554
103	0xbda53d4b	-0.08068331
104	0xbcf3ffa0	-0.029784977
105	0x3d701390	0.058612406
106	0x3d92e21b	0.071720324
107	0xbdc368a4	-0.09541443
108	0x3d678392	0.05652196
109	0xbcbfcb49	-0.023412364
110	0x3d654a60	0.055979133
111	0x3db9dcb9	0.09075303
112	0x3d34dff0	0.044158876
113	0xbd87290b	-0.06599625
114	0x3d860cf5	0.0654544
115	0x3c4e5211	0.012592808
116	0xbd08cf34	-0.03340073
117	0xbd4a0b78	-0.049327344
118	0x3d42bcc4	0.047543302
119	0x3c04219b	0.008064653
120	0x3cb85391	0.022500785
121	0x3cfcf7ff	0.030879973
122	0x3da24ebe	0.07925175
123	0x3d914d0b	0.07094773
124	0xbca47377	-0.02007459
125	0x3b2affaf	0.002609234
126	0xbd0ab3e3	-0.03386296
127	0xbd5a19ee	-0.053247385
128	0xbdd2c7e3	-0.102920316
129	0xbdc671de	-0.09689687
130	0xbdb9a731	-0.09065092
131	0x3dc7d4ee	0.0975741
132	0xbd079cb5	-0.03310843
133	0xbcd652c3	-0.02616251
134	0x3dd87b1f	0.105703585
135	0x3bf63597	0.0075137126
136	0x3dc932a1	0.0982411
137	0xbc739be0	-0.014868706
138	0xbc0982cf	-0.008393004
139	0xbc25c1b6	-0.010116985
140	0x3a86dbdc	0.0010288912
141	0xbddb65a5	-0.107127465
142	0xbd17fb52	-0.037104912
143	0xbcfc71af	-0.030815927
144	0x3d92a1fe	0.07159804
145	0xbb827283	-0.003980936
146	0x3da3d57a	0.07999702
147	0xbd8eaa9e	-0.069661364
148	0x3d509b86	0.05092957
149	0x3c5af783	0.013364675
150	0xbd62cbc1	-0.055370096
151	0x3d61aa79	0.055094216
152	0x3c2f6022	0.010704072
153	0xbcee5fc5	-0.0290984
154	0xbd99f23a	-0.07516904
155	0xbd1a3d29	-0.037655983
156	0xbd523971	-0.05132431
157	0xbc4d1451	-0.012517051
158	0x3defd1ab	0.11709913
159	0xbdc09ad6	-0.094045326
160	0x3d39f005	0.045394916
161	0x3d1fb48e	0.03899055
162	0xbca03345	-0.019555697
163	0x3d224f2d	0.03962629
164	0xbcfbb0e3	-0.030723995
165	0x3d8d8ad4	0.06911245
166	0x3d0e7d27	0.034787323
167	0xbd600a7b	-0.054697495
168	0xbdc4682c	-0.09590182
169	0x3d231e1d	0.03982364
170	0x3c5f456a	0.013627389
171	0x3b56cb80	0.0032775104
172	0xbc892edd	-0.016745979
173	0xbc45f6ce	-0.012082769
174	0x3d2b15d6	0.04176887
175	0x3ccadc0c	0.02476313
176	0xbd4d14e7	-0.050068762
177	0x3ca20fbc	0.019782893
178	0xbbc95d88	-0.006145183
179	0x3c9d0fd6	0.01917259
180	0xbdba5562	-0.09098317
181	0x3d722980	0.05912161
182	0xbd5b14b3	-0.053486537
183	0xbbd9b484	-0.0066438336
184	0xbc202108	-0.0097735
185	0x3d847658	0.06467885
186	0xbcf503f2	-0.029909108
187	0x3bf60ff5	0.0075092264
188	0xbd31d333	-0.043414306
189	0xbd28b010	-0.04118353
190	0xbd433182	-0.047654636
191	0x3d5aaf4f	0.053389844
192	0x3d15f59b	0.03661118
193	0x3da92a1d	0.082599856
194	0xbd6ca87a	-0.05777786
195	0x3cf66083	0.030075317
196	0xbd3ab9db	-0.0455874
197	0x3d4960ec	0.049164698
198	0xbd38d152	-0.0451215
199	0x3c852e0e	0.016257312
200	0x3def4a50	0.11684096
201	0x3cf5c37c	0.03000044
202	0xbdca4f6a	-0.09878428
203	0xbc2421c2	-0.010017814
204	0x3daef90d	0.085435964
205	0xbd98ad50	-0.07454932
206	0xbd2fb915	-0.042901117
207	0xbcf21b77	-0.029554112
208	0xbc596d71	-0.013270722
209	0x3d98e0bc	0.0746474
210	0xbd257e06	-0.04040339
211	0xbd1cbf63	-0.038268458
212	0xbd81449d	-0.06311915
213	0x3ca7a65d	0.02046507
214	0x3d0192a3	0.031633984
215	0x3d13a80b	0.03604893
216	0xbd6e12ea	-0.058123507
217	0x3d719bf5	0.058986623
218	0x3c8ab6d3	0.01693288
219	0x3de5f057	0.11227482
220	0xbd27b33a	-0.04094241
221	0xbd6f7c6a	-0.05846826
222	0xba79a8c4	-0.0009523744
223	0xbd81f1a7	-0.0634492
224	0x3c0229ad	0.007944507
225	0xbbe93f02	-0.007118107
226	0x3cffeedf	0.031241832
227	0x3cd1dd02	0.02561808
228	0x3d52165e	0.051290862
229	0x3c7af90a	0.015318165
230	0xbd8e7a71	-0.069569476
231	0xbcbe0bf2	-0.023199055
232	0x3c0b0d53	0.008487063
233	0x3ce61aac	0.02808889
234	0x3d1be59e	0.038060777
235	0xbd07caf3	-0.03315253
236	0xbdc6f2e4	-0.097142965
237	0xbd7a76f3	-0.061148595
238	0xbddb28d4	-0.10701147
239	0x3dca1039	0.098663755
240	0xbdd3427f	-0.103154175
241	0xbda178b2	-0.07884349
242	0x3d7b3c2a	0.061336674
243	0x3cd53c40	0.026029706
244	0x3d160333	0.036624145
245	0x3dc20736	0.094740316
246	0x3da3290c	0.079668134
247	0x3ca94e58	0.02066724
248	0xbd81b79c	-0.06333849
249	0x3be77cb8	0.007064428
250	0xbdb63740	-0.08897257
251	0xbdd3adbe	-0.10335873
252	0xbc948351	-0.018129023
253	0xbcf1cd4f	-0.029516844
254	0xbde177c0	-0.110091686
255	0xbca0b5b0	-0.019617885

lstm.bias_ih_l1 f4 [512]
0	0xbd63eadc	-0.0556439
1	0xbcba7208	-0.022759452
2	0xbd6937a6	-0.056937836
3	0xbd8f5ab5	-0.06999723
4	0x3da609b8	0.081073225
5	0x3d9d9b60	0.07695651
6	0xba91b8f6	-0.0011117745
7	0xbd4f75c6	-0.050649427
8	0x3d0c5a35	0.034265716
9	0x3d59a2f9	0.05313394
10	0x3ccb9884	0.024852999
11	0x3d094954	0.033517197
12	0x3d00b923	0.03142656
13	0x3d94d408	0.07267004
14	0xbde3fdc0	-0.11132383
15	0xbc2fdca6	-0.010733759
16	0xbd1b31a9	-0.037889156
17	0xbceb1f2f	-0.028701393
18	0x3cf312d1	0.029672058
19	0xbd1cefa9	-0.038314495
20	0x3d2f220f	0.04275709
21	0xbd3d5b33	-0.046229552
22	0xbd6bfd23	-0.057614457
23	0xbd8c52a2	-0.068516985
24	0x3cfd88a4	0.030948944
25	0xbb372353	-0.002794464
26	0x3d651e65	0.05593719
27	0x3c74e975	0.014948239
28	0xbd677006	-0.05650332
29	0x3d95a6b1	0.073071845
30	0x3d63cc37	0.055614676
31	0xbca5eb3a	-0.020253766
32	0xbd610108	-0.054932624
33	0xbd8f2b70	-0.06990707
34	0xbd8c6f81	-0.06857205
35	0xbd52306c	-0.05131571
36	0xbdbd8cb5	-0.09255353
37	0xbcccb8fc	-0.024990551
38	0x3c8fed51	0.017569216
39	0xbd3fd766	-0.04683628
40	0xbd55cf42	-0.05219961
41	0xbd919dfd	-0.07110212
42	0xbc879a56	-0.016553085
43	0x3d0e095f	0.034676906
44	0x3d5d98d9	0.054100845
45	0xbd34c5da	-0.044134
46	0xbc93df6a	-0.018050868
47	0x3d51d841	0.051231626
48	0xbd863348	-0.0655275
49	0x3c6798ba	0.014135534
50	0xbcc6b1ba	-0.024254669
51	0xbdb89987	-0.09013658
52	0xbd6199e6	-0.05507841
53	0x3b997f52	0.004684367
54	0x3cd8685e	0.026416954
55	0xbd86b9bb	-0.06578394
56	0xbcdffa21	-0.02734095
57	0xbcbc97d2	-0.023021612
58	0x3cceb7b9	0.02523409
59	0xbd46354d	-0.048390675
60	0x3ce0184b	0.027355334
61	0x3d150d60	0.03638971
62	0xbd04411f	-0.032288667
63	0xbb6cc8e8	-0.0036130492
64	0x3d05b606	0.032644294
65	0xbd4d8ae2	-0.050181277
66	0xbd5ae091	-0.05343682
67	0xbd376450	-0.0447734
68	0xbd80fdb8	-0.06298393
69	0xbdcf74a4	-0.10129669
70	0xbd1a09d3	-0.037607025
71	0xb8f2131f	-0.00011543021
72	0xbcc95d07	-0.024580492
73	0xbd972eba	-0.07381959
74	0x3d2c936d	0.042132784
75	0xbd9c0811	-0.07618726
76	0x3cab77f9	0.02093123
77	0x3d3776bf	0.04479098
78	0xbd8f2633	-0.06989708
79	0xbc1c0f0e	-0.009525074
80	0xbd676e46	-0.05650165
81	0x3d5a42f1	0.053286497
82	0xbd016cbf	-0.03159785
83	0xbbbcdd1d	-0.0057636634
84	0xbd9406b0	-0.07227838
85	0xbbab5279	-0.0052283374
86	0xbd0052fe	-0.031329148
87	0x3d6633ca	0.056201734
88	0xbd71aa59	-0.059000347
89	0x3d2821fd	0.04104804
90	0xbd07da1a	-0.033166982
91	0x3bdbfae6	0.006713259
92	0xbd39b84a	-0.045341767
93	0xbbf63660	-0.007513806
94	0xbceaab32	-0.028646085
95	0x3dba8688	0.09107691
96	0xbd5e716b	-0.054307383
97	0x3d3f45f8	0.046697587
98	0xbd0bccfd	-0.03413104
99	0x3d5f2533	0.054478835
100	0xbdcb3c10	-0.099235654
101	0x3d86e6a2	0.065869585
102	0xbd177456	-0.03697618
103	0xbbd3b423	-0.006460683
104	0x3d13bb99	0.03606758
105	0xbc253bc8	-0.010085054
106	0x3d0179b0	0.03161019
107	0x3d94433c	0.072393864
108	0xbda04ccd	-0.078271486
109	0x3c931a47	0.017956866
110	0xbd92a919	-0.07161159
111	0xbdbbde5d	-0.09173272
112	0x3c854bb6	0.016271453
113	0xbc8ab26a	-0.016930778
114	0xbd4cb40b	-0.04997639
115	0xbcc6a5d6	-0.024248999
116	0xbd9253cc	-0.07144889
117	0x3c7312f9	0.014836066
118	0xbcaed7cc	-0.021343134
119	0x3d2bdfea	0.041961588
120	0xbaa93302	-0.0012908878
121	0xbd122146	-0.035676263
122	0x3d378073	0.044800233
123	0x3d2b71cb	0.04185657
124	0xbd33922e	-0.04384058
125	0xbd0ceb57	-0.034404125
126	0x3d011259	0.03151164
127	0xbd6c44cd	-0.0576828
128	0x3c7b72d0	0.015347198
129	0xbd94c2f3	-0.07263746
130	0x3d30cc99	0.04316387
131	0xbd06490d	-0.03278451
132	0xbd87d016	-0.06631486
133	0x3cc84f52	0.024451885
134	0xbc896f14	-0.016776599
135	0xbc8c87c9	-0.017154591
136	0x3ce75797	0.028240008
137	0xbda6ca29	-0.08144028
138	0xbd92afd5	-0.071624435
139	0xbc59e220	-0.013298541
140	0x3d71ac52	0.059002228
141	0x3d2532c2	0.04033161
142	0xbd9e914e	-0.077425584
143	0xbd6b0d1e	-0.057385556
144	0xbcea6459	-0.028612303
145	0x3b8ab845	0.0042333924
146	0x3d3186c6	0.04334142
147	0x3b256c61	0.00252416
148	0x3da06a47	0.07832771
149	0x3d17a338	0.037020892
150	0x3d73bee4	0.05950822
151	0x3cfa861e	0.03058153
152	0xbdb38f57	-0.08767574
153	0xbc663301	-0.014050246
154	0xbcb780a5	-0.02240021
155	0x3d8be014	0.06829849
156	0x3d2e2f4f	0.042525586
157	0xbd8a60a6	-0.067567155
158	0x3d5190e3	0.051163565
159	0x3b00bc2a	0.0019643405
160	0xbdc29419	-0.09500904
161	0x3d715800	0.058921814
162	0xbc04d049	-0.0081063
163	0x3d9ba53e	0.07599877
164	0xbbed8da0	-0.007249549
165	0xbcc98936	-0.02460156
166	0xbd3b60a9	-0.04574648
167	0xbd1d4783	-0.038398277
168	0x3d8b711b	0.068086825
169	0x3ce1a351	0.027543696
170	0xbd4591c6	-0.048234724
171	0x3d9173f9	0.07102198
172	0xbd098bd3	-0.033580612
173	0xbd8c10ec	-0.06839165
174	0xbc294f4a	-0.010333845
175	0xbc63581d	-0.013875988
176	0x3b290e15	0.0025795747
177	0xbc65b7b0	-0.014020845
178	0x3cef921f	0.02924448
179	0xbca33e51	-0.019927176
180	0xbdc87bee	-0.09789263
181	0xbd5db80d	-0.054130603
182	0xba814716	-0.0009863104
183	0xbdaaf3a3	-0.08347251
184	0xba165f9b	-0.0005736292
185	0x3bc23259	0.005926412
186	0xbcd74010	-0.026275665
187	0xbd502085	-0.050812263
188	0x3d8ae558	0.06782025
189	0xbdb5ff6a	-0.08886607
190	0xbbc2055c	-0.005921049
191	0xbd4b0e41	-0.04957414
192	0x3d947ced	0.0725039
193	0x3d2a0302	0.041506775
194	0x3c2c2ba4	0.010508452
195	0xbd8ac0ed	-0.06775079
196	0xbdaaa741	-0.083326824
197	0xbd7978bd	-0.06090616
198	0x3d039a7a	0.032129742
199	0xbc93bfa9	-0.018035727
200	0x3d1f52e9	0.03889743
201	0xbd828058	-0.06372136
202	0xbd3a611d	-0.04550277
203	0xbd623b7f	-0.05523252
204	0xbd5852f2	-0.052813478
205	0xbce97dcf	-0.028502373
206	0xbdc3c0e3	-0.095582746
207	0xbd1ec165	-0.038758654
208	0x3c08624c	0.008324217
209	0x3b63bc51	0.0034749696
210	0xbd9be7d7	-0.07612579
211	0x3d897d33	0.06713333
212	0x3d9a561f	0.075359575
213	0xbd107968	-0.035272032
214	0x3d9937f1	0.07481373
215	0xbd1db2c1	-0.03850055
216	0xbda151c6	-0.07876925
217	0xbd54141e	-0.051776998
218	0x3d64f4f4	0.055897668
219	0x3d3f99ec	0.04677765
220	0x3da0e0c7	0.07855373
221	0x3d258929	0.04041401
222	0x3d6e48bc	0.058174834
223	0x3db78197	0.08960264
224	0x3d38ab8f	0.045085486
225	0xbd3efb54	-0.046626404
226	0xbd935583	-0.071940444
227	0x3d8ed531	0.06974257
228	0x3d0c618d	0.03427272
229	0x3d73297a	0.059365727
230	0xbdcbe6e2	-0.09956147
231	0xbc9e5f96	-0.019332688
232	0xbce1c60b	-0.027560255
233	0xbdb30583	-0.08741286
234	0xbac545d1	-0.0015050714
235	0x3d689a47	0.056787755
236	0xbd47040b	-0.04858784
237	0xbd16b0b8	-0.036789626
238	0x3d5413de	0.05177676
239	0xbd4f65a0	-0.050634027
240	0xbd18419f	-0.037171956
241	0x3d56c450	0.052433312
242	0xbd536f05	-0.05161955
243	0xbcf34b7c	-0.02969908
244	0x3d8045a7	0.06263285
245	0x3d4361f4	0.047700837
246	0x3d266783	0.04062606
247	0x3ca216ee	0.019786324
248	0x3da3b15b	0.07992812
249	0x3c066fa8	0.008205332
250	0xbcc5b6d0	-0.024135023
251	0x3d475f68	0.04867497
252	0x3d4e912d	0.05043142
253	0x3cc6fa18	0.024289176
254	0x3d142208	0.036165267
255	0x3d41bc03	0.047298443
