backend/ml_models/PETR4.SA/model.pt (torch, 807686 bytes, 9 tensors)

lstm.weight_ih_l0 f4 [512, 5]
00000000: 222e ad3d 2c0f 25bd ae04 5e3d b641 993d
00000010: b9e4 053d 49e1 b23d 0fe7 91bc f310 003d
00000020: 07c4 0a3d 0231 43bd c478 b83d a12d 11bd
00000030: e9b6 453c 7f3d 9d3d 9990 02b9 b2a6 c23d
00000040: 488e 993b 4457 4c3d 15c3 743d 806a 4d3d
00000050: 9efc 393c 7a09 c83c 7981 bbbc 0689 ccbc
00000060: 69b7 c2bc 7160 c43c 6466 ad3c f128 8f3d
00000070: acbd 99bc ccba ee3c b2e3 f43d 5de1 073d
00000080: 634c 293e ef8e 173d c8eb 433e 9a3b c3bc
00000090: a307 94bc ed6d 583d 1c6e ff3c 8a7d cfbd
000000a0: 9dae 843d d697 f03c b418 aa3d edce 0b3e
000000b0: c2f8 4e3d 4b90 6b3d c78b 133c 6c18 a33d
000000c0: 57e3 9e3c 1b87 a03c 6932 653d 64cf f33c
000000d0: 6bd3 b73d 13a7 0b3e 419b 0abc 1713 8b3d
000000e0: 6187 ec3d bfcc dc3c 432e bb3d 3b98 24bd
000000f0: 63fe 7fbd b616 54bd 3c8e 5a3d 28cb 3a3d
00000100: 913f 9f3c 4d31 243e 37d6 ec3d 14bf 2e3d
00000110: 66e9 433d 4bf0 983d 1444 893d 04a0 093d
00000120: 4d05 0cbd b7f7 813d 8137 9cbd f2e6 8f3c
00000130: aa08 87bc 3794 6ebc 7378 75bd 24ed c13d
00000140: 25dc cd3d 87cd 2bbd 8dc8 f6bc e21e e53b
00000150: 36a6 cbbb cd1e 553d 90e9 4cbd 3c4e 82bd
00000160: 6fcd 09bb c7df 2c3d cb2a 5a3b d387 b43d
00000170: e7f1 9a3d 3cd5 85bc ca70 acbe 8125 793d
00000180: d4f5 85bc 31c1 e23c 0f14 6e3c 4197 fe3c
00000190: 015a 613d f54a cdbc 2b93 cb3c 662b 803d
000001a0: 5281 223d 75a0 933d c6e5 cfbb c85c e73d
000001b0: bbf0 1f3d 928c 1a3b 4272 efbc 641a c73d
000001c0: 1b15 453d 3fa8 043d 0f35 323d 6d56 d9bc
000001d0: 64f3 aabc 17f1 f83c 7669 ca3d 3899 5e3d
000001e0: c171 b83d 81f1 00bc 28c9 ba3c a44a d93d
000001f0: 96ff 493d 260d e73d 8497 953c 40dc 8c3d
00000200: 72f2 11bd 13b9 5abc e42d a93c 41e8 0e3d
00000210: 148a d53d 5fc8 ee3d 19e3 95bd fbcb d63c
00000220: bf74 263e c16d 3e3d e731 1a3e 9dea 6f3e
00000230: 5a76 d0bc 27a9 f73c b516 1fbd 50b6 10bd
00000240: 2951 9fbd e649 d93d 4b5b 883d b804 103e
00000250: 67ab f53d 4c74 b83d 45dd c5bc 85a3 1c3d
00000260: efec d53c 04d1 d03d ce48 503d 4d0f 27bd
00000270: 7696 193d 509c 6fbd 6d5b e1bc 2799 cebc
00000280: 82bc e93d 439d fc3d d581 5c3c 02c2 c33c
00000290: 82a7 b03d fdd4 b43b 3004 c73d 6cff 233d
000002a0: ac53 1abc 738b b33c 1026 cf3d 2ae7 213d
000002b0: 3dde a33d 8bda b03d a408 923d 1c39 c3bc
000002c0: 070e b53d 0d92 34bc e1ba 93bc edb9 fd3d
000002d0: a062 17bd 32b4 bbbb 1e85 fb3c 62ba 1f3d
000002e0: 47ae 043d 16bc 6b3d ff79 153d 41c8 993b
000002f0: 00bb 913d ca61 963d a965 be3d 6038 a93d
00000300: 26b3 bdbb ff11 503d a06d b63d 1cc3 f43d
00000310: 3e0b ae3d a135 623d 8935 9abb a49d d1bb
00000320: 3ffa b9bd 6759 71bd c79f e1bd 5dd8 d5bc
00000330: 435f 1f3d 78fd 323b b142 98bd 84d7 653d
00000340: 70d6 573d 0755 cebd 19fb 373d b56c 12bb
00000350: 9f51 50bc d5da b33c b516 153e 34dc 963a
00000360: 76ab 753d 9ef5 a43b 5826 ed3c 15f8 963c
00000370: 74e0 143d 328e b1bd 9d80 423c 0f7f 83bd
00000380: 7f23 3abd 21e7 c03c e920 bd3c 2af0 db3d
00000390: 3619 d03d 0413 17bd 4442 ac3c 946f 36bc
000003a0: 137b 09bd 87c8 c53d d9c3 b4bc 9c48 373d
000003b0: 8f81 923c 8b0c 09bd 7481 cb3d b268 d13c
000003c0: f16c f33b fea8 dc3c a089 693c 163b 203a
000003d0: 7110 8cbc 9f70 943d c47d c5bb d95d 943d
000003e0: 5e6b 0d3e 5307 dfbc ccbe 8cbc 0118 c53d
000003f0: 3891 25bd 2b6d ad3d 4af2 b5bd 3a11 5abd
0.08456065 -0.040297672 0.05420368 0.074832365 0.03268883 0.08734376 -0.017810373 0.031266164
0.033878352 -0.04765416 0.09007409 -0.035443906 0.012067535 0.07677745 -0.00012451633 0.09504451
0.0046861507 0.04988791 0.059756357 0.050150394 0.011351733 0.024418581 -0.022888886 -0.024967682
-0.023769097 0.023971768 0.021166988 0.06990231 -0.0187672 0.029141806 0.11957492 0.033173908
0.16533045 0.037001546 0.19132912 -0.023832131 -0.018070048 0.05283921 0.031180434 -0.101313666
0.06478617 0.029369276 0.08305493 0.13653155 0.050530203 0.057510655 0.0090054935 0.079636425
0.019395513 0.019595673 0.055956278 0.029761977 0.08975872 0.13637953 -0.008459867 0.067907505
0.11549259 0.0269531 0.09139683 -0.04018424 -0.06249846 -0.05177947 0.0533583 0.0456039
0.01943949 0.16034432 0.11564296 0.042662695 0.047830008 0.07467707 0.06702438 0.03359987
-0.034184743 0.06346076 -0.07627774 0.017566178 -0.016483624 -0.014561704 -0.059929322 0.09469059
0.10051755 -0.041944053 -0.030124927 0.006992207 -0.0062148822 0.052031327 -0.05002743 -0.06362578
-0.002102699 0.0422056 0.0033289667 0.08814969 0.075656705 -0.01633703 -0.336798 0.060826782
-0.016352572 0.027680011 0.0145311495 0.031077983 0.055017475 -0.025060156 0.024850449 0.062582776
0.03967411 0.07208339 -0.00634453 0.112969935 0.039047938 0.0023582322 -0.029229287 0.097218305
0.04811583 0.032387014 0.043507632 -0.026530469 -0.02086801 0.030388398 0.09883396 0.05434534
0.09006072 -0.007870079 0.022800997 0.1060994 0.04931601 0.11281805 0.018260725 0.06877947
-0.035631604 -0.013349789 0.020651765 0.034889463 0.10426727 0.116593115 -0.07318706 0.026220312
0.16255473 0.04649139 0.15058099 0.23429342 -0.02544706 0.030232025 -0.038840014 -0.035330117
-0.07779152 0.10609798 0.06658038 0.140643 0.11995583 0.09006557 -0.024153361 0.038241882
0.026113955 0.101961166 0.050850682 -0.040786076 0.037497006 -0.05849868 -0.027509416 -0.025219513
0.11412908 0.12334683 0.013458689 0.023896221 0.086256996 0.0055185542 0.097175956 0.04003851
-0.009419363 0.02191708 0.10114682 0.039527096 0.08001373 0.08635434 0.07130554 -0.023830943
0.08840566 -0.011021149 -0.018033447 0.12388978 -0.03695929 -0.005728268 0.030703124 0.038996108
0.032392766 0.05755242 0.036493298 0.0046930616 0.071157455 0.073428705 0.09296734 0.08262706
-0.0057891784 0.050798412 0.08907628 0.11951277 0.08498238 0.055226926 -0.004706089 -0.006396966
-0.09080934 -0.05892315 -0.11016803 -0.026104147 0.038909208 0.0027311724 -0.074345954 0.056113735
0.052694738 -0.100748114 0.0449172 -0.0022342626 -0.0127147725 0.021954933 0.14559443 0.0011509717
0.05997797 0.0050341627 0.028948948 0.018428842 0.036346868 -0.086697 0.011871484 -0.06420719
-0.045444008 0.02354771 0.023086982 0.10739167 0.101610586 -0.03688337 0.021027692 -0.011135001
-0.03356464 0.09657388 -0.022066044 0.04474698 0.017884044 -0.033459228 0.099368006 0.025562618
0.0074287583 0.02693605 0.014254004 0.000611232 -0.017097684 0.07248043 -0.0060269553 0.072444625
0.13810489 -0.027225172 -0.017180823 0.09623719 -0.040421695 0.08468088 -0.088841036 -0.053239085

lstm.weight_hh_l0 f4 [512, 128]
00000000: 8af7 073d 98ae 373c 8136 1fbd 7d80 883d
00000010: 333a 81bd dfd1 9b3c 9cdd 353d 8e9a 083c
00000020: df93 963c 42f1 a1bc 8630 433d 9f5b 9f3d
00000030: 1f45 20bd 5bff 133d 9918 983d f6b9 15bd
00000040: e6ed e2bc 9963 84bd be78 03bd cc98 47bd
00000050: 9c7e 773d 1f6d e0bb ab0e 2a3d 2102 85bd
00000060: 31dd 71bd bed1 c13d dfbe 063d 17b4 86bd
00000070: 3c92 303c 2997 11bd 3ad0 c8bd f42c bc3d
00000080: b126 0ebd abc1 76bd 37a7 3bbd 43db 2dbc
00000090: c703 c93d 8c4d 52bd f6a8 033d 18e9 ac3c
000000a0: ccac 573d d39d b63d 9034 cbbd f647 babd
000000b0: c9c5 0cbc 7701 28bd 2aba 823d 463b 9d3c
000000c0: da6a 103c 041d 613d d637 0bbd b60e 45bd
000000d0: e05c 713d 7216 573d 4cbd 053c 00bf 2a3d
000000e0: ce40 88bd f765 40bd 832d 84bc efd1 94bd
000000f0: b19e a53d f79d bbbd ed53 b0bd a474 efbc
00000100: 0a85 cbbd 7e53 a73c 1c9d 683d 988a 71bd
00000110: 54e1 9f3d fab5 af3c aae6 bcbd e704 a2bd
00000120: 6967 943d 30aa 833d 9d2e 83bd aae2 793d
00000130: 6044 e13d 26b7 1e3c d9c7 483d 802b 703d
00000140: 190b 793d 1d0d 96bd 4344 ac3d fb13 86bc
00000150: c906 49bd 57bd 26bd cc97 cdbd 5bf1 b2bd
00000160: 8391 283d c0c3 473d fbd5 e63c f2e8 69bd
00000170: 1191 3f3d 983a 9b3d 70e5 47bc e969 c23a
00000180: 4c6b 82bc 0eff cfbc d704 b43c 2422 43bc
00000190: 2708 08bc 4090 a1bc c4b6 65bd 231f 253c
000001a0: 4004 8abd 99eb a33c fbf3 64bd 112d 8a3b
000001b0: a3de 75bc 1af6 bebd cb2d 19bb 56aa b53c
000001c0: 1af8 ebbb 7198 99bd 0006 3cbd efe0 843d
000001d0: e373 4bbd a732 223d 5d78 efbc 45d8 d83c
000001e0: 707c 43bd 2d5e 36bd 141d 8dbd c8ab 74bb
000001f0: 5a31 e1bc b789 c0bd 0941 96bd a070 9b3c
00000200: d982 a53c 6163 1bbd c8f0 89bd 150f 26bd
00000210: 00e8 d03b 7bda 863c e374 7c3d 583f 8fbd
00000220: 5efd 083d accd 5bbc 42c5 b03d 8a55 8f3c
00000230: 5b81 82bc 8694 6c3b 9e50 9cbd 24ca 56bd
00000240: b4c8 5ebd ab8f c3bd 746c 303d 8dff bebd
00000250: f768 a9bb 06ff a9bc 6603 c83c 234f fcbc
00000260: 141e 1e3b 63b0 993d 1557 113d 0aeb f4bc
00000270: 730a b5bd c05e 35bd 4995 a03d 277e 8d3d
00000280: 324a d23c 353f a3bd 2ab3 423d 7791 093d
00000290: cc8f 1bbc 30a5 8e3c bfc5 34bd cfe6 61bc
000002a0: 8c05 243d e349 b03d 2017 843c 76e5 a8bd
000002b0: 2eed 77bd eb10 0b3d 0bdc 583d 271d a6bc
000002c0: 5257 333b 0d3c e9bd 13f7 943c a614 8bbd
000002d0: a746 9e3d ffad babc 48a5 4b3c 82b2 79bb
000002e0: 214a bbbd cf00 863d b112 4cbd 157f df3c
000002f0: fa7e 93bd 0a3b dc3c 2fde 8c3b c44c 323d
00000300: 4cb7 94bd 999c 033d 27e0 b3bd bc86 b7bd
00000310: 789b 27bd 5d15 87ba c31c c9bc 8b24 a8bc
00000320: d7b4 8c39 ddb6 e93d da40 3a3d 5c63 a83c
00000330: 7782 70bd bfab af3d 6250 963d f85d 8c3d
00000340: 2988 423c ad72 753c 6ffb 7f3d 1341 b63d
00000350: 5e58 823d 715f d73d 4f29 933d ce0c 523d
00000360: eb7f 923d e195 993d 472e 28bd 2a8d 163d
00000370: 0a2c 893d d261 98bd 4401 503d f7cf dc3d
00000380: a7ca a9bc b43b 62bd 868c 1a3d e267 dabc
00000390: c6ea 0fbd 756a 65bd b8f9 99bd 6671 c6bc
000003a0: e203 b93d 7d0b c7bc 08c6 153d 3b75 0abd
000003b0: a7bc 763d 4a57 963d b490 ad3d 2d8b a93d
000003c0: 9eeb 9dbc 4494 06bd 9fdf 0cbd e809 cbbd
000003d0: ad0a d83c cec4 1bbd 6e67 173d f0cb 63bc
000003e0: 0963 56bd 2229 1b3d 295f 293d 3935 a23d
000003f0: facb f43b 6548 383d eab4 763b cf42 a73d
0.033195056 0.01121106 -0.03887034 0.06665132 -0.06309929 0.019020973 0.044400796 0.00833763
0.018381057 -0.019768361 0.047653697 0.07781147 -0.03912842 0.036132198 0.07426567 -0.0365543
-0.02770133 -0.06464309 -0.03209757 -0.048729703 0.06042348 -0.0068489457 0.041517895 -0.06494547
-0.059048835 0.09463833 0.032896873 -0.06577318 0.0107770525 -0.03554455 -0.09805341 0.09188262
-0.034704868 -0.06024329 -0.045813765 -0.010611358 0.098151736 -0.051343486 0.032143556 0.021107242
0.052655026 0.08916821 -0.09922135 -0.09095757 -0.0085920775 -0.041017022 0.06383164 0.019193303
0.008814538 0.054959312 -0.033988796 -0.048109733 0.058926463 0.05251164 0.008162808 0.041686058
-0.066529855 -0.04697224 -0.016134983 -0.07266604 0.080869086 -0.09160989 -0.086097576 -0.029230423
-0.099374846 0.020425554 0.056790456 -0.058970064 0.0780665 0.021449078 -0.09223683 -0.07911091
0.072462864 0.06428945 -0.06405375 0.06100718 0.109993696 0.009687221 0.049018715 0.058635235
0.0608016 -0.0732672 0.084114574 -0.01636695 -0.049078736 -0.040707912 -0.100387186 -0.08737441
0.041154396 0.048770666 0.028178206 -0.05710692 0.046769205 0.07579535 -0.012200698 0.0014832589
-0.015920304 -0.025390174 0.021974964 -0.011909995 -0.008302725 -0.019722104 -0.056082502 0.010078224
-0.06739092 0.020009803 -0.05589674 0.004216798 -0.015006694 -0.09324284 -0.0023373242 0.022175949
-0.007201207 -0.07499779 -0.04590416 0.06488215 -0.049671065 0.039599087 -0.029232198 0.026470313
-0.047726095 -0.044523407 -0.06890312 -0.0037333835 -0.027489353 -0.09401267 -0.07336623 0.018974602
0.020203995 -0.037936572 -0.067353785 -0.040541727 0.006375313 0.016461601 0.06163491 -0.06994504
0.033444755 -0.013415735 0.08631374 0.017496843 -0.015930822 0.003609927 -0.07632564 -0.05243887
-0.054390624 -0.09548887 0.04307218 -0.09326086 -0.0051699835 -0.020751487 0.024415683 -0.030799454
0.0024126815 0.07504346 0.03548344 -0.029897232 -0.08839884 -0.044279814 0.07840974 0.06908827
0.025670145 -0.0797104 0.047534145 0.03358599 -0.009494733 0.017412752 -0.044133898 -0.013787939
0.040044352 0.08607843 0.016124308 -0.08246891 -0.060528927 0.03395168 0.052944224 -0.020277573
0.002736528 -0.11388407 0.01818422 -0.06791048 0.077283196 -0.022788046 0.012429543 -0.0038100784
-0.09144998 0.06543123 -0.049822513 0.027282277 -0.07201953 0.02688362 0.0042989473 0.04353024
-0.072615236 0.032131765 -0.08782988 -0.089612454 -0.04091975 -0.0010306049 -0.024549847 -0.020525238
0.00026837617 0.114118315 0.045472004 0.02055519 -0.05871817 0.0857768 0.073395506 0.068538606
0.011873283 0.014980954 0.062495645 0.08899131 0.06364511 0.10516251 0.07185613 0.051281743
0.07153305 0.0749929 -0.04105976 0.03675572 0.06697853 -0.07440533 0.050782457 0.10781854
-0.020726515 -0.05523272 0.03773167 -0.026660863 -0.035136007 -0.05600973 -0.07518333 -0.024223994
0.09033944 -0.02429747 0.03656581 -0.033803206 0.060238507 0.07340868 0.084748656 0.08278499
-0.01927739 -0.03285624 -0.03439295 -0.09913999 0.026372278 -0.038029484 0.036963873 -0.013903603
-0.05234054 0.037881024 0.041350517 0.07920308 0.007470605 0.044990916 0.0037644454 0.081670396

lstm.bias_ih_l0 f4 [512]
00000000: 1dc7 7b3d d2dc 91bd 86c0 aa3c 5b4e 9a3d
00000010: a5b6 c33d cbe3 b53c 8658 1b3e 9c95 693d
00000020: 7994 9cbd 8120 2cbd b147 49bd 0219 a3bc
00000030: dc24 6fba be50 533d d522 8fbd 884e 723c
00000040: c4f4 8cbd 5f1f c6bc e043 aabd 3406 92bc
00000050: 247f 4b3c eaf6 93bc 38be a73c 6583 65bd
00000060: 9f59 883d 0e8f c2bc 57ee e9bb 7b51 003e
00000070: 2868 b53c b039 92bb d52d b7bb 7328 1cbd
00000080: c91e 193c e461 503d 143f 32bd c194 133d
00000090: 2dcd 323c 1195 523b c5f2 86bd c28e e7bc
000000a0: 84d9 763d c5e3 f43c ca01 adbc 1809 543a
000000b0: ea08 a8bd 2695 1cbd 3318 453d 46a5 4fbd
000000c0: 33c6 acbd 0de2 3d3c 2998 37bd da66 a03d
000000d0: 5d3b 5bbd 04e8 67bd fe14 8bbc 707f aabc
000000e0: 2fb6 4dbd 98ff f5bc b255 92bd cc59 e33d
000000f0: 5f0c 0c3d 8a7f 323d 2a65 843c 52f9 273d
00000100: 4338 7ebd 9450 393d 223e 3e3c 7257 433d
00000110: f930 00bd eb45 b03d a940 5abd b570 fe3c
00000120: 235b 933d 7b0c c03d 5ca4 8f3d 393e 9ebd
00000130: 6d0d 88bd 0146 b73d 0338 d2bc d57b c43d
00000140: 1e81 3cbd 6c57 b43d e6ed c33d ea78 75bd
00000150: 5e17 353d 49a3 5bbd e011 e13b 4c2f 7b3e
00000160: 4ffd 27bd c78b 493d 60ff f1bc 0dec 17bd
00000170: 0862 ef3b c634 b5bc bba7 1d3e 6a34 2d3e
00000180: 5f76 a23c f6b7 b93d fe80 6abc a2d8 633e
00000190: 0b47 883d b98e e43c 70fe b2bc 1d89 363d
000001a0: e81f 0fbd 09c5 17bd e00e 7cbd 9cb8 3ebd
000001b0: 3b61 463d 82da 5f3d a2bd 4c3d 7230 953d
000001c0: 6c63 80bc 2953 acbc c914 7a3d 7939 a33d
000001d0: d433 4bbd 4702 373c db1f a03d 3e51 aa3d
000001e0: 0237 703d b687 5d3d 34bd 86bd 8d66 a33d
000001f0: 780f 4fbd 734d 5fbd 5f5f a9bd 6119 fd3c
00000200: 96a4 2fbd 5c35 5f3d e96e 0dbd fbc6 15bd
00000210: 6479 69bd e152 3e3d 4fae 28be 95bf 9a3d
00000220: 1f96 68bc 58fb 06bd d007 153d eef3 6b3d
00000230: 79d3 a0bd 7689 18bc cc4b 95bd 77da dbbc
00000240: 195a 103d f4f8 d53b 83a1 f63b c67c b73b
00000250: 0a54 45bd 940f adbd d6d3 643c 7eeb 94bd
00000260: a738 56bb ea26 6b3c 0379 a7bd 1dd5 15be
00000270: 3ca9 a83c fd04 f5bd bec0 aebd 6a61 603c
00000280: b810 a7bc 7632 1d3d 729a 5b3c 72c4 38bd
00000290: fc6c c4bc 873f 3dbd dc04 6f3d f147 9ebd
000002a0: 716d 92bd 3ac0 57bd 5d00 88bd 960c 1fbd
000002b0: 9b70 02be 1337 a5bd b690 68bd 3cdd dd3b
000002c0: e8e9 753c 1853 73bc a8be 48bc df92 f9bc
000002d0: b16a 583d e168 743b 1bb9 dbbd ab91 8ebd
000002e0: e050 b7bd 1c10 ffbd 1b51 37bd f970 57be
000002f0: 47f3 73bd a281 713d 07db 80bc b100 213b
00000300: aa6a 1e3d a0a9 92bd 0833 bf3c df58 13bd
00000310: ebac c43c 7a13 a3bd aa4d 913d 6f81 60bb
00000320: e42b b5bd 4afc 3e3c b698 86bc 76f0 36bd
00000330: e34d 023d 74e8 b9bd c76e 01be 10eb debc
00000340: f9c7 98bd 8fc0 b63c a0e1 313a 3a2f 643d
00000350: aeb3 3cbd 8149 aabc 18fa d43c 0570 793c
00000360: 4be6 84bd f3ff b53d b38b 8cbd 5e0a 5fbd
00000370: d023 f4bd 0724 9abd c141 59be ce11 fdbd
00000380: 8e2e 93bd ab70 f93c 5f15 2bbd ed8c d1bd
00000390: c14c c0bd 7c0f 803c 3772 6b3d 8051 60b9
000003a0: 3a0a dcbd c163 613d f31b 503c 3d8f edbc
000003b0: 5e6d 9bbd d76c 783d ad0c 003d bfe3 d0bd
000003c0: aa44 8c3d c84a 7c3d 7dd0 a63c effe 083d
000003d0: 8aeb 163d ac37 0fbd b527 14bd 4f88 17be
000003e0: 0d2d 02bd 5713 7abd 672b 83bd 42f7 8f3c
000003f0: e4f3 0ebd e726 8f3d 0b96 c4bd ccf7 a6bd
0.061469186 -0.07122196 0.020843755 0.07534476 0.09556321 0.022203347 0.15170488 0.057027444
-0.076455064 -0.042023186 -0.049140636 -0.019909386 -0.0009122619 0.051590674 -0.069890656 0.014789231
-0.06882623 -0.02418488 -0.083137274 -0.017825224 0.012420449 -0.018062074 0.020476446 -0.05603351
0.06657719 -0.023749854 -0.007139008 0.12531082 0.022144392 -0.0044624433 -0.0055901804 -0.038124513
0.009345719 0.050874606 -0.043517187 0.036030535 0.0109131755 0.0032132308 -0.06589273 -0.028266314
0.060266033 0.029893765 -0.021119017 0.0008088513 -0.08204825 -0.038228177 0.04811878 -0.050694726
-0.08436241 0.011589539 -0.044822846 0.078321174 -0.05352341 -0.05661775 -0.016977783 -0.02081272
-0.050222572 -0.030029103 -0.07145251 0.11101112 0.034191485 0.043578662 0.01616152 0.041009255
-0.062065374 0.04524286 0.011611493 0.047690816 -0.031296704 0.08607086 -0.05328432 0.031059602
0.07195117 0.093773805 0.07013771 -0.07726712 -0.06643186 0.08948899 -0.025661474 0.095939316
-0.046021573 0.08805737 0.0956686 -0.059929766 0.044211738 -0.053622518 0.006868586 0.24529761
-0.04101306 0.049205568 -0.029540718 -0.03709035 0.0073053874 -0.02211989 0.15396015 0.16914526
0.019831834 0.09068291 -0.014312981 0.22250608 0.06654175 0.027900087 -0.02184984 0.044564355
-0.034942538 -0.03705314 -0.061537623 -0.046562776 0.04843257 0.054651745 0.049985535 0.07284631
-0.015672408 -0.021035748 0.06105498 0.079699464 -0.049609974 0.011169977 0.07818576 0.08316277
0.05864621 0.054084502 -0.065790564 0.079785444 -0.05055186 -0.05451722 -0.08270144 0.03089589
-0.04288157 0.054494247 -0.0345296 -0.036566716 -0.057000533 0.04646576 -0.16472743 0.075560726
-0.014195948 -0.032954544 0.036384404 0.057605676 -0.07852835 -0.009310117 -0.07289848 -0.02683757
0.035242174 0.0065299217 0.007526578 0.005599591 -0.04817585 -0.08450237 0.013966521 -0.07271479
-0.0032687576 0.01435254 -0.08177378 -0.14632078 0.02058851 -0.11963842 -0.085328564 0.0136951
-0.020393714 0.0383782 0.013403522 -0.04510922 -0.023977749 -0.046203163 0.058354244 -0.077285655
-0.071497805 -0.052673556 -0.06640694 -0.038830362 -0.12738268 -0.08067145 -0.056778632 0.006770758
0.015009381 -0.014851354 -0.012252487 -0.030465541 0.052836124 0.0037293958 -0.107286654 -0.06961378
-0.089509726 -0.124542445 -0.044755083 -0.2103919 -0.05955818 0.058961518 -0.01572944 0.0024567063
0.03867594 -0.0716126 0.023339763 -0.035973426 0.024008235 -0.07962699 0.07094891 -0.0034256836
-0.08846262 0.01165683 -0.01643024 -0.044662915 0.03181256 -0.0907754 -0.12639914 -0.027211696
-0.07460017 0.022308616 0.0006785635 0.0557091 -0.046069793 -0.020787003 0.02599816 0.015224461
-0.064892374 0.08886709 -0.06862583 -0.054453246 -0.11920893 -0.07526403 -0.2121649 -0.123569116
-0.07186614 0.030449232 -0.041768428 -0.102319576 -0.0938964 0.015632384 0.05748197 -0.00021392666
-0.10744138 0.055026773 0.012701976 -0.028998965 -0.075892195 0.060650673 0.03126209 -0.10199689
0.06849034 0.061594754 0.020363087 0.03344625 0.03684572 -0.034965202 -0.03617068 -0.14798091
-0.031781245 -0.0610536 -0.06404763 0.017573956 -0.03490056 0.06989842 -0.09598931 -0.08152732

lstm.bias_hh_l0 f4 [512]
00000000: ead8 cd3d 0675 803d c7ee 6abb ec58 56bd
00000010: 4a5f 2bbb 9acd acbc 3633 f53d 9a49 51bd
00000020: 6b35 513d ba41 bb3d 3e5d 213d a630 77bc
00000030: 602a 4abc b2cd 463e b4b2 84bc cedf fdbc
00000040: 55f8 003c c9b7 933d ac34 e5bd 911f fb3a
00000050: 1538 78bd 5a2d f5bc ab15 c33d 379e 833d
00000060: 5309 af3b 21b5 c13d 7f3a 94bd 4395 483e
00000070: 7b61 bf3d 3a5f 1a3e f72d 86bd c586 c7bd
00000080: c60c e03d 2047 263d ab83 6c3d daa0 383d
00000090: 73e6 9e3d 2ee8 bd3d 642b 3cbd d577 ff3c
000000a0: c19a f1bc f3f7 1fbd c029 96b6 4279 8abd
000000b0: 39fb 53bd 400f e63c 05ff 94bd 487e 4ebd
000000c0: 85ba b9bd 3911 aa3d 24a2 18bd e455 3fb9
000000d0: d086 64bd ed91 b9bc 2ed2 acbd 0540 073d
000000e0: de3b 8c3d 96e5 0c3c 525b 7bbd 4270 b33d
000000f0: a204 ba3d 5862 69bc 91fa dd3b 577d 90bd
00000100: a372 5b3c c487 d13c ddca bbbd 3419 a0bc
00000110: 295e 8b3c fc1a 3c3d dbdb abbd 3df7 b63d
00000120: d9a4 973d 6a9e 69ba 2c84 f93d f290 9a3b
00000130: 0c4c 773d 2cf2 4f3e ee41 533d 50e4 a73d
00000140: fa89 b9bc c4ee a63d 804c 103d 134c 9d3d
00000150: 77f2 f13d 6bad 703d 0756 11bd 2b1f 6b3e
00000160: d7cc f73c f5dc 96bc c82d 8d3d bfb7 ae3d
00000170: a7a5 e6ba 3401 e8bc 30f0 813e 38bc 093e
00000180: 3c4f 203b 000d 82bd 1349 053c fa83 623d
00000190: 7191 5f3c aae4 a8bc 2c32 c7bc 844a 713b
000001a0: 94d5 8c3d 3ec3 2c3d bde3 883d ae65 5a3d
000001b0: f23b 493c 99ca 8fbc 756f ea3c c074 17bd
000001c0: 955a b93b 3440 89bd b936 3b3d 547d 363c
000001d0: 1c5c 273d 331f df3d 1910 4abd cdc6 0b3e
000001e0: bcf4 5ebc 32bb ee3d 9927 243d cbc5 263c
000001f0: 132c 4cbd d20e 6a3d c7be 75bd f11d 8fbd
00000200: a4ed 24bd f26f 533d 563f dfbd f9fa 48bd
00000210: 880b 54bc 9b96 1cbd ee61 113c 4939 bfbd
00000220: 9780 3d3d ceb0 f5bd febc 413c 4263 d73b
00000230: b23b 803d e8ca a03c c906 d73b 3571 863d
00000240: b3c4 46bd 573f 803b 28ec 46bd 6cd6 4e3d
00000250: ae84 fc3c 37c9 3bbd 591d 21bd db2a 4bbd
00000260: d63a bcbd 936b acbc 2e54 c33c bcc8 a9bd
00000270: f4b5 b3bd 3ad0 09be f0af b33c 0a6b 11bd
00000280: aa20 b8bc 0ebb a4bd 554a 96bd e987 2e3d
00000290: 352f 51bd 0b73 b9bd a025 23bd 0fc3 a7bd
000002a0: 9752 80bd a6c2 653c 288c d1bc 23cd fa3c
000002b0: b8ad bfbd 8307 a53d 0bf2 9b3d 9159 a5bd
000002c0: 5823 82bd 879d 703d 45a4 aabd 5e6b 823d
000002d0: 6667 863d c89a 62bd 2446 58bc ee7d 023d
000002e0: c2b1 18bd 555e 72bd 974f aabd 7cd0 ebbd
000002f0: 72c5 763c 0c8f 063c ca83 5abd 61e1 1ebd
00000300: 4c2d 12bc 052f 1abe b598 013d da95 ebbc
00000310: 752f 743d 7756 6e3d caf6 cbbc 2abd bb3b
00000320: dcb7 3cbd fbdd 92bd ea95 aabb 3c88 03be
00000330: e235 59bd 54de 3dbe 156e babd 4ecd afba
00000340: 8a80 9cbd a86f 633d b1ee afbc 4a58 56bd
00000350: f6ab 7c3d 9e55 4a3d a3d1 3fbd e5e3 c0bd
00000360: 514f e93b 8d85 9e3b 7525 4d3d cc4b 913c
00000370: c4b4 edbd 49d7 29bd 473f 0fbe dc5e 9cbd
00000380: 6d4c 663b 6c7d 733d e199 923d 22c9 133c
00000390: 691c 883c 0da4 0dbd 5a06 85bd dbc6 093d
000003a0: 3ac2 14bd 62a1 13bd 1d5e 6cbd e991 45bd
000003b0: 5854 0ebd 6ba8 50bd 2842 413d c99d 8cbd
000003c0: 7050 4c3d 5ee3 99bd 5543 863c 763f 973d
000003d0: 11cb a53d 12e6 1ebd 59f3 04bc e344 72bd
000003e0: 3323 cb3b ae58 bfba 628b 963c af77 89bd
000003f0: 3d61 3d3b 153d 10bd 5fb8 1bbd 4200 28bb
0.10051139 0.062723204 -0.0035847889 -0.052330896 -0.0026149326 -0.021094132 0.11972658 -0.051095583
0.051076334 0.09143396 0.039395563 -0.015087282 -0.012339205 0.19414404 -0.016198494 -0.030990507
0.007871707 0.072127886 -0.11191687 0.0019159188 -0.06060036 -0.029928852 0.09525617 0.064266615
0.0053416877 0.09458376 -0.0723772 0.19588189 0.09344765 0.15075389 -0.06551736 -0.09742502
0.10939936 0.040595174 0.057742756 0.045075275 0.077587985 0.092728004 -0.045939818 0.03118507
-0.029492738 -0.039054822 -4.4752087e-06 -0.06761409 -0.051753256 0.028083444 -0.072752036 -0.0504134
-0.09068779 0.08304066 -0.037264004 -0.00018247176 -0.05579263 -0.02265259 -0.08438526 0.03302004
0.06847356 0.008599659 -0.061366387 0.08761646 0.09082915 -0.014244638 0.0067742546 -0.07055157
0.013394031 0.025577433 -0.091695525 -0.019543268 0.017012672 0.04592417 -0.083915435 0.08933876
0.07404489 -0.000891185 0.12183413 0.004716986 0.06037526 0.20307225 0.051576547 0.08197844
-0.0226488 0.0815101 0.035229206 0.07680526 0.118138246 0.058759134 -0.035482433 0.22961108
0.030249042 -0.018415907 0.06893498 0.085311405 -0.0017596976 -0.028320886 0.2537856 0.13450706
0.002446129 -0.06350136 0.008135098 0.055301644 0.013645516 -0.020616848 -0.024315916 0.0036818096
0.06876674 0.042178385 0.06684063 0.053319626 0.0122823585 -0.01755266 0.0286176 -0.036976576
0.00565655 -0.06701699 0.045706484 0.011138279 0.040859327 0.10894623 -0.04933176 0.13650055
-0.013608154 0.116567984 0.040076826 0.010178993 -0.04984672 0.05714304 -0.059996393 -0.06988133
-0.040265694 0.05162043 -0.10900752 -0.04906747 -0.012942202 -0.038229566 0.008873446 -0.09337098
0.04626521 -0.119966134 0.011824844 0.0065731118 0.06261386 0.019628003 0.006562088 0.06564561
-0.04852743 0.0039138007 -0.04856506 0.050497457 0.030824985 -0.04584619 -0.03933463 -0.049601417
-0.091909096 -0.02104739 0.023843851 -0.0829024 -0.08774939 -0.13458338 0.02193448 -0.03550247
-0.022476513 -0.0804349 -0.073383965 0.042610083 -0.05107041 -0.09055146 -0.039830804 -0.08191501
-0.06265753 0.014023459 -0.025579527 0.030615395 -0.09359306 0.08058073 0.076145254 -0.08073724
-0.063543975 0.05874398 -0.08332113 0.06368135 0.065626904 -0.055323392 -0.013200317 0.031858377
-0.037278898 -0.059171993 -0.08315962 -0.115143746 0.015061723 0.008212816 -0.05334834 -0.038789157
-0.008921932 -0.15056999 0.031639773 -0.028757978 0.05961557 0.058187928 -0.024897952 0.005729337
-0.04607378 -0.07171246 -0.0052058594 -0.12844938 -0.053029902 -0.18541843 -0.09103028 -0.0013412626
-0.076417044 0.055526406 -0.021476122 -0.052330293 0.061687432 0.049398057 -0.046830785 -0.094184674
0.007120051 0.004837698 0.05008455 0.017736338 -0.11606744 -0.041465078 -0.13988982 -0.076352805
0.0035140768 0.059445783 0.07158256 0.009020122 0.01661511 -0.03458028 -0.06495352 0.03363691
-0.03631804 -0.03604258 -0.05770694 -0.048234854 -0.034748405 -0.050941866 0.047182232 -0.06866033
0.0498814 -0.0751407 0.016389528 0.07385151 0.080953725 -0.03879363 -0.008114659 -0.059147727
0.0061992644 -0.0014598572 0.01837701 -0.06712281 0.002889707 -0.035214502 -0.038017627 -0.002563492

lstm.weight_ih_l1 f4 [512, 128]
00000000: 9950 5ebd 135f be38 c720 bb3c c4d3 e3bd
00000010: 2c1c 91bd 2597 3cbd 219d 9abb 8f67 27bd
00000020: 1758 a33d b5d0 61bd db93 f0bc b1e9 6bbb
00000030: de73 1cbd 485c 2dbd e53b d13d 1416 41bd
00000040: 65c5 f03d f238 b43c 006d fabc 6e26 173d
00000050: 1548 863c b47d 433d 1ee9 a8bb 70f4 f33d
00000060: f2db 083c dfbc 023d 6518 2b3d dd38 20bd
00000070: d51e 5f3d a56f 403d d2f0 103d b7b6 0c3d
00000080: bfc5 c7bc 3e6f d03c 4581 bebd 0b61 e0bd
00000090: b446 213a 9ac0 d63c 0862 b2bd f6e2 18bd
000000a0: 27f4 9c3d 78a8 cbbd b9ad 483d 9ff9 813c
000000b0: 0668 4c3d e9f1 e6bd 0aab 4c3d d9eb dbbd
000000c0: 8d3c c63d 8106 993d c898 83bd f22d b23d
000000d0: 5cbf 8dbd 725f dc3b d0b8 57bd 14d4 91bc
000000e0: 0dec 913d e5be abbd 2462 9abd aa02 3dbd
000000f0: 9d3f 053d 569e 2ebd 0ff8 eb3d 02ec 34bd
00000100: 265f 1bbc 7255 76bd 0f0c 21bd 31ce 623d
00000110: 2449 06bd a61a e1bd 3469 4bbd b35b 033e
00000120: 63cf 053d 5fce 1bbd 1954 a8bc 8182 8abc
00000130: 83a3 46bc 97a1 d83c 8459 d3bd a45c a23a
00000140: dc2c 39bd d571 00bc 3f37 ecba a9cf 2d3d
00000150: e312 f23c 85e7 1abd 8463 9c3d eaed 26bd
00000160: ae83 ff3c 117a febd 9220 8c3d 7205 663d
00000170: e939 dd3a 9913 00bd e86e 973d 01f4 edbd
00000180: 7511 aebd 2c23 babd f4a0 de3d a7ac 8abd
00000190: b262 193b 97fe 00bd dd0b babc 6b1b 4fbb
000001a0: ed58 903c 0e70 9abd bc62 13bc 9feb a33d
000001b0: c08c a03d b0e9 9d3d 6e89 bd39 287b 4abd
000001c0: b706 b4bc be64 9d3b 555d 6b3c 0b56 83bc
000001d0: e7ee e73b 4fc5 893c 5404 a7bd 3c6d 853c
000001e0: e15e b7bd acb9 d4ba cd6f a63c 8677 e1bc
000001f0: 7675 0c3c 995d c8bc acd4 dfbc f3cf f6bb
00000200: bae6 393d aacd ba3d db8d 9abd 366a 50bc
00000210: 7fa4 67bc 81ae 1cbd 932c 003c 4ad7 fdbb
00000220: 8e4a aa3d 7efb 8dbd dec1 83bd 4747 24bd
00000230: 48cf 273d c0f7 8fbd 195b 593d edc3 1d3c
00000240: 2b5d b93c 42b7 06bc 6206 1abd 40fd 3cbd
00000250: d1f9 343d 58f0 52bd b91f eb3c 41e8 933d
00000260: d94e 24bd a7d9 f8bd 228e a43d e60c eabc
00000270: 874f c63d 6ee5 0f3d a950 ed3d 0a29 d4bc
00000280: b349 58bd 714a 923d 59e2 203b 8c18 373d
00000290: 426e 33bc b9e7 3a3d 44a9 753c 6fed 78bd
000002a0: d797 3cbd 32df bd3c 56d2 8fbd 60e1 7cbd
000002b0: 09e9 adbd 49ac f63c 2dad dabd 45cd 40bb
000002c0: f36b 58bd 93de a53d f260 743d ab95 933c
000002d0: 40d1 ab3b 6244 063c fc84 28bc 1667 bdbc
000002e0: 3dda 43bc 3110 c9bc 88b2 4abc d298 833d
000002f0: e627 55bd 267c 303a eddf e3ba 6729 6f3c
00000300: ab63 4cbd 4ab0 83bd 1079 b0bd b42c 00be
00000310: 7572 a0bd 5a84 18bd fc72 a43d b9b8 a83d
00000320: 2f14 b03b dd52 03bd 49d8 a2bc 29ee a5bd
00000330: 5a0b 6c3d 87d9 a63c 5907 6e3c 0c18 18bd
00000340: 6212 a93b c143 a8bc e674 863c 2d27 833d
00000350: 5128 efbd d353 efbc 55f0 0cbd 1a20 91bd
00000360: d243 75bd c447 19bd 7ffa 90bd fdae ac3d
00000370: 8b6d 103a 44a9 8b3c 26d7 e83c 165f 213d
00000380: c7b6 37bd 1755 b8bc 9106 b0bc 8b99 86bd
00000390: 15ef d2bc 89c5 bfbd c217 2dbc 6835 063d
000003a0: c038 183d 996b 823b bd5c 35bd 49ef d93c
000003b0: 2b28 993d 0160 7fbd 8678 de3b ad32 b83c
000003c0: 5874 103d 6303 a9bc 5f22 90bd 9a5f 5b3d
000003d0: 4668 8e3d 9e8d 6abd 0006 1f3d bca9 d63d
000003e0: a2ca 043d 9b51 bf3c de66 b23b 149a b13d
000003f0: 4951 3dbd f490 3c3d 35a0 803c 9c8e d03d
-0.054276083 9.077615e-05 0.022842778 -0.111243755 -0.070854515 -0.04604258 -0.0047184383 -0.040870246
0.07975786 -0.05513068 -0.029367378 -0.0035997445 -0.038196437 -0.042324334 0.10216502 -0.047140196
0.117564 0.02199981 -0.030569553 0.036901884 0.016391793 0.0477273 -0.005154743 0.11911857
0.00835322 0.031918403 0.04177131 -0.03911673 0.054472763 0.046981473 0.035385914 0.034353938
-0.024386285 0.02544367 -0.09302 -0.109560095 0.0006152198 0.026214886 -0.08710104 -0.03732582
0.07663756 -0.09944242 0.0489938 0.015866099 0.049903892 -0.112766095 0.049967803 -0.10738344
0.09679518 0.07471944 -0.06425625 0.087001696 -0.069212645 0.006725245 -0.052666485 -0.017801322
0.07125101 -0.083860196 -0.0753825 -0.04614512 0.03253137 -0.04263147 0.11521923 -0.044170387
-0.009483134 -0.06014008 -0.03931814 0.05537242 -0.032784596 -0.10991411 -0.049660876 0.12827949
0.032668483 -0.038038608 -0.020547913 -0.016907932 -0.012123945 0.02644424 -0.10319808 0.0012387228
-0.045208797 -0.00783964 -0.0018021836 0.04243437 0.029550022 -0.03781845 0.076361686 -0.040754236
0.03119072 -0.12425626 0.0684215 0.056157537 0.001687822 -0.03126869 0.073942006 -0.11618806
-0.084994234 -0.0908874 0.10870543 -0.06771212 0.0023404774 -0.031492796 -0.022710735 -0.0031602036
0.017620528 -0.07540904 -0.008995708 0.080039255 0.07839346 0.07710588 0.00036151282 -0.049433857
-0.021975858 0.004803269 0.014365514 -0.01603224 0.00707804 0.016817717 -0.081551224 0.016287439
-0.089536436 -0.0016229651 0.020316983 -0.027522814 0.008572927 -0.024458693 -0.02732309 -0.0075321137
0.045386054 0.091212586 -0.07546588 -0.012720635 -0.01413834 -0.038252357 0.007823127 -0.0077466117
0.083150014 -0.06932734 -0.064334616 -0.040107038 0.040969163 -0.070296764 0.053065393 0.009629232
0.022627434 -0.008222403 -0.037603743 -0.046139956 0.044183556 -0.05149874 0.02870165 0.07222033
-0.040114257 -0.12150889 0.08034922 -0.028570604 0.096831374 0.03513091 0.1158765 -0.025898475
-0.05280466 0.07143105 0.0024548976 0.044701144 -0.0109515805 0.045631144 0.014993969 -0.06077331
-0.046043243 0.023177717 -0.0702254 -0.06173837 -0.084917136 0.030111449 -0.10677562 -0.0029419225
-0.052837323 0.08099093 0.059662767 0.018015703 0.0052434504 0.008195015 -0.010285612 -0.023120444
-0.0119538875 -0.024543853 -0.012371667 0.064256325 -0.052040003 0.0006732367 -0.0017385461 0.014597273
-0.04989974 -0.06430109 -0.08616841 -0.12517053 -0.07834331 -0.037235595 0.08029744 0.08238358
0.0053735 -0.032061446 -0.019878523 -0.08102066 0.057628013 0.020367397 0.014528119 -0.037132308
0.005159662 -0.02054012 0.016413163 0.064039566 -0.116776116 -0.029214775 -0.034408886 -0.07086201
-0.05987913 -0.037421957 -0.07079028 0.08431814 0.0005509487 0.017048486 0.028422903 0.03939732
-0.044852044 -0.022501511 -0.021487506 -0.06572255 -0.025748769 -0.09363849 -0.010564746 0.032765776
0.037163496 0.003980112 -0.044277895 0.026603358 0.074783646 -0.062347416 0.00678927 0.022485102
0.035267204 -0.020631498 -0.07037806 0.05355797 0.06953482 -0.057263963 0.03882408 0.10481593
0.03241981 0.023354342 0.0054443916 0.08671966 -0.046220098 0.046036676 0.015701393 0.101834506

lstm.weight_hh_l1 f4 [512, 128]
00000000: 095d 45bc 635b 3c3d 5a97 75bd a91b d7bc
00000010: 7a88 c4bc 5e5d a4bd 8973 d6bc 30e0 b03d
00000020: 3748 b03d f76b 283d 3815 0a3d a73f 483d
00000030: dc87 aebd 45e7 8c3d 0d5e 873d 2090 39bd
00000040: 0c50 54bd 6875 923d 8969 bb3d d2bc ab3d
00000050: e297 a13c 54a4 c6bb 9d53 793a 63e6 a2bd
00000060: 726b 27bd b3f7 463c 908e 243b 6f48 643d
00000070: 4756 cdbc e351 13bd 167d 803d 71cd 1dbc
00000080: b669 39bd d8a1 963d c6a5 bebb ca31 f53b
00000090: f44c f33c c650 73bd e709 55bd b5be 4cbd
000000a0: 0dad 8dbd ea31 f7bb bc2b 21bd 0da7 27bd
000000b0: 6327 cebc 9d3f 7f3d 47c4 9bbd 6375 3abd
000000c0: bb15 2a3d b878 c1bc 8d10 a0bd a5d3 e23c
000000d0: 4b1d ecbc c310 67bd 9c78 c1bd f229 993d
000000e0: 197a 333c 42f6 95bc f7aa dcbd 943e ae3c
000000f0: c140 86bc 84df bb3a 3001 84bd 1417 a2bd
00000100: 3ec7 b6bd 0b50 673d fd54 403c d1c7 82bd
00000110: b248 d2bc a2fd 653d 9dbb 0d3d 3165 e3bc
00000120: 1623 393b 44c8 b2bd fae7 c9bc 1d0f 793d
00000130: 1d0a 8bbc 15da 003d b7c8 d9bd 2c25 8cbd
00000140: d955 8ebd e4a4 dbbc bd50 7dbd e21c 32bd
00000150: e06c d73c ee83 6a3d ba73 cbbc 0a16 973a
00000160: cede dd3b ad9f 7f3b d77f 173b 0b81 643d
00000170: f0f4 e7bc a8f1 18bd 29f4 6fbd d91c cdbd
00000180: 2bed 853d bb7f 12bd 39bb 3bbd 6467 813d
00000190: 4d70 ea3c 0f2f 033c 71d7 98bd 3b59 bbbd
000001a0: 0942 a83d 393f 01bd d665 b53c 5fb7 823b
000001b0: cec1 443d 70ff d13c 95ca 873d 7ca5 21bc
000001c0: 567f 3039 436f c63c 9e53 a5bd 94a3 aabb
000001d0: 4555 cbbd 742c 2c3d 00ef 5c3d 36cc b1bd
000001e0: c02b 593d 6dba aebd dfd5 2c3c 0e6b 1bbd
000001f0: 9e25 8e3d cac2 103d 8f31 e83d a858 5cbd
00000200: ed20 30bd b8e4 d13c ea89 7abd df08 ac3c
00000210: 155b 373d bd69 2dbc f361 fd39 8f56 063a
00000220: 4f68 57bd 0ede 3e3c d675 eebc 9720 dcbd
00000230: 2a7c babd 232f 993d 6970 a33c 8d81 a8bd
00000240: fadd a1bc 39eb a53d 53a9 bbbb 2146 12bc
00000250: 0ec4 783c 7e80 253d b7f8 713d 0015 1bbd
00000260: a73f c23d 5ec7 213d 3659 813d c9c1 e5bd
00000270: 6bbf 583d 58f8 7c3b d0a5 25bc c991 043c
00000280: fb14 4c3c a180 4ebc 7e6a 833d 3e13 703d
00000290: 017b 84ba 0894 733d dca2 9f3d 1667 7a3d
000002a0: 6b1a f03c 7582 8f3d 93be d3bb dbca 1ebd
000002b0: d946 c23d 84fc b6bd 4efc 23bd 30fd bbbd
000002c0: ec6e 383d bfb2 bf3c bb7e 95bd c831 f1bc
000002d0: e1d3 e8bd 9910 763d 0b82 4d3b 5fa9 243d
000002e0: 5e2e 26bd e072 e33c 493d 1b3d bece 393d
000002f0: d1b5 823a 37bf b83c 2d21 9e3b af30 033c
00000300: e4e2 bcbd 0b18 32bc 9a05 35bd c8f8 91bc
00000310: afec ffbc 5289 d23d 0190 b3bd 7c9d 973d
00000320: a4a0 823d 16f0 2abc 7bec 9f3d 6b94 29bb
00000330: 8cac 51bd 1a3e 063d 554b bcbb 8039 82bd
00000340: 62da 9d3d 4e09 723d a44f 533d 766b a4bd
00000350: 9c06 ad3d dcee 8c3d 314e 083d 3570 ecbc
00000360: 483c 7cbd 4d5f 66bd 2854 5fbd 292a da3d
00000370: ee1c 3c3d 5388 53bc 78af 23bd 5d87 6ebd
00000380: 788d babb 4e0e bbbb 7e88 b8bd c506 b13d
00000390: 6b4e 0bbd a46e debc f9e4 bebd 997e d8bd
000003a0: bf83 03bd 6b62 683b 6c8e 9a3c c6ea 36bd
000003b0: 3da0 663b 2b63 8cbd 72e2 f7bc de70 b03d
000003c0: 2e90 213d 5b4b 3e3d de7c 04bd ccef a3bd
000003d0: f26c bebd 03b8 aa3c db62 bd3c 3c93 193d
000003e0: 790f 953d ffed d33c 6bf8 90bd 50c9 3cbd
000003f0: 9ef0 c4bc 63bc c53d 4813 6ebc 1c6b bbbd
-0.012046107 0.04598559 -0.059958793 -0.026258307 -0.023990858 -0.08025621 -0.026178138 0.0863651
0.08607524 0.04111859 0.033711642 0.04888883 -0.08522007 0.06880049 0.06609736 -0.045303464
-0.05183415 0.071513 0.091509886 0.08385624 0.019725744 -0.00606207 0.00095110555 -0.07954099
-0.040873952 0.012144017 0.0025109388 0.05573314 -0.025065554 -0.035966765 0.06273858 -0.009631501
-0.04526683 0.07355088 -0.0058181016 0.007482742 0.02969978 -0.059403203 -0.052011397 -0.04998656
-0.069177724 -0.007543792 -0.03934835 -0.040930796 -0.025165265 0.062316526 -0.07605796 -0.045522105
0.04152463 -0.023617133 -0.07815657 0.02768881 -0.028822562 -0.05641247 -0.094468325 0.074787036
0.010954403 -0.018305901 -0.107747965 0.021270074 -0.016388299 0.0014333581 -0.06445539 -0.07914558
-0.08924721 0.05647282 0.011739013 -0.06385768 -0.02566943 0.056150086 0.03460275 -0.027758213
0.0028249673 -0.08729604 -0.024646748 0.06080543 -0.016972596 0.03145798 -0.106339864 -0.068430275
-0.06949968 -0.026812024 -0.061844576 -0.043484576 0.026297033 0.057254724 -0.024835456 0.0011526954
0.006770945 0.0039005086 0.002311697 0.055787127 -0.028315037 -0.037339836 -0.05858246 -0.10015268
0.06539377 -0.035766345 -0.045832846 0.06318548 0.028618002 0.008006825 -0.07462967 -0.09147879
0.0821572 -0.031554434 0.022143286 0.0039891447 0.04803639 0.025634497 0.06630436 -0.009866115
0.00016832104 0.024222976 -0.08072589 -0.0052074883 -0.09928373 0.04203458 0.053938866 -0.08681528
0.05302024 -0.08531652 0.010549038 -0.037943892 0.06940769 0.035342015 0.113375776 -0.053795487
-0.04300015 0.025621757 -0.06116668 0.021000324 0.044764597 -0.010584292 0.00048328898 0.00051245926
-0.05258971 0.011649622 -0.029108923 -0.107484035 -0.09105714 0.07479694 0.019951062 -0.08227835
-0.019759167 0.08101506 -0.005726972 -0.008927853 0.015183462 0.040405743 0.059075084 -0.037861824
0.09484797 0.039496772 0.06315844 -0.11218602 0.052916925 0.0038600173 -0.010110334 0.0080913985
0.012456174 -0.01260391 0.06416796 0.0586121 -0.0010107459 0.059467345 0.07794735 0.061133467
0.029309472 0.070073046 -0.006461927 -0.038767677 0.09486169 -0.08934882 -0.04003554 -0.09179151
0.04502766 0.023400662 -0.072995625 -0.029442683 -0.11368538 0.060074423 0.003135803 0.040200587
-0.040571563 0.027764738 0.037900243 0.04536318 0.0009972398 0.022552116 0.004825732 0.008007213
-0.092229635 -0.01086999 -0.044194795 -0.017818823 -0.03124079 0.10280098 -0.08767701 0.07403085
0.06378296 -0.0104332175 0.07808777 -0.0025875818 -0.051189944 0.03277407 -0.005746285 -0.063586235
0.07707669 0.059090905 0.051589623 -0.08028309 0.08448526 0.06881496 0.033277694 -0.028862098
-0.061580926 -0.05624323 -0.054523617 0.10652573 0.045926027 -0.01291092 -0.039962262 -0.05823456
-0.005693134 -0.0057084924 -0.09010409 0.08643869 -0.034010332 -0.027152367 -0.09321017 -0.105710216
-0.032108065 0.0035459052 0.01886674 -0.04465749 0.0035190724 -0.06854852 -0.030259345 0.08615278
0.03944414 0.046458583 -0.032345645 -0.08004722 -0.092981234 0.020839697 0.023118427 0.03749393
0.07278342 0.025870321 -0.07078632 -0.046090424 -0.024040516 0.096550725 -0.014530964 -0.09151289

lstm.bias_ih_l1 f4 [512]
00000000: 3437 66bc f520 443c 3f39 17bd 9286 223d
00000010: 75a1 283d c673 f0bc 2b97 8fbc 1806 0c3d
00000020: 7f1a 97bc e8c8 8d3d e4c5 c83d 964f a3bc
00000030: 6ab7 8c3d 58ae 64bd 588d f4bc 5ff2 023d
00000040: d85a 77bd d62d 2a3d 45bb 9bbc cb7e c2bd
00000050: b6e5 fbbc 880c ac3d 92ef 903b a34f 5dbd
00000060: 5ec8 04bb 2248 343d 5ec1 cebc 3e2e 023d
00000070: b3d4 923d 5fc4 993d 276a 07bd 9583 aa3c
00000080: 644a b53d c858 aebd 9db8 663d 881d e4bd
00000090: c95e b2bd f48a 12bd 5121 d6bc dfb5 bcba
000000a0: 9872 fe3c a8f8 f43d d160 ac3d 7a54 9fbd
000000b0: e837 fc3c 9f7d 34bd ccaa 62bd 6c74 4b3d
000000c0: 60bf 323d 1c01 2abd 8569 94bc 2af9 843c
000000d0: b89f 463d cfe2 4f3d e233 993b 2014 193c
000000e0: 41bf 32bd 8aa9 0c3d 07c1 74bd d3ff d33b
000000f0: 4d7c 98bd be8a ccbc 1b59 703d 3752 abbd
00000100: 5839 7c3d bf39 743d e6ea b23d 2220 6bbd
00000110: 44e8 a8bc 8e1e 3bbd f1ce 09bd 9dec 2ebd
00000120: f97d b5bd 78ac 0f3d 57c8 3cbd e2e6 903d
00000130: 4689 8e3d 36df f83c 513a 863b ec37 80bd
00000140: ec79 a83d ab6d bebd 1fde 103d fe0e 86bc
00000150: 3525 b7bc 9e29 0dbd 4b3e 8abd 2ac0 6bbc
00000160: e065 10bc d0d5 05bd 0bd3 16bc 73a8 133d
00000170: 143c 47bd aa2a 7d3d 33d2 eabc 18fa 0abd
00000180: 8646 3c3d b4d2 953d 957a 6d38 f116 253d
00000190: 896d a1bb 9211 ddbd 4e32 0b3d 3091 b13d
000001a0: 1fc3 7ebb ebe2 9f3d 8115 9ebd 827f 363d
000001b0: f4de a9bd a439 413d 0e8c 7dbd 981d 9a3d
000001c0: 9a2a 733d 606c 60bd dd61 25bd 2814 25bd
000001d0: 5023 9fbd 5690 4b3d 6861 f93c a2ac 9fbd
000001e0: 9cf6 bc3d f5da 8ebd f9c6 013d 3fcc b0bc
000001f0: 3436 d8bc b8d2 d9bc 5da7 ab3d 37a0 b83d
00000200: 594e bcbd 338e be3b 7ffd 7b3d 8e77 68bc
00000210: ce1c 42bd 531f 92bd 4074 b23c 7602 93bd
00000220: c46b ffbc 87a3 303c 70c6 a3bc 8340 383c
00000230: ba46 8ebd 9acb 3cbd 8026 81bd 4e3f 813d
00000240: 6a4a 6dbd cbc0 87bd 51e2 733d ad29 b0bd
00000250: c161 163c 5186 bbbc df6e 3d3d eae0 143d
00000260: f733 debc ce6b 4ebc 738f bcbd a2b4 9dbd
00000270: 0cfe ba3c bedf 90bd e972 163d e962 67bd
00000280: 2771 083d 73ee aabc c99e f6bc f6ea e2bd
00000290: e641 36bc bd2f c33c 0555 ddbb b447 583d
000002a0: cf76 323d 50e6 eabd 5f5a bbbd f1aa c3bb
000002b0: 6d00 d23c 3322 96bd c321 90bd 17a5 62bd
000002c0: be77 6e3d d0a6 bdbd 69a3 fe3b 6f27 81bd
000002d0: ff3b 8b3d e2a3 2fbd 305c 62bd 6a98 453d
000002e0: d7d2 88bd eac7 183c a266 8e3d 744d 593c
000002f0: b37b e73c 0ec3 96bd 8a98 1a3d ec61 e7b7
00000300: 171e 0c3d 26bf 713c acae 7b3d ada9 7b3d
00000310: ed61 6b3d efda b23b 7ffa 82bd 9dd9 de3c
00000320: 3338 b3bd eb4d 433d bbca b4bd 37c3 1dbc
00000330: 652c 39bd a9aa babd 2201 31b9 3b3a 95bc
00000340: 20cb abbd 7a2b 56bd e643 babd 48ee 2f3d
00000350: 36e0 73bd 2c42 f8bc f5b5 1d3d 72fb fb3c
00000360: a581 7d3d 5733 4a3d 7485 a8bd f779 1e3a
00000370: 6ad4 b9bd 8ed4 c1bb 415b 3bbd 4546 4f3d
00000380: 2a56 5b3d 6c44 953d ec33 aebb ce51 a5bd
00000390: e510 3d3d f60d 0f3d 03d9 05bd c95a 17bd
000003a0: 1578 163c e617 a03d 4e78 633d fde9 93bd
000003b0: 263e 3cbd 48a1 343d 6695 c53c 502e 97bc
000003c0: 16a5 c0bc f50b 55bd f06c 82bd f684 88bc
000003d0: a30f b93c d596 02bd e2b6 c8bd 58a1 aabb
000003e0: 3832 87bc a288 d9bd 6153 073d 13f8 28bd
000003f0: 0cb0 4fbd 84ef 18bd 20cd eebc b377 aa3c
-0.014051247 0.011970748 -0.03691983 0.039679118 0.041169602 -0.02935208 -0.017528137 0.0341855
-0.018445252 0.069230855 0.0980337 -0.01993541 0.06870921 -0.05583033 -0.029852554 0.031969424
-0.06038937 0.04154762 -0.019010196 -0.0949684 -0.030749183 0.08400828 0.0044230903 -0.054031026
-0.002026103 0.044014104 -0.025238689 0.03178238 0.071694754 0.07508158 -0.03306022 0.020814696
0.088520795 -0.085130274 0.056328405 -0.11138445 -0.08709485 -0.035777047 -0.026138933 -0.0014397464
0.031060502 0.1196149 0.08416904 -0.077797845 0.030788377 -0.044065114 -0.055338666 0.049671575
0.04363954 -0.041504964 -0.018116722 0.016232092 0.048492163 0.05075341 0.0046753744 0.009343177
-0.043639425 0.034341373 -0.059754398 0.0064697056 -0.074455835 -0.024968501 0.058678728 -0.083652906
0.061578125 0.059625383 0.087362096 -0.05740369 -0.020618565 -0.045683436 -0.03364462 -0.04270612
-0.08861918 0.03507659 -0.046089496 0.070752874 0.069597766 0.030379873 0.0040963073 -0.06260666
0.0822638 -0.09298261 0.03536808 -0.01636457 -0.022356609 -0.034463517 -0.06750163 -0.014389077
-0.008813351 -0.03267461 -0.00920559 0.036049318 -0.04864128 0.061808266 -0.028664684 -0.033929914
0.045965694 0.07315579 5.6619367e-05 0.04030508 -0.0049263877 -0.10794367 0.03398352 0.086702704
-0.0038873625 0.07806953 -0.07718945 0.044555195 -0.08294478 0.04717411 -0.061901145 0.07525176
0.0593668 -0.054790854 -0.040376533 -0.040302426 -0.07770407 0.049698196 0.030441955 -0.07796599
0.092267245 -0.069753565 0.031683896 -0.021581767 -0.026393034 -0.026589736 0.083815314 0.090149336
-0.09194631 0.0058152913 0.06152105 -0.01418866 -0.04739075 -0.07134881 0.021783948 -0.07178204
-0.031179316 0.010781175 -0.019992083 0.01124585 -0.06947084 -0.046092607 -0.063061714 0.063109025
-0.057932295 -0.06628569 0.059542004 -0.08601699 0.00917858 -0.022891195 0.046248313 0.036347307
-0.027124388 -0.012598945 -0.09207048 -0.077004686 0.022826217 -0.070739254 0.03673068 -0.056490812
0.033311035 -0.020865655 -0.030105012 -0.110799715 -0.01112411 0.023826474 -0.00675452 0.052802756
0.043570336 -0.1146971 -0.09148096 -0.0059713055 0.025634969 -0.07330742 -0.070376895 -0.055333223
0.058219664 -0.092603326 0.007770945 -0.063063495 0.06798553 -0.0428809 -0.055263698 0.048241057
-0.066808395 0.009325007 0.069531694 0.013263095 0.028257227 -0.073614225 0.03774313 -2.7582944e-05
0.034208383 0.014755046 0.061445877 0.061441112 0.057466436 0.005458228 -0.063954346 0.027203375
-0.087509535 0.04768173 -0.0882773 -0.009629062 -0.045208354 -0.09114582 -0.00016880457 -0.018216243
-0.083883524 -0.052287556 -0.09094982 0.042951852 -0.059539996 -0.03030499 0.038503606 0.030759547
0.061891217 0.049365368 -0.08228579 0.0006045396 -0.09073718 -0.005915231 -0.045741323 0.050604124
0.05354897 0.07288441 -0.005316248 -0.08072244 0.04615869 0.034925424 -0.03267766 -0.036951814
0.009183903 0.07817058 0.055534653 -0.07222364 -0.045957707 0.044099122 0.02411909 -0.0184547
-0.02351622 -0.052013356 -0.063684344 -0.016664963 0.022590464 -0.031882126 -0.09800507 -0.005207222
-0.016503438 -0.10621764 0.0330385 -0.041252207 -0.050705 -0.037337795 -0.029150546 0.02080903
