backend/ml_models/ALPA3.SA/model.pt (torch, 807686 bytes, 9 tensors)

lstm.weight_ih_l0 f4 [512, 5]
0.0076640244 0.098415874 -0.022294072 -0.035871517 0.06059073 -0.024911087 -0.09281813 -0.05918375
-0.07554617 -0.014711651 -0.015121196 0.09915069 0.120785505 0.10689777 0.24679153 -0.030519895
-0.018679947 0.04672545 0.025706803 0.21401115 0.024839893 0.056107614 -0.012425342 0.1670649
0.023405435 0.008615604 0.10030939 0.055399254 -0.0053477027 0.21130648 0.06947515 0.07701385
0.066204175 0.08368904 0.096124895 -0.04085781 0.0053463485 0.077133745 -0.021134887 0.045080632
0.073386505 0.08844407 0.08747832 0.032085717 -0.12660648 0.082370035 -0.020946026 0.09461834
-0.028382678 0.12524638 -0.02752198 -0.050236862 -0.012967532 0.021811372 0.07680806 0.10622164
0.033954237 0.08538837 0.0004804361 0.18877693 0.03336459 0.014736648 0.08906542 -0.030636404
0.26883864 -0.028359637 0.12885368 0.095141634 0.061694045 0.3124853 0.14593334 0.078349456
0.13878556 0.07084958 0.0806604 -0.0051980526 0.0034904038 0.078200296 0.06569872 0.08974518
0.05905628 0.011137278 0.10666551 0.037243586 0.33659872 0.101703845 -0.030217186 -0.007101719
0.08160419 0.10210593 0.07773665 0.032860875 0.08635437 0.08987782 -0.0017565317 0.109006956
0.042291716 -0.025681704 0.026605617 0.31353778 -0.010425064 0.06349176 0.08944359 -0.016435873
-0.088948354 -0.057242148 -0.017126836 0.065989345 0.06963759 0.046593368 0.060497962 -0.0089334035
0.040110014 0.102598526 0.31047532 0.043811508 -0.020681346 0.0768374 0.062422507 0.27609846
0.022329051 0.10020476 0.0017263538 0.032797024 0.09616601 0.12487602 0.024285976 -0.0020610574
0.079948954 0.05591688 -0.0050310683 0.12755285 0.06559021 0.03607761 0.043306313 -0.0035080272
0.036056384 -0.018493645 -0.06219378 -0.094015695 0.10755955 -0.034128264 0.071800806 0.12017106
0.21968707 0.14956184 0.13236448 0.010132494 0.15072647 0.18121202 0.024832819 -0.074567646
-0.024980146 -0.047516778 -0.10456739 0.013198899 -0.037523877 0.08983611 0.13622148 0.00033666118
-0.07718096 0.002409297 -0.081222855 -0.08520898 -0.08720775 -0.0005220795 0.024599181 0.12163907
0.060096547 -0.009740568 -0.04161043 -0.05826865 0.03867204 -0.059085645 0.2602247 0.081053115
-0.02065862 0.07059916 0.12722503 0.0667474 -0.032155894 -0.022821682 -0.019376637 -0.06003366
-0.28961948 0.021918437 0.013324414 -0.04364287 0.011436149 0.31543845 0.039524775 0.19159088
0.16484055 0.20124993 0.19411387 0.1127504 0.03989258 0.10951103 0.0900789 0.056128155
-0.06885311 0.040705133 0.037379183 0.0160554 -0.16931236 0.09314334 0.028294565 -0.008865469
0.0001996876 -0.06964674 -0.015916932 0.10195109 0.050162554 0.13588916 0.077790625 0.07006608
-0.0020499898 0.11135925 -0.03497517 0.3862189 0.07884626 0.08025677 -0.025720825 0.022118041
0.30597144 0.015708908 0.02885442 -0.008973523 0.104111105 0.15730968 0.06792756 0.07037918
0.09496263 0.018063044 -0.06903835 0.09074801 0.08707327 0.12203134 -0.01835584 0.30054894
0.06512023 0.068664044 0.10812151 0.015763812 0.032268897 0.0011053929 0.07831665 -0.010073469
0.08405762 0.14574495 0.033222023 0.03619428 0.046981025 0.07318867 0.06926409 -0.017069971
00000000: 7f22 fb3b 438e c93d 0fa2 b6bc 03ee 12bd
00000010: fc2d 783d 5612 ccbc 6f17 bebd a96a 72bd
00000020: f3b7 9abd 2309 71bc e5be 77bc 840f cb3d
00000030: 645e f73d 38ed da3d ebb6 7c3e dc04 fabc
00000040: b006 99bc 2f63 3f3d 1397 d23c bd25 5b3e
00000050: 087d cb3c 19d1 653d a993 4bbc 1013 2b3e
00000060: c1bc bf3c 7628 0d3c 026f cd3d 54ea 623d
00000070: c83b afbb ba60 583e fd48 8e3d 70b9 9d3d
00000080: 0e96 873d 2965 ab3d 21dd c43d 855a 27bd
00000090: 6c30 af3b 4cf8 9d3d 1223 adbc 78a6 383d
000000a0: aa4b 963d 2a22 b53d d527 b33d 506c 033d
000000b0: 21a5 01be 9fb1 a83d 0097 abbc 43c7 c13d
000000c0: ca82 e8bc 9640 003e c775 e1bc 2bc5 4dbd
000000d0: c575 54bc c3ad b23c 8b4d 9d3d bb8a d93d
000000e0: 9913 0b3d 19e0 ae3d 0be3 fb39 bd4e 413e
000000f0: 4fa9 083d fb71 713c ee67 b63d 32f9 fabc
00000100: 38a5 893e 7852 e8bc 38f2 033e 9ed9 c23d
00000110: e5b2 7c3d 13fe 9f3e 8d6f 153e ae75 a03d
00000120: cd1d 0e3e 9619 913d 4831 a53d 6d54 aabb
00000130: 42bf 643b 7a27 a03d 0d8d 863d 52cc b73d
00000140: ffe4 713d 2179 363c 7273 da3d bb8c 183d
00000150: ab56 ac3e 1b4a d03d 088a f7bc 89b5 e8bb
00000160: 1920 a73d ea1c d13d 6534 9f3d 2099 063d
00000170: 8fda b03d dd11 b83d 6c3b e6ba 0a3f df3d
00000180: 143a 2d3d 7062 d2bc 06f4 d93c 0688 a03e
00000190: e3cd 2abc f807 823d 332e b73d 86a4 86bc
000001a0: 8e2a b6bd be76 6abd 944d 8cbc 6c25 873d
000001b0: 279e 8e3d b0d8 3e3d b6cc 773d 695d 12bc
000001c0: 664a 243d 2d1f d23d 9ff6 9e3e b273 333d
000001d0: ed6b a9bc ed5c 9d3d beae 7f3d c75c 8d3e
000001e0: 6aeb b63c 2738 cd3d d246 e23a 2c56 063d
000001f0: aff2 c43d 00bf ff3d 62f3 c63c ce12 07bb
00000200: 47bc a33d 1909 653d a9db a4bb 379d 023e
00000210: 2954 863d 1ec6 133d f661 313d eee6 65bb
00000220: dcaf 133d fc7f 97bc e8be 7ebd 4d8b c0bd
00000230: 2e48 dc3d 14ca 0bbd 4d0c 933d 3f1c f63d
00000240: a6f5 603e bd26 193e 8e8a 073e c302 263c
00000250: 0a58 1a3e a58f 393e 326e cb3c ecb6 98bd
00000260: 2aa3 ccbc f4a0 42bd 6e27 d6bd 3240 583c
00000270: a3b2 19bd fffb b73d a57d 0b3e e681 b039
00000280: 0d11 9ebd 4ce5 1d3b 2b58 a6bd 0c82 aebd
00000290: fa99 b2bd 2adc 08ba 3984 c93c e81d f93d
000002a0: cc27 763d e796 1fbc b36f 2abd 1cab 6ebd
000002b0: 9366 1e3d ca03 72bd 2c3c 853e 2dff a53d
000002c0: 443c a9bc 4b96 903d 4747 023e dcb2 883d
000002d0: e6b5 03bd 89f4 babc c1bb 9ebc dbe5 75bd
000002e0: 0149 94be 4b8e b33c a54e 5a3c dec2 32bd
000002f0: af5e 3b3c 2681 a13e bbe4 213d 6630 443e
00000300: f6cb 283e 7614 4e3e c9c5 463e afe9 e63d
00000310: 6766 233d 5247 e03d 497b b83d a3e6 653d
00000320: dc02 8dbd 6dba 263d ea1a 193d 9d86 833c
00000330: 3860 2dbe efc1 be3d 01ca e73c 7940 11bc
00000340: 3b63 5139 f3a2 8ebd 3a64 82bc bccb d03d
00000350: 4077 4d3d 8726 0b3e b150 9f3d ce7e 8f3d
00000360: 1f59 06bb 5210 e43d 2042 0fbd 7cbe c53e
00000370: 267a a13d a95d a43d 7bb4 d2bc e530 b53c
00000380: 4aa8 9c3e f8af 803c 1b60 ec3c af05 13bc
00000390: 3438 d53d ca15 213e 9b1d 8b3d f622 903d
000003a0: c47b c23d f3f8 933c fa63 8dbd 18da b93d
000003b0: 7853 b23d 91eb f93d fd5e 96bc 8de1 993e
000003c0: c15d 853d bc9f 8c3d cf6e dd3d 1c23 813c
000003d0: 642c 043d d5e2 903a 7b64 a03d 310b 25bc
000003e0: 6726 ac3d 2a3e 153e d113 083d 7440 143d
000003f0: 2d6f 403d f1e3 953d 55da 8d3d 53d6 8bbc

lstm.weight_hh_l0 f4 [512, 128]
0.03812908 0.0031095033 0.0642092 0.0645553 0.037618164 -0.04882803 0.07036479 -0.019657409
-0.06120121 0.008355858 0.04766162 0.081507325 -0.04691524 -0.063579835 -0.04829257 0.046598475
0.06483493 0.01336818 0.047094245 0.084642 0.031433254 0.05606067 0.057810742 0.021243729
-0.012318256 0.018372048 -0.052908 -0.042738058 -0.022241179 -0.04263577 -0.063891165 0.029736234
-0.022052236 0.0015537877 -0.07135067 0.007874086 -0.032260425 -0.09032513 -0.012666595 -0.06154604
0.0145588415 0.08820137 0.00911309 -0.06594729 -0.069377266 -0.015761925 0.0029317825 -0.06644462
0.052505765 -0.060335852 -0.06846506 0.024668599 0.029786047 0.032054015 0.042534813 -0.044214167
0.044844393 -0.07006534 0.005561863 -0.06300502 0.081836894 -0.08642437 -0.08965246 -0.0683677
-0.048644446 -0.04030479 -0.05944893 -0.07016989 -0.016308933 0.0014088035 0.009311749 0.052364454
-0.041893136 -0.06293906 -0.005344593 0.08698678 -0.05575738 0.065648064 -0.04349399 0.07692865
-0.036056545 -0.08595951 -0.07436869 -0.05637309 -0.0685925 0.06290262 -0.008536925 0.061613537
0.01696188 0.009759464 0.05965838 -0.02762434 0.08706851 -0.053839076 0.07336257 0.009600638
0.056954198 0.07384983 -0.08955978 0.08061184 0.08955528 0.017505366 0.07971433 0.0731112
0.037783157 -0.028386002 0.07009428 -0.07128679 0.002898551 -0.029732663 -0.050234534 0.045235414
-0.017893028 -0.025726413 -0.03307846 0.07534939 -0.07407919 0.04024089 0.065380394 -0.0151206795
-0.09265612 0.0788448 -0.08174259 0.005430321 0.0036063762 -0.035204258 -0.064163245 -0.026633216
-0.09332125 0.005628958 -0.052433487 -0.06936438 0.018070038 0.035625868 0.026758583 -0.07178106
-0.049644243 -0.0016522133 -0.08215217 0.025257535 0.0752737 0.020080931 -0.06961726 -0.028656214
0.030242989 -0.09270818 0.07050307 -0.029433683 0.04699243 0.022393588 -0.056900915 -0.02553014
-0.07741571 -0.024652537 0.0064465865 0.09179265 0.01905132 -0.087344706 0.03602018 -0.03650884
-0.041257698 0.075772576 0.027411213 -0.031947676 0.018566605 -0.047418505 -0.068230756 0.018552275
-0.040470287 -0.011880479 0.0030259206 -0.041295167 0.07488101 0.0006390162 -0.027376857 -0.04103601
0.099869944 0.050069343 -0.0014032426 0.067373134 0.09027771 0.07186168 -0.06541097 0.0683478
-0.026618889 0.06264002 -0.032092955 -0.007613388 0.010513404 -0.052933488 0.078426376 -0.044558056
-0.037430055 -0.052205015 -0.04574702 0.0041514216 0.06447432 -0.084346294 0.060255837 -0.07898296
0.028233878 -0.06618605 -0.04303552 -0.021548295 0.030501744 -0.07738364 -0.07771831 -0.04014245
-0.06955585 -0.047769316 0.03784595 -0.08370938 -0.07551659 -0.075868785 -0.0065620616 -0.04661388
-0.05391157 -0.047871295 -0.00020091415 0.0751128 -0.03562728 0.027907178 0.054567095 -0.027991895
-0.06961539 -0.0740713 0.09245965 -0.067549296 -0.051312618 0.08845225 0.07828159 -0.010261991
0.089595556 -0.076694325 0.058443386 0.10177492 0.045635454 -0.061148502 0.07001717 0.032335524
-0.0680585 -0.028151752 0.08254717 -0.08005794 0.051035665 0.05149243 0.037425116 -0.072823405
0.042273644 0.07589292 0.05080357 0.058134977 -0.07742094 -0.023708217 -0.096306 -0.10416882
00000000: 3d2d 1c3d cfc8 4b3b 1d80 833d 9235 843d
00000010: 8115 1a3d e6ff 47bd 6a1b 903d 9308 a1bc
00000020: 1fae 7abd 02e7 083c d538 433d 50ed a63d
00000030: 322a 40bd 2536 82bd 6ece 45bd 0bde 3e3d
00000040: 2dc8 843d 3606 5b3c e5e5 403d c958 ad3d
00000050: 28c0 003d e09f 653d f5ca 6c3d 5407 ae3c
00000060: 83d2 49bc fa80 963c 0fb6 58bd 1a0e 2fbd
00000070: 2233 b6bc d8a2 2ebd 5fd9 82bd 6799 f33c
00000080: e4a6 b4bc 77a8 cb3a 4d20 92bd 4f02 013c
00000090: 8223 04bd 62fc b8bd 8d87 4fbc b317 7cbd
000000a0: 3588 6e3c eba2 b43d 124f 153c 5f0f 87bd
000000b0: ab15 8ebd 271f 81bc 2623 403b 1e14 88bd
000000c0: 4910 573d ba22 77bd 6937 8cbd cd15 ca3c
000000d0: de01 f43c 124b 033d fc38 2e3d ea19 35bd
000000e0: c1ae 373d 6b7e 8fbd 4a40 b63b c708 81bd
000000f0: 1a9a a73d 43ff b0bd b59b b7bd 5d04 8cbd
00000100: 663f 47bd a316 25bd b980 73bd 3bb5 8fbd
00000110: 509a 85bc 9aa7 b83a 4e90 183c 1c7c 563d
00000120: 2398 2bbd 32e6 80bd b221 afbb 2026 b23d
00000130: da61 64bd 7e72 863d c126 32bd c58c 9d3d
00000140: 07b0 13bd 8a0b b0bd 9d4e 98bd 78e7 66bd
00000150: 3a7a 8cbd 17d3 803d 75de 0bbc 7a5e 7c3d
00000160: a4f3 8a3c 29e6 1f3c 585c 743d 714c e2bc
00000170: fa50 b23d 5d86 5cbd 1d3f 963d ff4b 1d3c
00000180: ce48 693d 943e 973d 1e6b b7bd d217 a53d
00000190: c268 b73d 6a67 8f3c 4441 a33d 53bb 953d
000001a0: 83c2 1a3d c389 e8bc 978d 8f3d cffe 91bd
000001b0: 9ef5 3d3b ea91 f3bc bac2 4dbd c548 393d
000001c0: 6694 92bc 33c0 d2bc 477d 07bd c850 9a3d
000001d0: d5b6 97bd a2d3 243d 28e6 853d babc 77bc
000001e0: 7ec2 bdbd 6279 a13d a968 a7bd d6f0 b13b
000001f0: f458 6c3b 5732 10bd 0568 83bd e72d dabc
00000200: 361f bfbd 1f73 b83b 7fc4 56bd e90e 8ebd
00000210: 9e07 943c 6eec 113d d134 db3c f301 93bd
00000220: c357 4bbd 148f d8ba 663f a8bd e4e8 ce3c
00000230: 1929 9a3d c480 a43c 7e93 8ebd 70c0 eabc
00000240: 25c0 f73c c9dd bdbd ea63 903d e81e f1bc
00000250: 227b 403d c272 b73c ef10 69bd 9624 d1bc
00000260: 218c 9ebd 1ef4 c9bc e33d d33b c9fd bb3d
00000270: 8411 9c3c c8e1 b2bd e589 133d 4b8a 15bd
00000280: d5fd 28bd a72e 9b3d 7b8d e03c 91db 02bd
00000290: fe18 983c e839 42bd 91bc 8bbd f1fa 973c
000002a0: 2cc4 25bd 57a6 42bc 864e 463b 1f25 29bd
000002b0: 375b 993d a783 273a 6e45 e0bc 6015 28bd
000002c0: 9d88 cc3d 8315 4d3d 02ed b7ba edfa 893d
000002d0: 85e3 b83d 372c 933d 30f6 85bd eef9 8b3d
000002e0: db0f dabc 6949 803d e773 03bd ba79 f9bb
000002f0: 6a40 2c3c c9d0 58bd 029e a03d 8282 36bd
00000300: 4250 19bd edd4 55bd 3a61 3bbd a608 883b
00000310: 1d0b 843d c0bd acbd d3ce 763d d1c1 a1bd
00000320: bc4a e73c 8d8c 87bd 0346 30bd 0d86 b0bc
00000330: cbde f93c 507b 9ebd c72a 9fbd 696c 24bd
00000340: 4c73 8ebd c2a9 43bd 5b04 1b3d d36f abbd
00000350: 71a8 9abd 1861 9bbd 9006 d7bb 32ee 3ebd
00000360: 61d2 5cbd b114 44bd 7bac 52b9 bdd4 993d
00000370: e9ed 11bd 989d e43c bf81 5f3d 424f e5bc
00000380: 8392 8ebd b2b2 97bd 7c5b bd3d 4957 8abd
00000390: 2e2d 52bd 7426 b53d 1952 a03d e921 28bc
000003a0: e07d b73d ea11 9dbd 5562 6f3d 5f6f d03d
000003b0: 3eec 3a3d da76 7abd 2965 8f3d 4172 043d
000003c0: 4162 8bbd 819e e6bc 7e0e a93d 6bf5 a3bd
000003d0: c60a 513d bae9 523d 144b 193d 7024 95bd
000003e0: 2127 2d3d bf6d 9b3d 6717 503d f11e 6e3d
000003f0: df8e 9ebd bc37 c2bc 153c c5bd 7656 d5bd

lstm.bias_ih_l0 f4 [512]
0.04143382 -0.013506969 -0.046375837 -0.04913781 0.12399533 0.08085145 0.019479843 -0.06930951
0.042704992 -0.09229201 -0.020332027 0.0627629 0.03032051 0.015873456 0.13241541 0.10540809
0.015485682 0.054329693 -0.06935979 0.08852457 0.08281861 0.027134322 -0.07043314 -0.001912428
-0.04087753 0.096424714 0.0018859045 -0.015386259 -0.06438416 0.1351925 -0.0023177972 0.05436308
0.0062656975 0.03481519 -0.04436194 0.003395027 -0.057515793 0.10816189 0.014232067 -0.049758572
-0.051473174 0.031315178 0.030249951 0.026851052 0.07796863 0.0789389 0.042957537 0.024556948
0.029638808 0.0025911033 0.01966843 0.09702984 -0.037312586 0.18963458 -0.0280275 0.04500395
0.029423403 -0.002255351 -0.07653557 0.08689946 -0.09651177 -0.04129563 0.0032714522 -0.109721325
0.08585164 0.03654969 -0.03237928 -0.0014566078 -0.00019430576 0.0054933913 0.06972479 -0.00021762947
-0.063511424 -0.034934256 0.08882799 -0.015186675 0.043261107 0.011254942 0.0771127 -0.047726404
0.006425178 -0.003892645 0.06560567 -0.051629014 -0.0075246245 -0.0038294657 0.05612667 -0.10396519
-0.06499528 -0.051980525 0.06501976 -0.026885856 -0.057321012 0.021579932 0.04313832 0.025034726
0.025695568 0.042305395 0.05809222 -0.048587326 -0.02488117 0.049367595 0.07450665 -0.060749304
0.05241821 0.007777173 -0.0016962264 0.037706368 -0.026737008 0.07345966 0.012251996 0.029562423
0.05728273 -0.0556779 -0.020615058 0.059815288 -0.045250908 0.041274715 0.11860407 0.04127213
-0.074148275 -0.047864843 -0.036772292 0.003965621 -0.06759141 -0.027212646 -0.033170693 0.025949854
-0.029815357 -0.05079202 0.06378243 0.07951895 -0.17714892 0.004317817 -0.025664264 -0.087525554
-0.0052861962 0.065230854 0.016539194 0.044275362 -0.07828036 0.03881393 -0.11636792 -0.07445186
0.03507074 -0.07782809 0.045108624 -0.055616066 -0.0006706437 0.010170445 -0.121012166 0.014189679
-0.016164616 0.060950894 0.01819498 -0.030359631 0.035932075 -0.045980427 -0.0046976455 -0.06725837
-0.01578476 -0.029520743 -0.0031008814 -0.0036499426 0.023342112 -0.086797304 -0.13189338 -0.07471503
-0.12928426 0.01425558 0.009621104 0.025168857 -0.0948876 -0.16468775 -0.003969071 0.0005604362
-0.10118673 -0.02648258 -0.11405124 0.030381145 0.040152512 -0.044773515 0.048964556 -0.07982071
0.008268632 0.054713797 0.015508881 0.011686342 -0.04338682 0.03948056 -0.09891543 0.04688644
-0.12878503 -0.049605925 -0.013636656 -0.1117302 -0.11074951 -0.0051034237 0.008716195 -0.004039255
-0.038170673 -0.07040367 0.016824959 0.008203141 0.055706736 -0.032264885 0.011332432 -0.09153219
-0.010431186 -0.0795039 0.04081526 -0.083382845 0.05639569 -0.054635182 0.052345607 -0.047508206
-0.053721797 -0.08179997 -0.052973907 -0.04069218 0.04343661 -0.07808556 0.016520701 -0.05547655
0.06611234 -0.08073204 0.013119156 -0.06047721 0.07092163 -0.052077584 -0.05973683 -0.04291367
0.065879256 -0.07525062 -0.0022149726 0.07766003 0.0849791 -0.07832367 -0.018778428 -0.015116766
-0.07790356 0.008358842 -0.0052477545 0.061931573 0.040981464 -0.091243684 -0.10587958 -0.07479615
0.0282791 0.057249874 -0.03949944 0.0462503 -0.058533736 -0.038336795 0.073677704 0.014297654
00000000: 82b6 293d 564c 5dbc 97f4 3dbd ba44 49bd
00000010: 43f1 fd3d 7295 a53d 3194 9f3c 25f2 8dbd
00000020: 6eeb 2e3d 9803 bdbd 5a8f a6bc d689 803d
00000030: b862 f83c 0d09 823c e897 073e 32e0 d73d
00000040: a8b7 7d3c d088 5e3d 810c 8ebd 5f4c b53d
00000050: ce9c a93d cc48 de3c 403f 90bd 6faa faba
00000060: 326f 27bd 527a c53d 7430 f73a a616 7cbc
00000070: d8db 83bd e76f 0a3e 2fe6 17bb d2ab 5e3d
00000080: 7b50 cd3b 5f9a 0e3d deb4 35bd 1a7f 5e3b
00000090: ae95 6bbd fb83 dd3d 9e2d 693c a5cf 4bbd
000000a0: 89d5 52bd 5844 003d bfce f73c bdf6 db3c
000000b0: 04ae 9f3d b8aa a13d 3ef4 2f3d a72b c93c
000000c0: 16cd f23c 80cf 293b b01f a13c 95b7 c63d
000000d0: 15d5 18bd 912f 423e ed99 e5bc 1056 383d
000000e0: 5909 f13c 83ce 13bb aebe 9cbd 58f8 b13d
000000f0: f6a7 c5bd 9b25 29bd dc65 563b 93b5 e0bd
00000100: fcd2 af3d 21b5 153d 23a0 04bd a6eb beba
00000110: 8ebe 4bb9 e801 b43b dfcb 8e3d 7733 64b9
00000120: 4712 82bd 3917 0fbd 73eb b53d 88d1 78bc
00000130: 8f32 313d a666 383c 43ed 9d3d c37c 43bd
00000140: 4d8a d23b bf1b 7fbb 445c 863d f278 53bd
00000150: 2091 f6bb c6f7 7abb 14e5 653d b4eb d4bd
00000160: 3f1c 85bd 88e9 54bd 1429 853d ba3f dcbc
00000170: 70c9 6abd 66c8 b03c cfb1 303d a015 cd3c
00000180: 837f d23c 6c48 2d3d 1cf2 6d3d 8103 47bd
00000190: 98d3 cbbc ad35 4a3d f196 983d 43d4 78bd
000001a0: 7ab4 563d a8d7 fe3b ea53 deba fe71 1a3d
000001b0: 9207 dbbc 0572 963d 99bc 483c e52c f23c
000001c0: 4ca1 6a3d 820e 64bd e9e0 a8bc e000 753d
000001d0: 0459 39bd ad0f 293d b1e6 f23d f70c 293d
000001e0: 0ddb 97bd ed0d 44bd 8b9e 16bd 0af2 813b
000001f0: 5d6d 8abd 0eed debc fedd 07bd ca94 d43c
00000200: 563f f4bc 4b0b 50bd 5da0 823d d5da a23d
00000210: 8766 35be 797c 8d3b dd3d d2bc 9940 b3bd
00000220: d437 adbb c197 853d 347d 873c 155a 353d
00000230: 7451 a0bd 5bfb 1e3d 4e52 eebd 377a 98bd
00000240: 56a6 0f3d 5564 9fbd d2c3 383d accd 63bd
00000250: 23ce 2fba f0a1 263c 3ad5 f7bd d47b 683c
00000260: a86b 84bc a5a7 793d a40d 953c c3b4 f8bc
00000270: 832d 133d f955 3cbd b5ee 99bb c2be 89bd
00000280: 0a4f 81bc 7cd5 f1bc 2838 4bbb e033 6fbb
00000290: f537 bf3c c9c2 b1bd 0f0f 07be 3204 99bd
000002a0: 1863 04be 3c90 693c d6a1 1d3c eb2e ce3c
000002b0: 6e54 c2bd e8a3 28be fb0e 82bb 3dea 123a
000002c0: fd3a cfbd fff1 d8bc b293 e9bd e1e1 f83c
000002d0: f676 243d 6f64 37bd 0f8f 483d 0a79 a3bd
000002e0: 2879 073c 931b 603d f618 7e3c 1278 3f3c
000002f0: 61b6 31bd 5eb6 213d 2c94 cabd ff0b 403d
00000300: 39e0 03be 952f 4bbd 486c 5fbc ced2 e4bd
00000310: a4d0 e2bd 9f3a a7bb 5fce 0e3c ba5b 84bb
00000320: da58 1cbd cd2f 90bd 7fd4 893c 7866 063c
00000330: bf2c 643d 2f28 04bd aaab 393c 3b75 bbbd
00000340: 91e7 2abc f1d2 a2bd e72d 273d a0c4 aabd
00000350: 2bff 663d 24c9 5fbd 5968 563d f797 42bd
00000360: 630b 5cbd be86 a7bd 2bfb 58bd d8ac 26bd
00000370: 96ea 313d 52eb 9fbd 6c56 873c 613b 63bd
00000380: e865 873d d756 a5bd baf1 563c f3b6 77bd
00000390: 5c3f 913d 4e4f 55bd 9bae 74bd 3fc6 2fbd
000003a0: b4eb 863d ff1c 9abd 1329 11bb 390c 9f3d
000003b0: 8609 ae3d 2968 a0bd 38d5 99bc 50ac 77bc
000003c0: e78b 9fbd 86f3 083c 5bf5 abbb f6ab 7d3d
000003d0: 2edc 273d f8dd babd 65d7 d8bd b92e 99bd
000003e0: 92a9 e73c d87e 6a3d 2aca 21bd f470 3d3d
000003f0: 12c1 6fbd 0b07 1dbd 56e4 963d b540 6a3c

lstm.bias_hh_l0 f4 [512]
0.0017867136 0.04148982 -0.01931256 -0.063950025 0.09105602 0.12166648 -0.029853614 0.0006843979
-0.0381719 -0.053774428 0.064408876 0.034326874 -0.012602268 0.005347319 0.12980565 0.10603498
0.013176712 0.04250998 0.00986966 -0.014013079 0.05816358 -0.060365263 0.09174757 0.06125233
-0.04174881 -0.018597843 0.12778896 0.047614157 0.016565995 0.098573506 0.024176443 0.010886706
0.037517935 0.09864558 0.008911993 0.033822436 0.091209605 0.10959708 0.015349367 0.084531076
0.05806686 0.057565376 -0.074286126 0.07077518 0.016654482 -0.02798336 -0.033903915 0.058222033
-0.117164925 0.09056576 0.03338535 -0.033613626 -0.029930145 0.18669513 -0.055022188 -0.00920165
-0.0845033 -0.05564912 -0.048568726 0.08141205 -0.013072686 -0.009577764 -0.063709445 0.051831145
0.069686286 0.013391527 -0.041725416 0.038974755 0.105280295 -0.030653615 0.121339045 -0.007991671
0.05671338 -0.054082584 -0.048278876 -0.031933542 -0.012982785 0.050973218 -0.035208672 0.08172422
0.024671052 0.04769884 -0.01252493 0.028867548 0.08760992 0.02582157 0.058632825 0.06324271
-0.0038776018 -0.012182473 -0.056848325 0.028504033 0.0470912 -0.04852072 0.053166643 0.08434732
-0.0015111956 -0.061485138 -0.04630048 -0.014406318 0.064012185 -0.074068874 -0.055880383 0.013749383
0.051674597 -0.023308499 0.082623295 0.056184255 0.11270853 0.07108646 -0.08660473 -0.05711638
0.008543823 -0.06364702 0.05001074 -0.06292403 0.09277826 -0.10373877 0.10805716 -0.021244742
0.033068027 0.003249823 0.008341985 -0.040290568 -0.0151388785 -0.004227838 0.07681565 -0.0397736
-0.07637641 0.052073322 -0.05717388 -0.08249658 -0.16547514 -0.07316597 -0.08749769 0.030066632
-0.02307425 -0.04494201 -0.09807007 -0.039018605 0.016203035 -0.08289593 -0.1895445 -0.0058231303
0.038654137 0.04391625 -0.0074947793 -0.07461591 0.038194876 0.06391876 0.0436826 0.06158403
-0.09952942 -0.015684133 0.012356249 0.03513186 0.004604848 -0.08728611 0.037639778 -0.09509033
0.059850406 -0.13432465 -0.055071495 -0.042508215 -0.07144075 0.06306474 -0.025019446 0.024136158
-0.0012777924 -0.01954958 -0.03411117 -0.04898623 0.016683698 -0.16666959 -0.057299137 0.043664142
-0.042936966 0.036292497 -0.10419452 -0.010304067 -0.09525695 -0.084609464 -0.017329615 -0.017949445
0.047729902 0.019228572 0.0072116917 -0.04735262 0.033897065 0.046603046 -0.073872395 -0.031674605
-0.114014454 -0.01588975 -0.07636836 0.043752708 0.00027046926 -0.0049605127 -0.029461432 -0.023636537
-0.021434156 0.015761008 -0.06753882 0.06369941 0.038065303 -0.02602364 -0.04562207 -0.05420681
-0.037031822 -0.07058934 -0.110556565 0.044767976 -0.04708038 0.028604764 -0.08838359 -0.08675186
0.06674599 0.05612104 0.027046993 0.032867543 -0.109456815 -0.018416967 -0.02335917 -0.061980154
0.046347804 -0.04891178 -0.09189228 0.020299273 -0.023051184 -0.050907213 0.028517874 -0.027742114
0.051419344 0.041243758 -0.068725295 0.07790411 -0.036496207 -0.0030967568 -0.08446447 -0.044692792
-0.09642448 -0.0009279777 -0.040497523 -0.06346651 -0.020370256 0.009876424 -0.08927439 -0.16134936
-0.03276174 0.041572895 -0.046427265 -0.068204604 0.002861961 0.03558343 -0.050975133 -0.019047983
00000000: 2930 ea3a 3bf1 293d 6035 9ebc 3bf8 82bd
00000010: 947b ba3d 472c f93d 918f f4bc 2a69 333a
00000020: 235a 1cbd 9342 5cbd cde8 833d 569a 0c3d
00000030: be79 4ebc 9038 af3b c6eb 043e de28 d93d
00000040: 23e3 573c f21e 2e3d 5bb4 213c 1d97 65bc
00000050: ef3c 6e3d 9141 77bd 26e6 bb3d b9e3 7a3d
00000060: cd00 2bbd 815a 98bc 1cdb 023e 1007 433d
00000070: 69b5 873c e8e0 c93d ad0d c63c 285e 323c
00000080: 68ac 193d b206 ca3d 9c03 123c 6589 0a3d
00000090: 1acc ba3d 6f74 e03d e97b 7b3c a11e ad3d
000000a0: 84d7 6d3d acc9 6b3d 5323 98bd 94f2 903d
000000b0: fb6e 883c 5c3d e5bc d5de 0abd 3a7a 6e3d
000000c0: 2af4 efbd 8b7a b93d 14bf 083d 71ae 09bd
000000d0: 1030 f5bc 022d 3f3e f25e 61bd 84c2 16bc
000000e0: 1110 adbd 55f0 63bd 00f0 46bd 5cbb a63d
000000f0: d22e 56bc 0eec 1cbc 197a 82bd e54c 543d
00000100: afb7 8e3d 2368 5b3c 45e8 2abd fea3 1f3d
00000110: 329d d73d 4a1d fbbc 9b80 f83d 7fef 02bc
00000120: 4a4c 683d b385 5dbd 12c0 45bd bfcc 02bd
00000130: bfb5 54bc 4bc9 503d f836 10bd 075f a73d
00000140: f21a ca3c dc5f 433d 5d35 4dbc a37b ec3c
00000150: d46c b33d c287 d33c f928 703d 6585 813d
00000160: 5d1f 7ebb ff98 47bc cad9 68bd 4a81 e93c
00000170: b4e2 403d aabd 46bd 44c5 593d 4abe ac3d
00000180: 4f13 c6ba d7d7 7bbd 92a5 3dbd 7a08 6cbc
00000190: d218 833d 6cb1 97bd d4e2 64bd 1845 613c
000001a0: bea8 533d 77f1 bebc 6736 a93d 7621 663d
000001b0: bbd3 e63d c795 913d d25d b1bd def2 69bd
000001c0: 64fb 0b3c 5e59 82bd 10d8 4c3d 50de 80bd
000001d0: 8702 be3d fe74 d4bd 134d dd3d 7409 aebc
000001e0: 5772 073d fcfa 543b d2ac 083c b907 25bd
000001f0: 0f09 78bc ad89 8abb 8651 9d3d a4e9 22bd
00000200: 3c6b 9cbd d64a 553d 292f 6abd f8f3 a8bd
00000210: 5172 29be 0ad8 95bd fd31 b3bd 4c4e f63c
00000220: 3606 bdbc 1d15 38bd f6d8 c8bd f9d1 1fbd
00000230: 3abc 843c 57c5 a9bd f417 42be f5cf bebb
00000240: cd53 1e3d 87e1 333d c496 f5bb 3ad0 98bd
00000250: 3b72 1c3d d7e7 823d 87ec 323d 893f 7c3d
00000260: 15d6 cbbd 037c 80bc dd71 4a3c 6de6 0f3d
00000270: 44e4 963b 0fc3 b2bd 2b2c 1a3d b8be c2bd
00000280: b325 753d 678c 09be a692 61bd 181d 2ebd
00000290: 874f 92bd 1628 813d 95f5 ccbc 31b9 c53c
000002a0: 997b a7ba 7126 a0bc 27b8 0bbd c9a5 48bd
000002b0: 40ac 883c 6fab 2abe 80b2 6abd 2cd9 323d
000002c0: acde 2fbd 71a7 143d f063 d5bd 64d2 28bc
000002d0: 1316 c3bd ba47 adbd d6f6 8dbc b70a 93bc
000002e0: 6e80 433d 3d85 9d3c 0e50 ec3b d2f4 41bd
000002f0: a6d7 0a3d d6e2 3e3d 694a 97bd 3bbd 01bd
00000300: 6980 e9bd 392b 82bc 0467 9cbd 0a36 333d
00000310: c5cd 8d39 cc8b a2bb 1a59 f1bc 69a1 c1bc
00000320: af96 afbc 3b1d 813c cb51 8abd d674 823d
00000330: 5dea 1b3d 872f d5bc 35de 3abd f607 5ebd
00000340: aeae 17bd 2591 90bd 7b6b e2bd a05e 373d
00000350: 5bd7 40bd 8a54 ea3c 7502 b5bd f6aa b1bd
00000360: 1fb2 883d 2ddf 653d a891 dd3c 1ea0 063d
00000370: e52a e0bd 2edf 96bc bb5b bfbc e7de 7dbd
00000380: 32d7 3d3d b857 48bd 0532 bcbd a94a a63c
00000390: d6d5 bcbc 1584 50bd 519e e93c 6e43 e3bc
000003a0: 179d 523d 37ef 283d d9bf 8cbd 318c 9f3d
000003b0: 0c7d 15bd f5f2 4abb b5fb acbd ca0f 37bd
000003c0: 337a c5bd 8743 73ba bbe0 25bd bbfa 81bd
000003d0: 86df a6bc bad0 213c 7ed5 b6bd c438 25be
000003e0: 2d31 06bd 5748 2a3d 842a 3ebd dbae 8bbd
000003f0: bd8f 3b3b eebf 113d 4dcb 50bd 840a 9cbc

lstm.weight_ih_l1 f4 [512, 128]
-0.07325884 0.008111727 0.027325083 0.055439357 0.12224552 -0.097405985 0.063638635 0.015065189
0.01688836 0.073305994 -0.092742085 -0.008791921 -0.059980277 0.035112083 0.068235815 0.053360805
0.0666885 0.08569229 0.011592755 -0.01241339 0.07164756 0.0350825 0.053757917 0.009656964
0.08453349 0.06449131 -0.0058366735 0.055406418 -0.040520966 -0.107272126 0.034545783 0.024642054
-0.024004908 -0.07213721 -0.14806668 0.042451046 -0.05659749 -0.103702076 0.035721343 0.087013036
0.023408145 0.0026053232 -0.00024679533 -0.06396381 0.021661809 0.09257726 -0.07910833 -0.07798082
0.014546911 -0.046362743 -0.08583877 -0.009680455 0.019617377 0.07017662 0.08439132 0.06325136
0.039350737 0.07556137 0.004520742 0.053432792 -0.0687236 -0.06646154 -0.08118951 0.05798576
-0.030691197 0.08820278 -0.036669277 -0.06849133 0.016761346 0.031915527 0.02233532 -0.075634465
0.00057883206 -0.11768144 0.069465995 0.022485875 0.052989684 0.034771793 0.011571059 -0.089884296
0.0841902 0.028044455 0.036629047 -0.03416096 -0.067633614 0.03520287 0.079081774 -0.031034159
-0.047708012 -0.0339692 -0.0027927177 -0.070260175 0.00052117114 -0.036450133 0.109257706 0.08407235
0.017547991 0.10085513 -0.053867135 0.01772945 -0.038348224 0.053538304 -0.00083304395 0.088102266
0.037833285 -0.03285313 -0.027842546 0.049678102 0.08102142 -0.07361739 -0.0653656 0.09612666
-0.040061697 -0.089056514 -0.025626801 0.016914256 0.02933082 0.010289424 0.080114625 0.027661284
-0.10446709 -0.008477567 -0.04464102 -0.019737452 0.044677295 -0.069693506 -0.048997648 0.0064585516
0.06005611 -0.04420269 0.06492758 0.06362469 0.0835352 -0.099873856 -0.071363956 0.021377575
-0.05019401 0.055819362 0.06869268 0.04013082 0.052534375 -0.063407056 0.028123412 -0.0137469
0.09645307 0.031785946 -0.04291002 0.05233035 0.074084096 -0.037427094 0.061883863 -0.06542236
0.10339253 0.0043042623 -0.01801771 0.036172606 -0.09133031 -0.060943928 -0.032746408 -0.07290304
0.12105186 -0.05920703 0.025264967 0.03621872 -0.0041800872 -0.09558262 0.058728833 0.02553948
-0.07765532 0.046318952 0.044041328 -0.06278874 0.0014701656 0.0036329615 -0.011464256 -0.11249428
-0.06302726 0.010378595 0.0021790124 0.0019593555 -0.03145013 0.14424103 0.089798026 0.022181995
-0.03249243 0.08133804 0.08844699 0.07673116 0.066346414 -0.06081694 -0.031949 0.03620957
-0.058811124 0.011103779 0.055875007 0.069726065 0.10535371 0.024909012 -0.04265615 0.025573429
-0.039647087 0.007915156 -0.0685134 -0.08348413 -0.039483365 0.021262683 0.0662994 -0.032191414
-0.06138972 0.061283886 0.029495277 -0.008943733 0.044039626 -0.09138133 0.08307358 -0.036817357
0.039660234 0.01793831 -0.0019937868 -0.07687226 -0.02466034 0.008901806 0.09455235 0.058221307
-0.07821118 0.041092932 -0.0014553937 -0.014864158 -0.056396972 -0.08089256 0.01507974 0.043806363
-0.0610672 -0.06412434 0.10553094 -0.03976817 0.09925758 -0.06541866 -0.06035007 -0.010412717
-0.07489602 -0.0016497275 -0.065639414 -0.0788423 0.07315596 -0.023820706 0.017706368 -0.021062259
-0.06411165 0.069431275 0.014801887 -0.06159919 -0.03623167 -0.029625667 0.026871888 -0.071258396
00000000: bb08 96bd 0de7 043c dad8 df3c 6114 633d
00000010: dc5b fa3d ca7c c7bd f954 823d fcd3 763c
00000020: 7559 8a3c 7421 963d 90ef bdbd fd0b 10bc
00000030: e1ad 75bd b0d1 0f3d 38bf 8b3d dc90 5a3d
00000040: fb93 883d 707f af3d 8aef 3d3c 8861 4bbc
00000050: f5bb 923d abb2 0f3d 4331 5c3d 3e38 1e3c
00000060: e51f ad3d 0514 843d 9141 bfbb d7f1 623d
00000070: 50f9 25bd 7db1 dbbd e17f 0d3d 22de c93c
00000080: f1a5 c4bc acbc 93bd cb9e 17be 26e1 2d3d
00000090: c5d2 67bd c161 d4bd 8b50 123d e433 b23d
000000a0: 70c2 bf3c 12be 2a3b 4f64 81b9 75ff 82bd
000000b0: 1b74 b13c 2699 bd3d 8c03 a2bd 68b4 9fbd
000000c0: 2b56 6e3c dce6 3dbd 3dcc afbd c59a 1ebc
000000d0: 9fb4 a03c c2b8 8f3d 5bd5 ac3d ee89 813d
000000e0: 3d2e 213d ebbf 9a3d bc22 943b 58dc 5a3d
000000f0: f5be 8cbd fd1c 88bd b046 a6bd 7a82 6d3d
00000100: 1b6c fbbc a9a3 b43d 8632 16bd 2f45 8cbd
00000110: 174f 893c dbb9 023d 90f8 b63c 3ee6 9abd
00000120: c3bc 173a f802 f1bd 3044 8e3d 4c34 b83c
00000130: b60b 593d de6c 0e3d 8a94 3d3c 4215 b8bd
00000140: e96b ac3d 7cbd e53c 5708 163d 5dec 0bbd
00000150: 7e83 8abd e230 103d a0f5 a13d 593b febc
00000160: 7a69 43bd 4a23 0bbd 0706 37bb 91e4 8fbd
00000170: 349f 083a bc4c 15bd 81c2 df3d 202e ac3d
00000180: cec0 8f3c 228d ce3d c9a3 5cbd 5a3d 913c
00000190: 0713 1dbd fb4a 5b3d a260 5aba f66e b43d
000001a0: 13f7 1a3d 0191 06bd 0d16 e4bc 447b 4b3d
000001b0: 8fee a53d b7c4 96bd 66de 85bd 0ede c43d
000001c0: bc17 24bd 4363 b6bd 4cef d1bc c48f 8a3c
000001d0: 3047 f03c f994 283c 2313 a43d eb99 e23c
000001e0: d7f2 d5bd 7ee5 0abc 81d9 36bd 70b0 a1bc
000001f0: 8aff 363d 78bb 8ebd c2b1 48bd 42a2 d33b
00000200: 65fd 753d e10d 35bd c0f8 843d a94d 823d
00000210: 8114 ab3d aa8a ccbd 4427 92bd 0620 af3c
00000220: 3c98 4dbd d8a2 643d bfae 8c3d 3760 243d
00000230: 492e 573d 8fdb 81bd 1263 e63c ad3a 61bc
00000240: 3089 c53d fb31 023d 6bc2 2fbd 5958 563d
00000250: 67b9 973d 274d 19bd ef79 7d3d 29fc 85bd
00000260: 76bf d33d c50a 8d3b e099 93bc ba29 143d
00000270: 630b bbbd 57a0 79bd 1921 06bd 304e 95bd
00000280: 0aea f73d 1283 72bd 7af8 ce3c 155a 143d
00000290: 1df9 88bb d2c0 c3bd a58d 703d 2c38 d13c
000002a0: c109 9fbd f1b8 3d3d ae64 343d 6297 80bd
000002b0: 92b2 c03a fb16 6e3b 93d4 3bbc 6763 e6bd
000002c0: 7014 81bd fc0a 2a3c c3cd 0e3b 8868 003b
000002d0: dad1 00bd ecb3 133e 07e8 b73d 04b7 b53c
000002e0: c816 05bd 8f94 a63d b223 b53d 3a25 9d3d
000002f0: a1e0 873d 2f1b 79bd f4dc 02bd 7c50 143d
00000300: efe3 70bd a0ec 353c 31dd 643d 8acc 8e3d
00000310: b0c3 d73d fc0d cc3c 37b8 2ebd 5e7f d13c
00000320: fc64 22bd 92ae 013c c150 8cbd baf9 aabd
00000330: 4fb9 21bd 142f ae3c fbc7 873d 25db 03bd
00000340: c973 7bbd d004 7b3d 14a0 f13c bc88 12bc
00000350: e562 343d 2226 bbbd 7b22 aa3d cccd 16bd
00000360: c572 223d 5df3 923c 31aa 02bb 346f 9dbd
00000370: 7b04 cabc e1d8 113c aaa4 c13d 7779 6e3d
00000380: 2f2d a0bd 1051 283d e9c2 beba cc88 73bc
00000390: 8300 67bd 00ab a5bd 0411 773c 4d6e 333d
000003a0: 9a21 7abd 9f53 83bd 9b20 d83d f3e3 22bd
000003b0: 8f47 cb3d 38fa 85bd a331 77bd 1a9a 2abc
000003c0: 1663 99bd ab3b d8ba f56d 86bd 1278 a1bd
000003d0: cbd2 953d a423 c3bc f20c 913c c28a acbc
000003e0: f84c 83bd fc31 8e3d 9d83 723c 6f4f 7cbd
000003f0: a967 14bd 87b1 f2bc 6f22 dc3c ecef 91bd

lstm.weight_hh_l1 f4 [512, 128]
0.078424245 0.008262327 -0.07228475 -0.037656963 0.012010625 0.062814444 -0.0739836 -0.0710381
-0.032353524 -0.037122417 -0.07593325 0.009941951 0.08205814 -0.066359796 0.08532608 -0.04452858
0.03206702 -0.045444127 0.09011027 0.08482726 -0.0070429672 0.07095294 -0.022577792 0.022034146
-0.0058067436 0.009182748 -0.08083354 0.08226965 0.064709 -0.06407735 -0.006748336 -0.10036821
0.04821744 -0.04014739 0.042083666 0.040757366 0.005992931 -0.004100523 -0.06216328 -0.051296093
-0.023265176 0.05197883 -0.076437294 -0.040724114 -0.051974833 -0.019282706 -0.013981437 0.026025856
-0.0052834065 -0.03165423 -0.07985066 -0.04844623 0.040977817 -0.012961851 -0.061610106 0.010746639
-0.022777796 -0.022867009 0.016377244 -0.064746685 0.07561608 -0.093908265 0.06113169 -0.023127848
-0.07729184 0.039293192 0.042350266 0.05813729 -0.083470985 0.01021312 0.04180451 0.027678657
-0.05887656 -0.025480071 0.015573393 -0.0021883722 -0.02000349 0.07502066 -0.014943725 0.0766383
-0.049604192 -0.0043824953 -0.028661085 -0.054454796 -0.02008691 -0.08147041 0.08262979 -0.07124911
-0.0078498125 0.039506327 0.026433421 -0.04014813 0.049150072 0.033135023 -0.0457472 0.04637105
0.03873883 0.03410479 -0.088113114 0.06355459 0.083622955 -0.05314414 0.04929995 -0.101125315
-0.057046354 -0.045154333 0.06825082 -0.06930817 0.07885677 -0.014201252 0.077662244 0.042792328
0.053077977 -0.07601436 0.05156816 0.007754637 0.014557491 -0.040071495 0.020860065 -0.024753373
0.045286145 0.024280295 -0.012551046 -0.03231355 -0.038573533 0.07448974 0.072070114 0.038913567
-0.062567644 0.043576222 -0.0908045 -0.05967282 -0.09669318 -0.06653436 -0.042111695 0.08078586
0.0544723 0.048133414 -0.0544817 -0.083276406 0.0507578 0.09300795 0.08886483 -0.012625672
-0.032608308 -0.026949756 0.012963949 0.005716042 -0.06969111 -0.022541963 0.02823116 -0.057704017
-0.052537657 -0.06961459 -0.047519162 -0.028037876 -0.042928524 0.010559607 0.1094287 -0.059580304
0.0047355127 -0.077003375 0.07737949 -0.08137019 0.007525906 0.09261256 0.04661451 0.066745795
-0.075393155 -0.05781478 0.028404793 -0.03615613 0.046216123 -0.051135477 -0.032021087 -0.085602604
0.031067768 0.03224209 0.04250117 0.07783307 0.05609705 0.007105703 -0.047880966 0.09166412
-0.039828792 -0.07632447 0.07345025 -0.025960013 -0.06753474 0.017133888 -0.05387379 0.10103965
-0.01709598 -0.062947445 0.011820354 0.07546093 -0.08661685 0.00032465224 -0.050044753 0.058824264
0.021738216 -0.063600145 0.040577248 0.0567665 0.04399316 0.026051598 -0.06260603 -0.046864375
-0.10880748 0.030175718 -0.0841984 -0.045936406 0.097158216 -0.09418166 -0.027631555 -0.020264123
-0.06692609 0.024393778 -0.0710829 -0.020312723 0.0144426385 0.039475523 0.04855837 -0.033380307
-0.091124654 0.03044078 -0.10934526 -0.020963412 0.02591354 0.0961104 -0.054969408 0.052791104
0.042122804 -0.045204323 0.022579975 0.06726375 0.09488158 0.011659845 0.0882397 0.041268002
-0.0492232 -0.07421492 -0.029937383 0.06094051 -0.07987128 -0.097450815 0.045018785 -0.027171262
0.023999985 0.036986537 -0.017703703 0.028360391 -0.073805556 -0.09725494 -0.06907067 0.0766461
00000000: e49c a03d b65e 073c 070a 94bd 303e 1abd
00000010: 36c8 443c dca4 803d b784 97bd 6c7c 91bd
00000020: 2185 04bd ad0d 18bd e482 9bbd 91e3 223c
00000030: 190e a83d a5e7 87bd 71bf ae3d 9a63 36bd
00000040: b558 033d 9f23 3abd bc8b b83d eab9 ad3d
00000050: b1c8 e6bb c64f 913d 10f5 b8bc f480 b43c
00000060: 7f46 bebb 3d73 163c 0e8c a5bd fe7c a83d
00000070: 2786 843d fc3a 83bd 2521 ddbb d98d cdbd
00000080: a67f 453d 9771 24bd ec5f 2c3d 32f1 263d
00000090: 5960 c43b ae5d 86bb ec9e 7ebd da1b 52bd
000000a0: 9c96 bebc c1e7 543d 288b 9cbd 54ce 26bd
000000b0: 90e3 54bd c4f6 9dbc 6612 65bc 2d34 d53c
000000c0: 6d20 adbb dea7 01bd be88 a3bd 8e6f 46bd
000000d0: 5bd8 273d f25d 54bc e15a 7cbd ac12 303c
000000e0: 8098 babc 9853 bbbc 9229 863c e999 84bd
000000f0: 9adc 9a3d fa52 c0bd 3965 7a3d 9d76 bdbc
00000100: 2f4b 9ebd e6f1 203d 7977 2d3d 5e21 6e3d
00000110: d6f2 aabd ee54 273c 353b 2b3d 5abe e23c
00000120: 8c28 71bd 95bb d0bc 8b27 7f3c cb6a 0fbb
00000130: 5cde a3bc 6fa4 993d 87d6 74bc 8bf4 9c3d
00000140: c42d 4bbd 099b 8fbb a7ca eabc fe0b 5fbd
00000150: 4e8d a4bc f5d9 a6bd cf39 a93d 0eeb 91bd
00000160: 809c 00bc 63d1 213d e78a d83c 5e72 24bd
00000170: 9651 493d 97b8 073d 6a61 3bbd 92ef 3d3d
00000180: 9bac 1e3d 77b1 0b3d a674 b4bd e928 823d
00000190: 8342 ab3d abad 59bd bfee 493d ca1a cfbd
000001a0: 70a9 69bd c0f3 38bd 16c7 8b3d 71f1 8dbd
000001b0: a97f a13d 5eac 68bc 620d 9f3d 0247 2f3d
000001c0: 4b68 593d 6bad 9bbd 2339 533d 9c1a fe3b
000001d0: 8b82 6e3c 0222 24bd bae2 aa3c 96c7 cabc
000001e0: f77d 393d 78e7 c63c e7a2 4dbc 375b 04bd
000001f0: 48ff 1dbd 148e 983d 7f99 933d d563 1f3d
00000200: 7723 80bd fb7c 323d b6f7 b9bd 7d6b 74bd
00000210: 1307 c6bd 2b43 88bd 507d 2cbd 0f73 a53d
00000220: 591e 5f3d 8b27 453d 3428 5fbd d28c aabd
00000230: 69e7 4f3d f47a be3d c4fe b53d e8db 4ebc
00000240: 4a90 05bd bcc5 dcbc be66 543c a34d bb3b
00000250: 36ba 8ebd eca9 b8bc 0945 e73c 0c5b 6cbd
00000260: ba31 57bd 1892 8ebd 74a3 42bd b0af e5bc
00000270: d2d5 2fbd 3402 2d3c 271c e03d 7a0a 74bd
00000280: 5c2c 9b3b f2b3 9dbd 2379 9e3d 6aa5 a6bd
00000290: e09b f63b a7ab bd3d dbee 3e3d 05b2 883d
000002a0: ba67 9abd 31cf 6cbd 2bb1 e83c 7318 14bd
000002b0: 1e4d 3d3d 6f73 51bd 8b28 03bd 6b50 afbd
000002c0: d581 fe3c 4810 043d b515 2e3d f266 9f3d
000002d0: 05c6 653d f5d6 e83b d51e 44bd 66ba bb3d
000002e0: 8423 23bd 0150 9cbd 166d 963d 18aa d4bc
000002f0: a74f 8abd 5e5c 8c3c c3aa 5cbd e0ed ce3d
00000300: de0c 8cbc 97ea 80bd 28aa 413c 438b 9a3d
00000310: 2d64 b1bd 1636 aa39 bafb 4cbd b6f1 703d
00000320: 5814 b23c cb40 82bd 5434 263d fd83 683d
00000330: 2c32 343d 296a d53c 9737 80bd dcf4 3fbd
00000340: 75d6 debd 1133 f73c 3670 acbd d027 3cbd
00000350: e3fa c63d 50e2 c0bd 925b e2bc f200 a6bc
00000360: 8c10 89bd 76d5 c73c e993 91bd de66 a6bc
00000370: d1a0 6c3c 16b1 213d 24e5 463d cab9 08bd
00000380: 909f babd f15e f93c 68f0 dfbd 76bb abbc
00000390: a248 d43c 88d5 c43d 9a27 61bd 7c3b 583d
000003a0: f688 2c3d 2b28 39bd a4f9 b83c 94c1 893d
000003b0: 4651 c23d ef08 3f3c 04b7 b43d a308 293d
000003c0: 449e 49bd fefd 97bd 3e3f f5bc c29c 793d
000003d0: 8e93 a3bd 4b94 c7bd 9e65 383d 4496 debc
000003e0: 9e9b c43c 327f 173d 5b07 91bc 0d54 e83c
000003f0: 5e27 97bd 992d c7bd ec74 8dbd a1f8 9c3d

lstm.bias_ih_l1 f4 [512]
0.009315287 -0.031229036 -0.09991904 -0.096986935 -0.08120095 0.08737707 -0.018378627 -0.0075188256
-0.053679504 0.0007554342 0.084347904 0.04410079 0.047083523 0.003904652 -0.09528422 -0.06777641
-0.007868325 -0.10994837 0.040311612 -0.070642084 -0.048895855 0.06371465 0.06187766 0.07762286
-0.06706168 -0.014217477 -0.062478717 0.021487182 -0.035421688 -0.0742288 -0.08041436 -0.017931268
0.02089742 0.03514827 0.021611044 0.05452466 -0.085527115 -0.061080243 -0.02722945 -0.05895684
-0.0080300355 0.063176386 -0.013307471 0.072353415 0.029977124 0.025797734 -0.072153084 -0.03746359
0.059272375 -0.07836772 0.05575506 -0.061453816 0.05653986 -0.060499083 -0.021793338 0.20704305
0.024191018 0.016614333 0.066542484 -0.047294736 0.044410046 0.050311398 0.05446014 0.027544545
-0.03248792 0.077654414 -0.03200827 0.053227037 -0.013208198 0.03233615 0.009055064 0.07219495
0.030185517 0.008587749 -0.07732847 0.086971596 0.07896386 0.05236825 -0.04808463 -0.07102096
-0.08576097 -0.03969114 0.054001678 -0.051056135 -0.029415924 -0.016316826 -0.09429795 0.055620782
0.0009126157 0.06353633 -0.055871554 -0.078173846 0.035355728 -0.013848718 -0.019976534 -0.03304579
-0.018225655 0.07123797 -0.036115494 -0.037221473 -0.02020048 0.047682423 -0.073876046 0.10230146
-0.035159476 -0.0019249353 -0.03264499 0.036359943 -0.010991274 0.06473602 0.11433747 -0.023065707
-0.0436175 0.068004616 0.0382606 0.018519733 0.009381335 0.030457526 -0.09054866 -0.041339252
-0.056564584 -0.07140958 0.02001962 0.057848964 -0.05596065 0.05818579 -0.08193495 0.013217163
-0.06306581 -0.008839127 0.008912171 0.01455985 -0.040545426 -0.042009342 0.056902975 0.015493694
0.06500198 -0.049724326 -0.04853341 -0.06825449 -0.029926442 0.016029013 -0.096030876 -0.0021139584
-0.0041948 -0.08544995 -0.0012008534 -0.0775615 0.06605649 0.055402014 0.013410262 0.038062427
0.00657481 -0.0681097 -0.062628336 -0.04609797 0.031427875 -0.013112966 -0.03035338 -0.08060895
-0.075061455 0.008185698 0.047970466 -0.012263897 0.057140138 0.022371495 -0.04500249 -0.01999106
0.011536427 0.0405628 -0.051718798 0.025799522 0.033256646 -0.04901957 0.06744387 -0.014346332
-0.008797498 0.05997851 -0.002342698 -0.08669526 -0.099173486 -0.00096843304 -0.04581087 -0.07513752
-0.061331205 -0.034159854 -0.012097583 0.026463669 -0.00053234224 -0.073226474 -0.040099405 -0.0067369156
-0.056136373 0.005243057 0.08285382 0.05361635 -0.09264006 -0.053054847 0.046883654 -0.047145102
-0.102430806 0.086807966 0.037303846 -0.07314406 0.00044664336 -0.036973402 0.018818634 0.03740075
-0.037736207 0.016803296 -0.045089085 0.012877055 0.06327866 0.015707768 -0.019681416 0.0226278
-0.034276016 0.012915844 0.068843454 0.07168888 -0.049917813 0.051327314 -0.06309766 0.049146276
0.029735845 -0.03309196 0.06125961 -0.08823347 0.057371683 0.06033925 0.08115311 0.027954753
0.057807036 -0.05311897 0.07115932 0.02958262 0.040616114 -0.10452905 -0.0659579 0.0126548745
-0.044398747 0.07286621 0.010211236 -0.048675817 -0.054811683 -0.019370679 -0.034844283 0.031154625
0.060865026 0.012099922 -0.06251592 -0.018483061 -0.023852954 0.012889478 -0.06022154 -0.01804325
00000000: 259f 183c 09d4 ffbc 5ba2 ccbd 16a1 c6bd
00000010: af4c a6bd c0f2 b23d c68e 96bc 7b60 f6bb
00000020: 0adf 5bbd 5508 463a 98be ac3d 08a3 343d
00000030: a7da 403d 31e5 7f3b 6024 c3bd 5cce 8abd
00000040: 26ea 00bc 9c2c e1bd ca1d 253d ccac 90bd
00000050: 0547 48bd d47c 823d 6e73 7d3d bcf8 9e3d
00000060: a257 89bd 6cf0 68bc afe9 7fbd e305 b03c
00000070: 5516 11bd 4505 98bd 49b0 a4bd 98e4 92bc
00000080: 1131 ab3c a2f7 0f3d a509 b13c 4055 5f3d
00000090: d728 afbd 472f 7abd 4c10 dfbc ba7c 71bd
000000a0: 6990 03bc 9f62 813d 9407 5abc 072e 943d
000000b0: 9692 f53c c555 d33c ffc4 93bd 6c73 19bd
000000c0: 97c7 723d 417f a0bd 6b5f 643d ffb6 7bbd
000000d0: 5796 673d e3cd 77bd f187 b2bc 1803 543e
000000e0: 3e2c c63c c81a 883c 6d47 883d 20b8 41bd
000000f0: 4fe7 353d 5313 4e3d 9911 5f3d 19a5 e13c
00000100: 0e12 05bd 4709 9f3d 1b1b 03bd 9804 5a3d
00000110: 3367 58bc e972 043d b15b 143c f2da 933d
00000120: 9e47 f73c a1b3 0c3c 645e 9ebd 2a1e b23d
00000130: ceb7 a13d 1780 563d 64f4 44bd 7073 91bd
00000140: 73a3 afbd 2d93 22bd dd30 5d3d 3d20 51bd
00000150: aaf9 f0bc ddaa 85bc 491f c1bd 9ed2 633d
00000160: 9a3c 6f3a 561f 823d 92d9 64bd 9c19 a0bd
00000170: 2bd1 103d bce5 62bc d4a5 a3bc 065b 07bd
00000180: f84d 95bc 36e5 913d d7ed 13bd 8b75 18bd
00000190: 7a7b a5bc a54e 433d 534c 97bd 6e83 d13d
000001a0: 6203 10bd 1c4e fcba c1b6 05bd 2aee 143d
000001b0: bf14 34bc 5294 843d c329 ea3d 4bf4 bcbc
000001c0: 44a8 32bd 0146 8b3d 26b7 1c3d b2b6 973c
000001d0: 2cb4 193c 1082 f93c 9371 b9bd 5953 29bd
000001e0: 44b0 67bd 303f 92bd 3000 a43c 09f3 6c3d
000001f0: ff36 65bd 3954 6e3d 83cd a7bd cd8c 583c
00000200: a628 81bd fcd1 10bc 5b04 123c 708c 6e3c
00000210: f612 26bd fd11 2cbd 1813 693d 43d9 7d3c
00000220: c21f 853d bcab 4bbd f8ca 46bd 03c9 8bbd
00000230: 4c28 f5bc 474f 833c d6ab c4bd 568a 0abb
00000240: 8874 89bb 6200 afbd f465 9dba 90d8 9ebd
00000250: a048 873d 39ed 623d b7b6 5b3c 59e7 1b3d
00000260: 8171 d73b 197d 8bbd 4943 80bd 3ad1 3cbd
00000270: 84ba 003d c4d7 56bc a7a7 f8bc 4e16 a5bd
00000280: d2b9 99bd 4e1d 063c ae7c 443d 83ee 48bc
00000290: c70b 6a3d 6d44 b73c 8854 38bd 4bc4 a3bc
000002a0: 4803 3d3c 2e25 263d 17d7 53bd 8559 d33c
000002b0: 1f38 083d bfc8 48bd 0320 8a3d e10c 6bbc
000002c0: 6223 10bc 07ac 753d f387 19bb 498d b1bd
000002d0: 781b cbbd 71de 7dba 2ea4 3bbd b3e1 99bd
000002e0: 6e36 7bbd 34eb 0bbd f134 46bc 56ca d83c
000002f0: e28c 0bba c3f7 95bd 463f 24bd 58c1 dcbb
00000300: 41ef 65bd f3cd ab3b 43af a93d d19c 5b3d
00000310: 12ba bdbd 0a50 59bd 1309 403d 391b 41bd
00000320: 3ec7 d1bd 60c8 b13d ebcb 183d 8ecc 95bd
00000330: 752b ea39 6c71 17bd 8929 9a3c 8731 193d
00000340: 4891 1abd 11a7 893c 55af 38bd 49fa 523c
00000350: 3e98 813d 94ad 803c ec3a a1bc f05d b93c
00000360: 0265 0cbd fa9c 533c ccfd 8c3d 9fd1 923d
00000370: 9f76 4cbd 973c 523d 5939 81bd 9b4d 493d
00000380: 9698 f33c 6f8b 07bd 5beb 7a3d c0b3 b4bd
00000390: 92fe 6a3d 4a26 773d 9a33 a63d 5e01 e53c
000003a0: 12c7 6c3d 4793 59bd fabb 913d 4057 f23c
000003b0: 155d 263d 5413 d6bd ef14 87bd 6456 4f3c
000003c0: 76db 35bd e13a 953d 074d 273c 4b60 47bd
000003d0: 3782 60bd 42af 9ebc e1b8 0ebd fc37 ff3c
000003e0: 9b4d 793d c03e 463c 5908 80bd ca69 97bc
000003f0: 4567 c3bc 642e 533c ddaa 76bd 70cf 93bc
