backend/ml_models/MGLU3.SA/model.pt (torch, 807686 bytes, 9 tensors)

lstm.weight_ih_l0 f4 [512, 5]
00000000: 0fea 3c3e ba5b 523e 6bb2 203e fdfc cd3d
00000010: 0525 3f3e 9678 243d d6eb f23d d5f9 133d
00000020: b573 f73d 7a31 503d 1b4d 79bd c8cc af3d
00000030: 9078 0c3c 9c7b d63d 7c80 a9ba 73fa 613d
00000040: 2e21 bbbc 54ed 8b3d af7e a93d 9b07 ea3d
00000050: cd61 4ebd 9bca ba3d 53d1 54bd 3144 ab3d
00000060: 8ad3 a1bd 1cac 1d3d 974c 3fb9 44c7 ca3d
00000070: 612b e93d 7bd2 b4bd 934b a1bd 9b2a 133c
00000080: 6f43 473d d029 9d3b 10dc 793d 9a54 ec3b
00000090: 9866 c43c 29c1 523d 6880 193c 17af 81bd
000000a0: e599 893d 65a4 2abd af6c 193d f380 353d
000000b0: b226 803c ce47 953d 0698 17bc c8bc 99bb
000000c0: 5f8f c73d 06b5 cbbc e7b9 373c 14c7 e73d
000000d0: ded4 973d 1703 1bbd 77cd cf3c 07e2 a33e
000000e0: 6a9e 433e 53f6 313e f07d 9a3e 0045 e63e
000000f0: fa54 923d 013b 993d 6d75 30bd ce38 2a3d
00000100: 61ff 363d 4bd7 fa3c 24a4 f93d 730c 903d
00000110: a4b4 fc3d 0cc0 42bd 13e4 3f3c 1d99 923c
00000120: d5b1 90bc 6f65 8fbc a6d3 89bb ee4f a23d
00000130: 2fa8 8e3d c155 f23d e082 fb3d 4887 3e3d
00000140: 66e5 3d3d 59f2 c53c 7743 1bbd 9f38 b8bc
00000150: 8e96 3a3b 2aa7 a63d 077b 913d a9a9 983d
00000160: 29d9 893d f30c 13bc f693 883d 91ab f23c
00000170: e668 713d 2fe6 7c3d b495 adbd b21e 2fbd
00000180: 0204 713d 8920 8e3c 3bea 763d d3b7 67bd
00000190: 96e2 c03c 32c1 793d 3d24 823b 79c3 f23b
000001a0: ad66 4c3d c11b a23d 487c c73c dda6 483d
000001b0: ecbe 87bb 45aa 783d 392f 9ebc fdaa 113d
000001c0: 56f5 163d a027 ed3d 955e a83d ba7a a83d
000001d0: 5838 a33d 80a8 fb3d e255 063d 7a98 bfbd
000001e0: 84d9 1ebd b6b8 9e3d 6a00 c03c 5847 8ebc
000001f0: 6eac 63bd 5faf a33d 2613 acbc 46c2 c9ba
00000200: 1f61 0abd 9706 8f3d 22e4 883c b133 b93d
00000210: 6a63 673d 5784 28bc a575 14bc af27 fb3c
00000220: d161 fb3d 08d5 cb3d 543e a1bc 6753 8ebd
00000230: d657 313e 558b 463e bc3d e43d eac7 023e
00000240: b003 253e fc72 6dbd 706f e03c a010 34bb
00000250: f3fd 4dbd 57ba 603d 19de 12bd afe5 c23c
00000260: 9dd4 a03d c47e 9c3d 5ad4 49bd 8a53 89bc
00000270: 16a2 843c 7271 91bc 9761 ca3d e69b 683c
00000280: 35b9 76bd e431 d6bb bddc 1abd aa08 233a
00000290: 53ce 383d 6a13 3f3d 6dfe b93d c208 cd3c
000002a0: d0d6 3d3d f958 2c3d c2f9 54bd 7f6e 173d
000002b0: 5da2 703d bfcb f13b 5142 09bd 9d2e 113d
000002c0: 351e 923d 79f9 d03c b4dd f13d ed75 af3d
000002d0: f4d7 68bc c28e 3c3d 2250 8ebd abda aabd
000002e0: cca4 47bc e1b1 ad3c 64e3 163d 890e cb3d
000002f0: 5b69 1b3c b30b 26bd 005e 373d da04 b13d
00000300: 4be5 50bd e09f d73b a48d 583b 4cf7 8bbc
00000310: 546b a63d 4c12 a73a 5afb f73d 2207 07bd
00000320: e2bc c73d 4955 de3d 125a 743d 2024 9a3d
00000330: dda7 dfbd 4ba9 0bbd 314e 9e3d cd6e 77bc
00000340: 9da6 95bc a588 543d 3bb4 eabc 6cda 5f3d
00000350: 17f3 de3c 60c7 773d bdb3 9f3c d52f bb3d
00000360: afc7 d83d d598 a43c 9782 c43c 3aee 9bbd
00000370: 925b 943d 3fdb 353c c56d c83d f4be 843d
00000380: 75a2 a83c 71ac 813d c1f9 f73d 82c2 c33d
00000390: ef25 6f3a 44b4 c63c 8741 bc3c 26e5 b6bc
000003a0: 77e0 b23d 4fea a43d 0bc2 50bd 4bf3 b03d
000003b0: 0383 b33d 88ee 483c 9cb8 183e c309 eebc
000003c0: 9373 8e3c d394 b23d 445b ad3d a9bc 3ebc
000003d0: ea5c 273d 3d56 433d 5087 2f3d c9cb 77bd
000003e0: b942 f63c a80d 87bc e3b9 6dbd 2322 703d
000003f0: fa76 ecbc 9323 fa3d 478d 053d f68a 603d
0.18448661 0.20542803 0.15693061 0.10058019 0.18666466 0.040154062 0.118613884 0.03612693
0.12082616 0.050828435 -0.06086455 0.08583981 0.008573666 0.10472795 -0.0012931968 0.055170488
-0.02284297 0.06832376 0.08276116 0.11427232 -0.05038624 0.09120675 -0.05195744 0.08362616
-0.07901676 0.038494214 -0.00018243711 0.09901288 0.11385227 -0.088292085 -0.07875743 0.008982326
0.048648294 0.004796244 0.061000884 0.0072122337 0.023974702 0.051453743 0.009368993 -0.06332224
0.06718806 -0.041660685 0.037457164 0.04431243 0.015643451 0.07289086 -0.009252554 -0.004691694
0.09744143 -0.024866592 0.011213756 0.11317268 0.07413648 -0.037844744 0.025366528 0.32008383
0.19103399 0.17379121 0.30174208 0.44974518 0.07145114 0.07481957 -0.043080736 0.04155808
0.044677142 0.030620238 0.121895105 0.070336245 0.12339142 -0.04754643 0.011712092 0.017895276
-0.017662922 -0.017504422 -0.0042061387 0.07925402 0.06965672 0.118327625 0.12280822 0.046515733
0.04636135 0.024163412 -0.037906136 -0.022487937 0.0028471085 0.08137353 0.07103544 0.07454235
0.06730873 -0.008975255 0.06668846 0.029622825 0.05893793 0.061742958 -0.08475819 -0.042753883
0.058841713 0.017349498 0.060281973 -0.056571793 0.023545545 0.06097526 0.003971605 0.007408556
0.049902607 0.0791545 0.024351254 0.04898726 -0.0041426327 0.060709257 -0.019309627 0.035563458
0.036855064 0.115798235 0.08221165 0.08226533 0.07969731 0.12287998 0.032796748 -0.093552545
-0.038781658 0.077500746 0.023437697 -0.017368004 -0.055584364 0.07992434 -0.021005224 -0.0015392981
-0.03378403 0.06983679 0.016710345 0.090430625 0.056491293 -0.0102854585 -0.009061252 0.030658571
0.122745164 0.09952742 -0.01968304 -0.069495015 0.17318663 0.19389088 0.111445874 0.12771574
0.16114688 -0.057970986 0.027396888 -0.002747573 -0.050291013 0.054865208 -0.03585634 0.023791162
0.07853053 0.07641366 -0.04927478 -0.016763467 0.01619057 -0.01775429 0.09881895 0.014197325
-0.06023522 -0.006536709 -0.03780817 0.00062192476 0.04511864 0.046649374 0.09081731 0.02502859
0.04634744 0.04207704 -0.051996 0.03697061 0.05874859 0.0073790248 -0.03351051 0.035444845
0.07134668 0.025509583 0.11809865 0.085674144 -0.0142116435 0.046034582 -0.06948878 -0.08342489
-0.012185287 0.021202983 0.03683795 0.09914882 0.009485568 -0.0405385 0.04476738 0.086435035
-0.05099992 0.006580338 0.0033043409 -0.017085694 0.0812594 0.0012746542 0.121084884 -0.032965787
0.097528234 0.108561106 0.05965621 0.075264215 -0.10920689 -0.034096997 0.077297576 -0.015102101
-0.018267924 0.051888127 -0.028650394 0.054651663 0.027215524 0.060492873 0.019494886 0.091399826
0.105849616 0.020092407 0.023988051 -0.076137975 0.07244028 0.011099636 0.09786562 0.06481734
0.020585278 0.06331719 0.12108184 0.09558584 0.0009122779 0.02425588 0.022980465 -0.022326063
0.087342195 0.08052503 -0.050966304 0.086401545 0.08765223 0.0122639015 0.14914173 -0.02905739
0.017389094 0.08719792 0.08464673 -0.01164166 0.040860094 0.047689665 0.042853653 -0.06049708
0.030061113 -0.016486004 -0.058038604 0.058626305 -0.028865326 0.122138165 0.032605436 0.054820023

lstm.weight_hh_l0 f4 [512, 128]
00000000: 4408 03bb 94cd e83d 4944 f83d 552b 48bd
00000010: d7ad b6bd 34b4 a3ba b3ec d23d 8dab ecbc
00000020: cb33 e8bc 4f5c be3d 131d 3f3c 2bc0 0e3d
00000030: 19ae 38bd 4805 7f3d d187 b43d e2c2 523d
00000040: d7c0 8b3d a587 cbbd 5af9 1cbd a007 99bc
00000050: f554 5b3d c35b cdbc 9e45 223d 7755 b83c
00000060: 4171 4cbc 8c4d d7bd a8ba a6bd 5532 5abc
00000070: 3a32 fdbd 18b5 95bd c07f 17bd b83b d6bd
00000080: 40ee 62bc a1b5 42bc 485a 95bd 2f7c 25bd
00000090: 66e6 2b3d 3dad c13d e768 f3ba b790 f6bc
000000a0: 959b d43c 22da d0bc f221 3a3c 4a4a 61bd
000000b0: d7e2 133d 73d2 db3c 6592 8cbd 02f6 3c3c
000000c0: 2c88 cebb d314 9b3b d11c f8bd 483d 91bd
000000d0: b043 09bd 0039 e8bd de30 c53b 72d5 b83d
000000e0: 0d0b 793d 186b bf3d f488 02bd fc23 c1bd
000000f0: 0a0c 03bd 3047 a7bd 5785 473d 4d2d 3bbc
00000100: d6a2 803d 6c95 a23d 02e1 cf3d a95e d4bc
00000110: 9cbf 59bc 6b20 35bd 7627 86bd 8d1d b83d
00000120: 8600 dfbd 485a acbd dd36 103d 0260 0ebd
00000130: 994e ecbc 9e1e 43bd bfce be3c 45c7 1ebd
00000140: 8273 423c 8c49 1e3c 6cf6 7bbd ecec 2d3c
00000150: 3203 113c bacc c93c a9b6 30bc 44d5 fcbb
00000160: fd9c f7bb 2d92 3b3d 8b61 20bc 979c 8cbd
00000170: afe2 cbbd 7efc 9fbd 84b3 70bc cbc7 d8bc
00000180: 676c 73bc 8a66 9db9 64ec a3bd e5db 36bc
00000190: 2ffa 8fbc eab3 7f3d 5976 c33d 5939 b4bc
000001a0: bd5a b13c 1abe 9fbb fa42 b73c 0b6c 4d3d
000001b0: d740 9d3d 0e26 9d3b a7bc b0bc ff46 2c3c
000001c0: a762 bbbd 39f4 ea3b 6fe0 6b3c 3902 9e3d
000001d0: 3475 55bc 04e5 5e3c 14a5 073d c71c e6bd
000001e0: 7306 d7ba 3373 c8bc 641a c33d d413 d4bc
000001f0: 5576 b43c c611 8a3d 81d8 81bc 06b7 d23c
00000200: 1a05 04bc c7f6 de3b de4c a63d 8880 0d3d
00000210: 78f0 bf3c 6d5e 70bd f1a5 aabd 6595 823d
00000220: 118a c93d e6fd a13c c8d9 023d 0762 9d3d
00000230: 82af 6dbb 7bfa dd3c b881 29bb 1fcb 113d
00000240: fa7e 233d 6c62 f9bc 7df8 bdbc 0c2f 9b3d
00000250: 5a0d 503c 2570 46bc 17a6 17bd e1c1 2bbc
00000260: 59b7 153d 41ce 86bd a810 cb3b 1099 43bd
00000270: 5454 e33c 1246 b3bd 36ce 26bd 6300 78bc
00000280: 47a9 35bd be90 953d 5757 2f3d d5b6 d03c
00000290: b25a 943c f3ab 8b3d e3d9 bfbd db73 5cbd
000002a0: 8104 25bc 2cef 343d 95b2 b6bd 583c 1a3d
000002b0: 4548 163d 1b6a bb3d 9fbb 8dbd 7b21 a7bd
000002c0: c7ef 023d 184e 923d 0bb0 5fbc d6be e4bc
000002d0: 3cfe b0bd a1bf c83c 41a9 1c3d b56c 93bd
000002e0: 89af 76bd ad19 2d3b 8aad ae3d 8199 1c3c
000002f0: 1206 5bbd 8112 8a3c d548 cc3d f82a d93d
00000300: 4992 243c d496 88bc e682 d43c ad30 283c
00000310: 946e 483d a9e5 ba3d aa51 463d 5241 9e3d
00000320: a34b babd 2dd3 d6bd 12ab d33c 32a1 463d
00000330: 2337 aa3d a602 4b3d 1d42 b73c e62d aebd
00000340: 6be5 1a3d 9432 cc3d a78a a93d 653c 733c
00000350: 04c7 19bd af82 de3d 22f7 83bc 38b8 cfbb
00000360: a921 35bc ee83 c4bc cb8f 623d 5dcf dd3a
00000370: c74b 253d a82f f6bb 4a4d 03bd b2d0 c138
00000380: 1f39 b33d cc22 203d edd1 62bd 3d41 6a3d
00000390: 86bd 29bd ec18 2bbd 869d ae3d 232e 863b
000003a0: 734d 843b b8fd d43b 1bf6 5c3d 1e7e 9cbd
000003b0: d857 c7ba 5179 9cbc 0509 1d3d 06bb 4a3d
000003c0: 1f28 68bd a1c8 6b3d a42f 2bbd c49e 913d
000003d0: 13a1 873c e7b5 473d 3f30 21bd bf3a 96bd
000003e0: 6366 f43c 1c3b 9e3d 60fb adbb 06ad 50bd
000003f0: 0a16 c03d fc50 203d bde9 cbbd 0cc2 793d
-0.001999394 0.11367336 0.12122399 -0.04886945 -0.08919876 -0.0012489618 0.10299053 -0.028890396
-0.02834501 0.0929495 0.011664647 0.034851234 -0.045087907 0.062260896 0.088149674 0.051455386
0.06823891 -0.099379815 -0.038323738 -0.018680394 0.05354782 -0.02506817 0.039617173 0.02250169
-0.012478174 -0.10512838 -0.081410706 -0.013317664 -0.123630956 -0.073099315 -0.036987066 -0.10460609
-0.013850749 -0.011884124 -0.072926104 -0.040401634 0.041967772 0.09456871 -0.0018570692 -0.030098302
0.025953094 -0.025494639 0.011360632 -0.05500249 0.036105003 0.026833748 -0.0686386 0.011533262
-0.006302854 0.004732707 -0.12114871 -0.070917666 -0.033511817 -0.11338997 0.0060177883 0.090250865
0.060801554 0.093465984 -0.03186889 -0.094306916 -0.031993903 -0.08167875 0.048711147 -0.011424375
0.062810585 0.07938656 0.10150339 -0.025924044 -0.013290312 -0.04422037 -0.06550495 0.08990011
-0.10888772 -0.08415657 0.03520857 -0.03475953 -0.028846072 -0.04763662 0.023291944 -0.038764257
0.0118683595 0.00966109 -0.061514303 0.010615569 0.0088508595 0.024633754 -0.010785737 -0.007715853
-0.0075565563 0.0457937 -0.009788881 -0.06865805 -0.09955346 -0.07811831 -0.014691237 -0.026462456
-0.014857388 -0.0003002177 -0.08004072 -0.011160825 -0.017575352 0.06242744 0.095440574 -0.022000002
0.021649713 -0.004874957 0.022370804 0.050151866 0.07678383 0.0047957962 -0.021574331 0.010514974
-0.09149676 0.007170227 0.014396771 0.07715268 -0.013028432 0.013604406 0.033116415 -0.112359576
-0.001640512 -0.024468994 0.09526518 -0.025888361 0.022029081 0.06741671 -0.015850307 0.025722038
-0.008057857 0.0068043205 0.0812013 0.034546405 0.023430094 -0.0586838 -0.08332432 0.06376151
0.09840787 0.019774389 0.031945974 0.07684713 -0.003626794 0.027096977 -0.0025864672 0.035594102
0.039916016 -0.030442439 -0.023189778 0.07577333 0.012698496 -0.012111698 -0.03702363 -0.010483236
0.036551807 -0.065823086 0.006197054 -0.047753394 0.027750172 -0.08753599 -0.040724 -0.015136811
-0.04435089 0.07302998 0.042807903 0.025477806 0.018109653 0.06819906 -0.093677305 -0.053821426
-0.010071875 0.044173405 -0.089207806 0.037655205 0.036690015 0.091510974 -0.069205515 -0.08160683
0.03196695 0.071438015 -0.013652812 -0.027923029 -0.08642241 0.024505438 0.03824735 -0.071984686
-0.060225997 0.002641301 0.08529194 0.009558083 -0.053472586 0.016854526 0.09974829 0.10603899
0.010044643 -0.016673483 0.025941323 0.010265511 0.04893358 0.091258354 0.048417725 0.077273026
-0.09096458 -0.10489497 0.025838409 0.04849357 0.08311298 0.049563073 0.022370392 -0.08504848
0.037816446 0.099705845 0.08278399 0.014845942 -0.03754331 0.1086477 -0.016109053 -0.0063390993
-0.0110553885 -0.02398869 0.055312913 0.0016922761 0.04035547 -0.0075130053 -0.03205613 9.24183e-05
0.08751129 0.039095685 -0.055375982 0.057191122 -0.04144051 -0.041771814 0.08526139 0.0040948554
0.004037553 0.006499972 0.053945642 -0.076412424 -0.0015208675 -0.019100817 0.03833868 0.049494766
-0.056678887 0.05756438 -0.04179348 0.0711036 0.016556298 0.04875746 -0.03935265 -0.07335424
0.029833978 0.07726118 -0.0053095073 -0.050946258 0.093792036 0.039139733 -0.099566914 0.060976073

lstm.bias_ih_l0 f4 [512]
00000000: a6bf 813d 4007 d43d 0551 3cbd ed8a c43d
00000010: 314a 073d c5ff b4bc 9e2a 50bc e4a5 82bd
00000020: 1021 30bc 205a ca3d 579d 9f3d 9759 c53e
00000030: 86ee 883d 8f96 84bc 0108 86bb 856b 7cbd
00000040: a186 563d d3ac b33d 524c e1bc 997a 173d
00000050: d3fa 15bd 2df0 4abc 4605 ef3c 706e 9d3d
00000060: c67e 723d 451d 89bc f9db a13d 2bc1 bebd
00000070: 579c 973d a614 b63d e287 6bbd d7c7 8dbb
00000080: 0b40 6cbd 4d75 bbbc 7beb 75bd 2dc9 853b
00000090: 7612 50bd 40d7 c13d 457b 9b3d bd0b 7a3b
000000a0: dc9b 9b3d e617 87b9 a9ca 9e3b 6d0a 88bd
000000b0: b35b 2abd 6102 debc ed86 c6bd 7137 dcbc
000000c0: 650b e83c 35c9 9ebd bdab eebc 79e7 923d
000000d0: 2d2f c2bd aa84 013d 4bc1 433c e9b1 76bd
000000e0: bcd7 bd3d a92f c53d 35f9 72bc 6118 3fbd
000000f0: bbe3 653d a1d6 db3d f42f 9a3d 2adf dd3d
00000100: 46c1 f2bc 99b3 9f3c a6e9 943e fea8 0dbd
00000110: 6f63 cb3d 2f6c e63c 8c37 2e3d af80 87bd
00000120: 2e32 cc3c 696c cb3c 1499 a2bc 2616 9bbd
00000130: 993d f83c a94a 30bc 86ea 48bd 21a5 3abd
00000140: 4f05 e53c 0614 463c 3cc4 cabc 5f7b 24bd
00000150: 9163 a5bc c86e 123e ffc6 223d 5702 2c3d
00000160: 101f 73bd ba31 013e 05b8 1abd f693 fa3d
00000170: 81ab 9abd c840 a1bd 5c41 e3bc 3f78 333d
00000180: 984a 253d a6ef 50bd e158 36bd 6a32 983d
00000190: 259b dd3c 88fd 5c3d cf98 3d3d 4692 153d
000001a0: b03c b9bd ad01 983d 9a50 0ebd 1f68 bc3c
000001b0: e2b9 ab3c 6faf 74bd 47c1 8ebd 3f5f 02bd
000001c0: 5663 b23d bb24 9abd a64c 2b3d c392 87bd
000001d0: bfa9 ef3c 0b61 81bd 707a 7bbd f799 31bd
000001e0: 16a7 7d3d 78ae 71bd aea8 453c 9cb7 313d
000001f0: 29d0 403c 520c 7dbd 54f8 3b3e 152c 1ebd
00000200: 675c 74bd 0646 8fbd 6433 033d dc93 6abd
00000210: 961b c2bd 4999 103d c59d 9d3c 6939 9e3d
00000220: 6a18 ae3c 936e 26bd f9b9 c0bd a33a 33be
00000230: 0184 683c e500 963d ad65 813d 0bb7 9b3c
00000240: 6cb4 57bd d161 973d 2528 b6bd 6fdc 813c
00000250: c3e8 d6bc 746a 193d 9eb7 3d3d 9725 e2bc
00000260: 73d9 b4bd bf2c e53c 252c a93c e54b f0bd
00000270: 7c11 48be 6539 f1bc 9f67 97bb 1f14 b8bd
00000280: 353a a93c 878e 833c 1c94 ff3c 52e9 53bd
00000290: 6dbb 0d3d 3b9e ddbd 8aaf 3e3d 3758 ec3c
000002a0: 5761 09bd 0598 50bd 2d13 ccbd b19c 30bc
000002b0: 464d 793d aa7b 4e3d fb62 9a3c bd72 58bc
000002c0: bdbc 8fbd 8e91 74bd f5f6 033d 863a 36bd
000002d0: 6ffb 053d e474 8fb9 5cf0 0cbb 034e 1abd
000002e0: 4c4d ebbd f2a9 0abe a772 debc 0e38 9bbd
000002f0: 2404 5f3d 2855 bfbc fe8a 033d 9e14 29bd
00000300: 4814 78bd 4bb3 1dbb 93d3 83be 94de 6d3d
00000310: 7a82 26bd 1ef0 5f3c e7e7 d7bb d4f8 8b3d
00000320: 7068 f2bc e3f9 1abe 6cfa 1abd 2ab9 863d
00000330: 2ca1 5a3c c1f4 a6bd 10e3 503c f4b1 dcbd
00000340: b838 8fbd d2dc 9ebd 8390 5e3d 5ab3 aebd
00000350: 6d24 2e3d 3c2d 4cbd 6b71 a8bd a19d 923c
00000360: a17e 89bd d536 ddbd 23f2 853b 6586 01be
00000370: e2e4 0e3c 3265 4ebc b637 b93c 15e0 833d
00000380: b193 0b3d 291c 1d3d 018f 9f3d 8f19 62bd
00000390: 1810 e9bd 442d e1bd 3c98 783d c589 8bbd
000003a0: 7d79 7e3d d4a3 aebd 9ebc 5f3d 1425 96bd
000003b0: a7a0 4fbd 3b87 bd3b 1f00 a13d b1fd a7bd
000003c0: a94a 7fbd 0356 32bd fe15 8cbd df2a 66bd
000003d0: 1662 82bc d3d2 533d 3087 c7bd 2a23 86bd
000003e0: 01c9 39bd ca57 23bd 3286 28bd 6295 2bbd
000003f0: 231d 00be 4084 87bd 99d0 8fbd 3750 b73b
0.06335382 0.10352945 -0.045975704 0.095968105 0.03302974 -0.022094617 -0.012705473 -0.063792974
-0.01075007 0.09880471 0.07793682 0.38544914 0.0668612 -0.016185073 -0.0040903096 -0.061625976
0.052374486 0.08773198 -0.027502213 0.036982153 -0.036616158 -0.012386364 0.02917732 0.0768708
0.05920293 -0.01673759 0.079032846 -0.093141876 0.07402866 0.08890657 -0.057502635 -0.0043268013
-0.057678264 -0.022883082 -0.060039025 0.00408282 -0.050798856 0.09464884 0.07591871 0.003815397
0.07598087 -0.00025767012 0.0048459363 -0.066426136 -0.041591357 -0.027100744 -0.09693704 -0.026881905
0.028325746 -0.07753221 -0.029134626 0.07173056 -0.09481654 0.03162066 0.01194794 -0.060228262
0.09269664 0.09628231 -0.014829923 -0.04665411 0.056125384 0.107342966 0.075286776 0.10833581
-0.029633176 0.019494819 0.2908451 -0.03458499 0.09931075 0.028127758 0.042533442 -0.06616341
0.024926271 0.024831967 -0.019848384 -0.07572584 0.03030281 -0.010759988 -0.049051784 -0.045567635
0.027956633 0.012089735 -0.024751775 -0.04015672 -0.020189079 0.14300072 0.03974056 0.04199442
-0.059355795 0.12616625 -0.03777315 0.122352526 -0.07552243 -0.07873684 -0.027741127 0.043815847
0.04035434 -0.051009797 -0.044518355 0.07431491 0.027051518 0.053952724 0.046288308 0.03651645
-0.09044778 0.07422195 -0.034744836 0.022998868 0.02096266 -0.05973762 -0.069704585 -0.031829115
0.08710353 -0.07526537 0.041821145 -0.066197895 0.029255746 -0.063173376 -0.061396062 -0.043359723
0.061926924 -0.059004277 0.012064142 0.043387994 0.011768379 -0.061779328 0.18356448 -0.03861626
-0.059658434 -0.06995778 0.03203143 -0.057269916 -0.09477918 0.035302434 0.01924027 0.07725794
0.021251876 -0.040632796 -0.094104715 -0.17502837 0.014191628 0.07324389 0.06318221 0.01900818
-0.052662298 0.07391704 -0.08894376 0.015852181 -0.026234036 0.037455037 0.04631769 -0.027605815
-0.08830538 0.027975438 0.020650933 -0.11733226 -0.1953792 -0.029446313 -0.004620507 -0.08988213
0.020657638 0.016059173 0.031198554 -0.051736183 0.03460257 -0.10821196 0.046554126 0.028850658
-0.033540096 -0.050926227 -0.09964595 -0.010779546 0.06086471 0.050410904 0.018846026 -0.0132109495
-0.07018421 -0.059709124 0.03221794 -0.044489406 0.03271049 -0.00027362176 -0.002150557 -0.037672054
-0.114893526 -0.13541391 -0.02715428 -0.07579051 0.05444731 -0.023356035 0.032114975 -0.041279428
-0.060566217 -0.0024063166 -0.25747356 0.058073595 -0.040651776 0.013668088 -0.006588924 0.068345696
-0.029590815 -0.15134387 -0.037836477 0.06578286 0.01334409 -0.08152152 0.012749448 -0.10776129
-0.0699324 -0.07756962 0.054337036 -0.08530302 0.042515207 -0.049847826 -0.08224758 0.017897429
-0.06713606 -0.10801474 0.004087703 -0.12648924 0.008721562 -0.012597369 0.022609573 0.06439225
0.034076396 0.038356934 0.07790948 -0.055200156 -0.11380023 -0.10994962 0.060692057 -0.06813387
0.06212758 -0.085273415 0.05462324 -0.07331291 -0.05069032 0.005783943 0.07861351 -0.08202685
-0.06232706 -0.04353906 -0.06840132 -0.05619323 -0.015915912 0.05171473 -0.09742582 -0.06549676
-0.045357708 -0.039878644 -0.041143604 -0.04189051 -0.12511115 -0.066170216 -0.07022209 0.005594279

lstm.bias_hh_l0 f4 [512]
00000000: eef9 65bc 8d38 113d a52c 89bb fe29 3a3d
00000010: 651e 29bd bfe3 33bd 2d29 a4bc 37b6 fbbb
00000020: af2f 6a3d 276a f23c 6f94 bf3c 1d39 b03e
00000030: 0c3f a7bc cb49 1c3d 69bd c23d 1441 eabc
00000040: 1241 c7bd 033a 343c 7eb5 9bbd 1c92 0b3c
00000050: 61eb fc3c 0590 30bc fc00 d9bc 045f 0c3d
00000060: 64b8 97bd ae23 f7bc aac1 9abd 9f89 0a3d
00000070: de1b 673c ba69 8e3d f07d dd3b 6e0e f33c
00000080: 419b 553d 9294 acbc 30e4 8e3d fecc 813b
00000090: 976a 04bd 04c6 ec3d a0f6 0dbd 7cbc e83a
000000a0: 6ac7 6c3d 5b8e 1e3d f69a 8dbd c712 aa3c
000000b0: 3513 9bbd 1157 96bd 56c6 0abd 2d7a 263d
000000c0: 5c87 54bd fa66 823d 98e3 8ebd b379 b1bc
000000d0: 1e83 543d 17d3 5cbd 95b6 96bc 5473 3abd
000000e0: 9431 583d 0403 093e 1b78 d33c 78d5 513d
000000f0: 80c2 853c 16f1 7c3d ec9d fa3c d842 703d
00000100: 64e8 09bc 6aff 61bd 00e4 7c3e adb4 bb3c
00000110: 4f10 8d3d e5d3 473d 4335 9cbc ce89 20bd
00000120: 5c5f 00bd 554e 423e 5ba1 e43d 59f0 b4bc
00000130: d4ff 223d 2ee9 d73d b733 0e3d ab2b 293d
00000140: d4cd 9e3d ab95 0cbd 857c 9b3d 99e0 b33d
00000150: 761e bdbd 459f ec3d f216 c23c 8546 173d
00000160: f595 6cbd f41d 993d 0c4a 273d e86b b33d
00000170: 9432 983d ffcc 4abc d2ca be3c 0237 c13d
00000180: 34e5 df3c fdc5 afbd 4354 74bd f571 0cbd
00000190: ba17 ab3c 34ca 0639 ac43 8a3c 8601 95bd
000001a0: 463c 58bd fb4b 44bd 500b a3bd 1eaf a4bc
000001b0: e337 e83d 7fef 4abc a2c3 343c 3caa bb3c
000001c0: a638 4dbc e842 433d 0cfb 403d 75ca b4bc
000001d0: 22ec f03c 2c35 54bd 0341 e73c c9b1 383d
000001e0: 1c25 a93d 0097 1b3d b933 b9bd bf27 6abd
000001f0: 8cbe 0b3d 95b3 fa3b ce86 3c3e 4dde 32bd
00000200: 048c b9bd a0d4 1638 2e34 aebc 1780 d73b
00000210: 5082 cfbd 8928 a13d 78ff 183d 2c6e fc3b
00000220: d978 3ebd 00d4 723d 2efb 4dbc 3f43 d8bd
00000230: 08c7 63bd 2db2 d7bb 68e3 d3bb 4a5a 7fbc
00000240: ec8f 9cbd f61f 933c 9e51 27bd 9c93 df3b
00000250: 56d1 c63a 1de9 963d 03fa dcbd 6a70 83bd
00000260: 8f8c 0fbd 0b8f 2b3d 92f7 e73c a0d6 1fbd
00000270: f5e7 fdbd 53e2 b9bd bd4a 5dbd 237f 1ebd
00000280: d0f7 23bd c327 9dbd ad21 23bd c876 ab3c
00000290: c443 3d3d 9e30 77bd f4a1 213d e204 ee3b
000002a0: a90e b13b 0efc 803d 443e e1bd 2bee d2bd
000002b0: a81e 573d a841 2ebd 7766 10bd 1050 253d
000002c0: 5ba7 7c3d 8018 91bd d555 4ebd 3447 83bd
000002d0: 3b5d e0bc 00f8 89bd 3e4c 973d ac16 1e3d
000002e0: ad0d f23c 9e0d efbd 3868 d6bd c24b 97bd
000002f0: baae c7bc 38ca 8cbd fe55 e93c bc19 f4bd
00000300: 6ea5 09bd 0444 0cbe e2d7 3ebe 3ad4 c7bc
00000310: 383c 84bd df1f a63c ab8c 54bd 3bdb 31bc
00000320: 957a cc3c ca95 2dbe df38 30be 6166 3f3d
00000330: 10dc 4c3d a0d3 9ebd 4faf 20be 7d2f 463d
00000340: 8d45 943d d02a c7bd d2ef 803d a53a 0cbe
00000350: 6178 c73c bf98 85bd 5b6e 9b3d 5be1 3dbc
00000360: a0c8 93bd 465b 3dbe f325 52bd 35a7 bebd
00000370: 11b5 d4ba 3195 70bd 269b a8bc f8d1 1cbd
00000380: e953 d7bd 454b 8fbd 176e 363d 5442 3f3d
00000390: 20a5 1fbb 95b0 ab3c 6a97 1bbd 74ca 473c
000003a0: 5c2c 24bb 4c06 c0bc 2edb 273c e52d 163d
000003b0: 7ac6 20bc f37d c4bd 0957 953d 0830 dbbc
000003c0: 00dd 95bd a7e0 043d 3114 d5bc 2054 363d
000003d0: 32b7 d0bc ca0c 163d 3726 91bd b507 2bbd
000003e0: 2835 8bbd e0cd 9abd 0b87 0c3d b77d 56bd
000003f0: bdde 8abd b1df 963c 7767 32be 7112 093d
-0.014036639 0.03545432 -0.0041862302 0.045450203 -0.041288752 -0.043918367 -0.020039165 -0.007681634
0.05717438 0.029591633 0.023386208 0.34418574 -0.020415805 0.038156312 0.09508783 -0.028595485
-0.09729208 0.011000159 -0.07602976 0.008518722 0.030873956 -0.010776524 -0.026489727 0.0342703
-0.074082166 -0.03016838 -0.0755647 0.033822652 0.014105765 0.069537595 0.0067593977 0.029669967
0.052150015 -0.021066938 0.06977117 0.0039612046 -0.032328214 0.11561206 -0.034659028 0.0017756368
0.057807364 0.03870998 -0.06914322 0.020760907 -0.07572023 -0.07340825 -0.033880554 0.04064386
-0.0518869 0.063672975 -0.06977004 -0.021664476 0.051882856 -0.05391225 -0.018397609 -0.04552014
0.052781656 0.13380057 0.025814107 0.05122897 0.016328096 0.061753355 0.030592881 0.058657497
-0.008417223 -0.055175222 0.2469635 0.022913301 0.06887876 0.048786063 -0.019068366 -0.03919392
-0.03134094 0.18975194 0.111635886 -0.022087263 0.039794758 0.10542522 0.034717288 0.04130141
0.07754102 -0.034322422 0.075921096 0.08783073 -0.092343256 0.11553816 0.023692582 0.036932487
-0.057760198 0.07476416 0.0408421 0.08760816 0.07431522 -0.012377976 0.023290072 0.0943432
0.027330972 -0.08582685 -0.05965067 -0.034288365 0.020885337 0.00012854562 0.016877972 -0.07275681
-0.052791856 -0.047924023 -0.07961142 -0.020103034 0.113387845 -0.012386202 0.011032971 0.022908323
-0.012525713 0.04767123 0.047114417 -0.022069195 0.029409472 -0.05180852 0.028229242 0.045091424
0.08259031 0.0379858 -0.090430684 -0.05716681 0.034117267 0.0076508024 0.18410799 -0.043669034
-0.09059909 3.596081e-05 -0.021265116 0.006576549 -0.10132277 0.078690596 0.03735301 0.007703563
-0.046501968 0.05928421 -0.012572093 -0.10559701 -0.055609733 -0.0065825195 -0.006466318 -0.015585491
-0.076446384 0.017959576 -0.04084932 0.0068230163 0.0015168588 0.073686816 -0.107898735 -0.06417926
-0.035046156 0.041884463 0.028316293 -0.03902304 -0.12397758 -0.09076371 -0.054026354 -0.038695466
-0.040031254 -0.076735996 -0.039827038 0.020930663 0.046207204 -0.0603491 0.03946109 0.0072637657
0.005403359 0.062980756 -0.10998204 -0.10299333 0.05251947 -0.042543083 -0.035253968 0.040359557
0.06168304 -0.07084751 -0.050374825 -0.06410065 -0.027388206 -0.06736755 0.07387589 0.03859584
0.029547537 -0.11672519 -0.10469097 -0.073874965 -0.024375308 -0.06874508 0.028483387 -0.11918971
-0.03360503 -0.13697821 -0.1863704 -0.02439319 -0.06456798 0.02027887 -0.051891964 -0.010855491
0.024960795 -0.16951671 -0.17209195 0.046728496 0.050014555 -0.07755208 -0.15691875 0.048385132
0.07239828 -0.09724963 0.06295742 -0.13694246 0.024349393 -0.06523275 0.07589408 -0.011589373
-0.072160006 -0.1849185 -0.051305722 -0.09309236 -0.0016228278 -0.05873603 -0.020581793 -0.03828618
-0.105140515 -0.069967784 0.044538584 0.046694115 -0.0024359897 0.020958224 -0.037986197 0.012194265
-0.0025050854 -0.023440503 0.010245128 0.036664862 -0.0098129455 -0.095943354 0.07291991 -0.026756302
-0.07317543 0.032440808 -0.026010605 0.04451382 -0.02547798 0.03663329 -0.07087367 -0.041755397
-0.06797248 -0.07558799 0.034308475 -0.052365985 -0.06780765 0.018417211 -0.17422281 0.033464853

lstm.weight_ih_l1 f4 [512, 128]
00000000: 9e33 7d3c f8ed 773d 63b9 90bd 8ff3 a7bd
00000010: 9390 cbb9 1e9a 01bd 9350 b23d d471 ccbb
00000020: 0559 6dbd df7d 9a3d 8535 263d 10e2 20bd
00000030: d47d 623d 2567 fabc 6b06 13bd 0372 9b3d
00000040: f567 0bbd 162b eabd 6b30 493d e718 313d
00000050: 900c a1bd 663c 363d 133e 3dbc b217 63bd
00000060: e019 213d c8fb d63c 8352 59bd 574c 2dbc
00000070: e334 45bd 57eb babd 1f97 023d f77a a3bd
00000080: 6ae9 843d 5014 1c3d a5b2 2cbd 51b3 63bb
00000090: fcf5 dbbc 1240 49bd ed20 f03c 11de 84bd
000000a0: ea63 d43c 1d1f 133d 7c3e cbbd 013c c03b
000000b0: 907b 78bd 6559 c0bc 1034 213c 194c cdbd
000000c0: 5eaa 11bd 1bbf 2f3d 38fa b1bd f404 06bd
000000d0: 7a0a 833d 9da6 643b 8a60 a6bb 4e44 aabc
000000e0: 6768 a5bc ae93 623c 2021 0fbd 1cf5 1a3d
000000f0: 6271 edbc c58a 623c fbd7 423d 9aa2 2dbc
00000100: b3ac 8b3d ae3a 93bd 846e d23c 0c37 773d
00000110: 223c b8bd 7ec9 433d ad98 39bd e28b 98bd
00000120: 92d7 eebc 8728 91bd 33a4 11bd 5017 393d
00000130: cb13 4d3d 3ccc f73c 02c8 e93d cd68 d8bd
00000140: b5b1 8e3d da16 8cbc 8140 2e3d 560d 9bbd
00000150: 10d1 d03b 5c02 b93d 2e76 f4bc 8725 4b3d
00000160: a9fd 103c c2ba c73d e858 3cbd 7594 a53d
00000170: df97 903d a8a6 923c 18ff a0bd 366d 243c
00000180: b97b 87bd 30ac 9c3d f604 64bd 007e 41bd
00000190: f77e 813a da2b 80bd c4b8 553d 9cee dc3a
000001a0: 54a8 873c 5222 993d a11b 9abd 92f8 98bd
000001b0: 1192 2c3d 4564 1bba 273d 333d ad26 2f3d
000001c0: ec6a f23c a532 30bd e483 dfbb 4135 c43c
000001d0: 828e 7cbd a1cc 65bd c0e4 cbbc fcb1 2cbd
000001e0: c3dc 513d ee5f 783d fa6a 2b3d be4b 9dbd
000001f0: cc5b cebc dcf6 a4bd 1a6e ccbd 04e3 623c
00000200: e759 64bd 0f2f 1b3d a0fd d2bd 6fa4 b93c
00000210: 9018 42bc 5aad 10bd 0782 7b3d 04b6 b43c
00000220: 482f e73c 87cb 09bd 91d8 433d ca78 c23d
00000230: 8c87 ab3d 6266 85bd a3ac 713d 55f9 ecbd
00000240: 8b86 14bd 1508 0f3d 86e6 a9bc c6bd 613d
00000250: bff2 bf3d ca85 0c3d ae2e ca3d 5e0a 7bbb
00000260: 403c 9bbd d711 ce3b b64e 32bd ac3b 34bc
00000270: 0a77 283d 9141 86bc e60c dd3c 5672 ae3d
00000280: 4a52 1b3d 2a75 bbbd 79c5 b03b e212 50bd
00000290: 4302 eb3b f298 38bd 8740 0c3d bff3 d93b
000002a0: 3e8b 9f3d 7b20 1b3d 022f 963d 5211 733d
000002b0: 4caf 863d 2884 0d3d 44ce 983d 638d 1dbe
000002c0: 272e 8abd 4a6b b2bc 05d9 9d3c 8c2b ff3c
000002d0: 776d ad3d 9db2 90bd 0506 083d 0678 cf3c
000002e0: 52ea 863c 7597 0fbd eb06 283d 2021 953d
000002f0: 12f6 54bc 3ba3 b0bc 7990 f6bd f905 0abc
00000300: 0613 673d b67a b1bd c53e ae3d b7cf 1abd
00000310: bb0e 363d e3c7 80bd 2ada 723d effa 07bd
00000320: 7d77 c63c e2bf 123a 49a8 b93d 7fa2 26bd
00000330: 4d34 0dbc b9a7 703d 7a0e 8d3d 333f c9bd
00000340: 08f1 ec3b cd8f aabc bb0c 9bbc 5688 80bd
00000350: b0eb 45bc aed6 843d 4f48 813d 3077 b93d
00000360: ed2b 8e3d e774 7bbd ad6d c9bd 8445 ef3d
00000370: 635b c23d ebb2 e43b 3387 9d3c d530 37bc
00000380: 0785 e6bc 1194 1dbd 1c3e 3dbd 127f 85bd
00000390: 085f fabc 9408 8e3d 1851 f3bd efc1 99bc
000003a0: b13c 03bd d987 a0ba bfd5 32bd e139 6f3c
000003b0: cbac 89bd 533c 873d 5924 0abe 33d4 c0bb
000003c0: 9845 edbd ccfc 14bc 589f d93d 31f0 093c
000003d0: 19b3 b13c 064e 513c e6d9 d1bd 919d 493d
000003e0: 5209 083d 76e3 9b3d 2bd4 74bd 175e aa3d
000003f0: 1e31 413b de9c c2bb a30c 76bd e9ed 58bd
0.015454201 0.06052968 -0.0706661 -0.08200752 -0.00038826893 -0.03164112 0.087067746 -0.0062391553
-0.057946224 0.07543539 0.040578384 -0.03927809 0.05529578 -0.030566761 -0.035894793 0.075901054
-0.034034688 -0.11433999 0.04911844 0.04323664 -0.07863724 0.044491194 -0.011550444 -0.05544252
0.039331317 0.026243106 -0.053057205 -0.010577283 -0.04814614 -0.09126919 0.0318824 -0.07982438
0.06489833 0.03810531 -0.042162556 -0.0034744332 -0.026850693 -0.049133368 0.029312575 -0.06487668
0.025926549 0.035918344 -0.09924027 0.005866528 -0.060664713 -0.023480127 0.009839073 -0.1002428
-0.035562865 0.04290686 -0.086903036 -0.032719567 0.063984826 0.0034889348 -0.0050774263 -0.020784523
-0.020191384 0.013829155 -0.0349437 0.03783141 -0.02898473 0.013827031 0.047569256 -0.010597849
0.06820049 -0.07188927 0.025687464 0.06035523 -0.089958444 0.04779958 -0.04531162 -0.074485555
-0.029155526 -0.07087808 -0.035556983 0.04518825 0.050067704 0.030248754 0.114151016 -0.10566864
0.06967489 -0.01710074 0.042541984 -0.07570903 0.0063725784 0.09033653 -0.029841509 0.049596336
0.00884954 0.09752418 -0.045983225 0.080849566 0.07060217 0.017901734 -0.07861155 0.010035804
-0.06615395 0.0765003 -0.055668794 -0.047239304 0.0009879757 -0.06258364 0.05217816 0.0016855779
0.016559757 0.07477249 -0.07524801 -0.07469286 0.042131487 -0.0005927722 0.04375949 0.042761493
0.029592 -0.04301705 -0.0068211425 0.023951175 -0.061659344 -0.056103352 -0.02488935 -0.042161927
0.051235925 0.06063836 0.041850068 -0.07680462 -0.025190257 -0.08054897 -0.09981938 0.01384807
-0.0557498 0.037886675 -0.103022814 0.022661416 -0.0118466765 -0.03532157 0.0614033 0.022059448
0.028220788 -0.033641364 0.047813956 0.09495695 0.08375463 -0.065136686 0.05900253 -0.11570994
-0.036261123 0.034919817 -0.020739805 0.055112623 0.09372472 0.03430728 0.09872185 -0.003830574
-0.07579851 0.006288748 -0.043532096 -0.011000555 0.04112915 -0.016388686 0.02698369 0.085179016
0.037920274 -0.09153207 0.0053946343 -0.050799258 0.0071719005 -0.045067735 0.034241226 0.0066513713
0.0779023 0.037872773 0.07333185 0.05934269 0.06576404 0.034549862 0.07461217 -0.15385966
-0.06747084 -0.021779675 0.019268522 0.031148694 0.084681444 -0.07065318 0.033208866 0.025325786
0.016469155 -0.03505655 0.041022222 0.07281709 -0.012998121 -0.02156221 -0.12039275 -0.008424276
0.056414627 -0.086659834 0.08508066 -0.03779575 0.04444764 -0.06288125 0.05929009 -0.033198293
0.024226898 0.0005598051 0.09065301 -0.040682312 -0.0086184265 0.058753703 0.06887527 -0.098265074
0.0072308816 -0.020820523 -0.018926969 -0.06276004 -0.012080118 0.064862594 0.0631262 0.09055936
0.06941972 -0.061390784 -0.09835372 0.11683181 0.09490087 0.0069793365 0.019229507 -0.011181076
-0.028139604 -0.038471285 -0.04620181 -0.06518377 -0.030562893 0.0693523 -0.11880702 -0.018769233
-0.0320403 -0.0012247517 -0.043660875 0.014601202 -0.06722411 0.06603303 -0.13490428 -0.005884671
-0.115855396 -0.009093475 0.106260955 0.0084190825 0.021691846 0.01277495 -0.10246639 0.049222533
0.033212014 0.07611744 -0.05977265 0.083187275 0.002947874 -0.00593911 -0.060070645 -0.052961264

lstm.weight_hh_l1 f4 [512, 128]
00000000: 3763 a93d b27e 1a3d 4b6b 5cbd ad1f b93d
00000010: 0795 853c 2a09 6f3d cfcf 7dbc 424f 1abd
00000020: 55b1 2cbd be36 083c 96de 48bd f6a9 5f3d
00000030: 8458 eebb d870 973d 5278 5e3d 874f 403c
00000040: 868f 0cbc 5f5a a1bd 3fba 13bd c3d4 4abd
00000050: daf8 41bd db3e 84bd 0552 b93c d080 b73c
00000060: 27a3 f5bc 54d7 bf3d f73e be3d 93ea 2d3c
00000070: 77f9 633d f313 2a3d b29f 4dbd 50f7 79bd
00000080: fc0b c43c 645b cfbc bb76 443d 3dd7 74bd
00000090: 0f0f cfbd 53f9 abbc 7836 3bbd f00d abbb
000000a0: 979d 953c 357a a53a 1aa9 7bbd 0c3a 46bd
000000b0: efd3 0dbd a6a2 38bc faa8 813c 492b d43c
000000c0: 1d94 23bd deb6 ca3d 353b 013c 5f5f 833d
000000d0: 3273 5c3c 4af0 8dbd ca07 973d e336 153c
000000e0: 6ef6 b4bc 8429 43bd f33b 553d 489c 593c
000000f0: 3472 18bd 859b 7fbd 7c2f a9bc 3ff2 473d
00000100: 811e 833d b48d 843d 1de0 17bd 2459 b0bd
00000110: ffcb a9bc 306e 2d3d 6fb7 403d f694 fbbb
00000120: f5c1 87bd ead4 8d3d ae56 17bd 56e5 9a3d
00000130: 22d4 27bd 9bc6 933d 2a2d 0a3d 77a7 633d
00000140: 3879 763d 61f3 03bc ae6b 653d 6c21 ba3d
00000150: 69ea bf3c ea2c 483d f023 413c d866 7d3a
00000160: 9406 843d 02f9 a33d 6dfc a43b be5e aabc
00000170: 9c3d bebd 8e4f 41bd 4dbf 45bd 6c33 4e3d
00000180: 1dbb 2bba e5a2 333d 8b4c 0ebd 9aac b83d
00000190: b858 7c3d 2d5a b13d 28b1 903d 8a8f 5c3c
000001a0: 3745 1d3c 4377 883d e321 5ebd 8057 85bd
000001b0: bba4 1cbd 96da cd3d 2917 923d 8303 983d
000001c0: 7d2c 9e3c de50 b8bb 82ba 61bd 5fac e23c
000001d0: 1418 393d 6c33 5bba 2c12 38ba 1c08 423d
000001e0: 9c52 6a3d 4b8d 323d 25ab afbc 4a47 20bd
000001f0: 4e73 123d 26fa 94ba 9a19 8d3c d76d 8f3d
00000200: 20c8 843c 3f64 8e3d e1aa 3ebd 04d5 ad3a
00000210: 6e13 84bc e5d2 a5bc 2638 febc a263 993b
00000220: 5c05 df39 095a cabd 4d10 80bd c1b2 b53d
00000230: 7786 14bc 3c25 aabd dd3b c5bc e5f2 df3d
00000240: 02d4 623d 9f76 bc3b 8593 b43d cc06 c3b9
00000250: 39ca 3ebd eed2 ab3d 2f9d e23c c2c3 31bd
00000260: dadc 72bd 0dd2 f93d 9e0c 32bd 7641 3abd
00000270: 0b9f 42bd 428c 61bd 5d51 543d 5dcb 423d
00000280: 6cb8 6a3b eaa3 833d 29e3 923b 50af a63d
00000290: 2cfc 16bd b109 d63d 651b b43b ef1c 4bbd
000002a0: 1aa9 603c 57c4 393c 9665 e93c 0b7b ecbc
000002b0: 6c33 e33d 8c34 4abd 65df 8f3c b95a 4cbd
000002c0: a925 bc3d a277 06bd fca3 2abc df4d 8bbd
000002d0: 0c5d 923d ab3e ec3b 10f2 b43d 439b 28bd
000002e0: 1a19 97bc 3d3d 8c3d 07fb d33c aa66 ccbd
000002f0: 66b1 fcbc fd4d 9dbd 67c6 493d 2e23 0bbd
00000300: b9eb adbc 5ef1 b03d 046c 0dbd 04a6 a0bd
00000310: 9464 7abd 1b85 133d 33eb 48ba 052a f83d
00000320: 41c7 aebd 1ece 713c cd3e f2bd 117f 453d
00000330: 5c13 bdbc dd5f c1bd 7a64 d5bb 1d60 613d
00000340: 268a e53c 958c be3d b170 9d3d 4c9b 8abd
00000350: e52d 97bd cfb4 ec3c bd6c ddbb 064e 29bd
00000360: bb57 893d fc01 973d 38db 5f3d 58f9 b3bd
00000370: 43c5 aebd 1fb7 2d3d fd3d 06bd 486f 903d
00000380: 5d49 e2bd 33fb 26bb 9925 bcbc dbd0 5c3d
00000390: 545c 7bbd 3c94 ba3d 27b4 8ebd e972 6cbd
000003a0: 2f36 d03d 3ae2 853d cede 67bd 438d d43c
000003b0: 5573 7c3d 48d9 703c 25fe f43c 047a f4bc
000003c0: 98f8 2bbc a7f6 b6bc cbc5 053d 4f86 303d
000003d0: 9306 a53c 1bf1 8fbd 7d8d 24bc 7744 93bc
000003e0: cec7 c2bc ab53 503d 0f29 cebd 2bcf 763d
000003f0: 66e3 423d 2bf8 56bc a377 44bc 4645 bebd
0.08270877 0.037718482 -0.05381326 0.09039245 0.016306413 0.05835835 -0.01549144 -0.037673242
-0.042161305 0.008313833 -0.0490404 0.054605447 -0.0072737355 0.0739457 0.054313965 0.011737711
-0.0085791405 -0.07878565 -0.03606629 -0.04951931 -0.047356464 -0.06457301 0.022622118 0.02240029
-0.029985024 0.093672425 0.09289353 0.010615009 0.05565783 0.04152293 -0.050201125 -0.06102687
0.023931496 -0.025312133 0.047964793 -0.05977558 -0.10110294 -0.02099291 -0.045706242 -0.0052201673
0.018263621 0.0012624922 -0.061440565 -0.0483952 -0.034625944 -0.011269247 0.015827645 0.025899546
-0.039936174 0.098981604 0.007887651 0.06414675 0.013455199 -0.06930597 0.073745325 0.009107324
-0.022090163 -0.047647014 0.052059125 0.013281889 -0.037218288 -0.062404174 -0.020652525 0.04881501
0.064023025 0.0647234 -0.037078965 -0.08610752 -0.020727156 0.04234141 0.047049936 -0.0076776696
-0.06628791 0.06925376 -0.0369479 0.075632736 -0.04097379 0.07215615 0.033734478 0.05557963
0.060174197 -0.0080536315 0.056010894 0.09088406 0.023427205 0.04887096 0.011788353 0.0009666509
0.06446567 0.08006479 0.0050349743 -0.02079713 -0.09289095 -0.04719501 -0.04827814 0.05034201
-0.00065510144 0.04385652 -0.034740966 0.09017296 0.061608046 0.08659778 0.0706504 0.013461957
0.009599022 0.06663372 -0.054231536 -0.0651083 -0.038243037 0.100514576 0.07133324 0.07422545
0.019308323 -0.0056248745 -0.05510951 0.027670084 0.04518898 -0.00083618495 -0.0007021751 0.047371015
0.05720769 0.04359178 -0.021443913 -0.039130487 0.035754494 -0.0011366054 0.017224122 0.07003372
0.016208708 0.06952714 -0.04654968 0.0013262336 -0.016122546 -0.020242164 -0.031032633 0.0046810666
0.00042537868 -0.09880454 -0.06253109 0.08871985 -0.009065262 -0.08307883 -0.024076397 0.10935
0.055377968 0.0057514454 0.088171996 -0.00037198362 -0.046579573 0.08389841 0.027662842 -0.04339958
-0.05929265 0.12198267 -0.043469064 -0.045472585 -0.047514956 -0.0550654 0.051835407 0.047557224
0.003581549 0.064277485 0.004482646 0.08138907 -0.036861584 0.10451067 0.0054964297 -0.04958814
0.013712192 0.011338315 0.028490823 -0.028867265 0.11093792 -0.04936652 0.017562578 -0.049891207
0.091868706 -0.032828934 -0.0104150735 -0.06801962 0.071466535 0.007209619 0.08835232 -0.041163694
-0.018444587 0.06847618 0.025876535 -0.09980519 -0.030846309 -0.07680891 0.049261477 -0.033969097
-0.021230565 0.08639787 -0.03452684 -0.07844165 -0.061131075 0.03601561 -0.0007664442 0.121173896
-0.085340984 0.014758615 -0.118283845 0.048216883 -0.02308052 -0.094421126 -0.006512222 0.0550233
0.028019976 0.09304158 0.0768751 -0.06767902 -0.073818006 0.02889481 -0.0067573474 -0.041334175
0.067061864 0.07373425 0.054652423 -0.08787793 -0.085337184 0.042410966 -0.03277396 0.07052475
-0.11049149 -0.0025479316 -0.022967147 0.053910118 -0.061367348 0.09110305 -0.06967955 -0.057726774
0.10166585 0.0653729 -0.056608967 0.025946265 0.061633427 0.014700241 0.029906342 -0.029843338
-0.010496281 -0.02233441 0.032659333 0.043096837 0.020144736 -0.07028409 -0.010043499 -0.017976983
-0.023776915 0.050861042 -0.10066425 0.060256165 0.047580145 -0.013120691 -0.011991414 -0.092905566

lstm.bias_ih_l1 f4 [512]
00000000: 5c6c 4fbd e9b9 9cbd 90cc c43c 068e 90bd
00000010: d455 943c beda 91bd 88ab 38bd f12c d9bd
00000020: 1acb 093d 5e07 853d 83d6 42bb 1050 913d
00000030: 4b92 fcbd 676d fa3c 5789 253c 8272 68bd
00000040: c623 04bd ac6b 803d 6947 39bc bec7 9c3d
00000050: d8a3 243c 749c f339 b109 28bb 455d cebd
00000060: bf0b 44bc b5ff 1f3d e3a5 fc3c 9293 3bbc
00000070: 65ff 973d 2ee1 cfbc 133b 923d 551f f4ba
00000080: 073d 58bc 13d1 c7bd 43fc 7abd b9e4 9b3d
00000090: 55c8 ed3c 2faf 963d 7f88 d1bd e2de 5c3d
000000a0: 1ac4 1bbd a91b 98bb f62f 493d 7fa6 52bc
000000b0: 3395 243d 879e 193d ca44 22bd 69e9 99bd
000000c0: 7e48 c03d e3d4 a2bd da72 a33d ae4d c4bd
000000d0: f04b 1e3d 7107 023a 1ede c2bd efef 9dbc
000000e0: cfcc 483d c553 8e3d 2d0a 00bd e755 a7bb
000000f0: 7c70 9f3c dd85 723d 6a67 84bd da9d c83c
00000100: a644 e7bc de0e 183d e0d6 10bd 0b20 f0bc
00000110: 54e8 dbbc 4c0f b13c 0b74 a3bd 3b3e 4f3d
00000120: 7168 74bd 3396 853c 934b 9bbd 7493 87bb
00000130: a5bd 57bd 92c3 873d eb18 b03c 9426 9c3d
00000140: e708 b83c aae2 b13c 21bc 683d f64d 72bd
00000150: cefb 0ebc 7167 2f3c 2860 973c 83ba 9cbd
00000160: 81f7 04bd 09f9 c6bd 3816 17bd 45b1 793d
00000170: d3de 2bbd 5b3d 853d 7090 b13d a5c2 96bd
00000180: 9142 0ebd ecbb 68bd 1303 083b 31d5 50bd
00000190: a8bb 5e3d 609d 493b f2c8 8ebd ab6e 69bd
000001a0: 09f2 9e3d 970e 1dbd f722 9ebd 60c8 73bb
000001b0: de15 313d 8f27 a03c 6fba 98bd 49f9 a43c
000001c0: f32c 633d 052b 48bd 80ca 41bd 2ac7 3dbd
000001d0: b317 813d 01b7 72bd 4350 65bd e3e1 35bd
000001e0: eae1 5f3c ba16 ebbc 000d 0b3e b86e af3d
000001f0: cb0e a43c 44ce b7b8 617e 4cbd d7b4 ab3c
00000200: 035d 74bd 690a 3abd fb11 4fbd 28db 51bd
00000210: 70d3 f6bc 04ab 8bbd 98c7 b4bc c2df 923d
00000220: af80 b6bd 8ae6 f73c dd2d eb3c f41b 9c3d
00000230: e201 a43b a873 513d bc32 c7bc f7ff 58bc
00000240: c992 163d af17 673d 7987 523c f36b 763d
00000250: 828c ab3d 4533 453d 77fe 52bd 4b9f 6cbd
00000260: dc56 b23d 1b57 a63d ce79 3e3c 0a93 933d
00000270: 7dbe e63c 90a8 babb 5d53 953d fafe 9c3c
00000280: 9031 8cbc 0c09 7fbc 00b7 893d eacc 3b3b
00000290: d340 a9b9 e332 cf3c 7e4f 263d 77db 113b
000002a0: 9d57 d33c 4069 ae3b 6a8b 453d c9c8 b43a
000002b0: 8e14 723d 83ac 9f3d b6d6 723d 6615 803a
000002c0: d795 90bb 3d68 aebd 7c89 04bd 5f28 16bd
000002d0: 65a0 033c 4994 7a3d 51ca a8bd 1430 983d
000002e0: aa6c 6bbd 88ba 033c 49e6 b53d 0fd5 823d
000002f0: c945 973d d1c7 0d3d 0cba 88bd 8691 f73c
00000300: 1a9a 7a3d 6b8a 523c 0101 48bd 8ac9 4f3d
00000310: 1d0c 74bd a6ab febc 676a 5fbd 8f16 943d
00000320: 5be1 b13b 6a9a 96bd 9c61 c93c 663c 323d
00000330: 6635 cb3c 2268 853d 1a99 e93c faf6 693d
00000340: 99c7 003d b7e9 83bd 11ea c1bb 55c4 0b3b
00000350: 9c20 6cbd 8941 603d 8b91 d3bc 08c9 273d
00000360: 6c09 f43c 4b90 823d c3ab f7bc de87 513d
00000370: c204 b1ba 9a62 afbc cde1 733c cee6 4abd
00000380: c7b9 54bb 79bf b83c 77a7 3fbb 4d3b 91bc
00000390: 664c 5abd c951 003d 702d 093d c106 a93d
000003a0: 86f2 2a3d f299 84bd abe6 6abd 47c9 963d
000003b0: 444b 73bd 8054 52bd a679 acbb 6e5e a4bd
000003c0: f52c 54bb 7e2e 40bd 9e7f 87bd 758d 913b
000003d0: e7af 53bd 4255 9abc dced 6b3c 3623 893d
000003e0: 920a 8cbc bf52 b6bd 031a 34bd f30d 75bc
000003f0: 03c0 133d 2454 dd3c 2f80 e7bb 243d 83bd
-0.05064045 -0.07652647 0.024023324 -0.07058339 0.018107332 -0.071218 -0.04508546 -0.10604275
0.03364096 0.06495546 -0.002972991 0.07095349 -0.12332591 0.030569745 0.010103545 -0.05674983
-0.03226068 0.06270537 -0.011308529 0.07655285 0.010048829 0.00046465138 -0.0025640542 -0.100763835
-0.011965691 0.03906222 0.03084082 -0.011448758 0.074217595 -0.025375929 0.07140174 -0.001862506
-0.013198144 -0.097566746 -0.06127573 0.07611985 0.02902619 0.07357632 -0.10231113 0.053923495
-0.038028814 -0.004641969 0.049118005 -0.012857079 0.04018135 0.0375047 -0.039616384 -0.075152226
0.09388827 -0.07950761 0.079808906 -0.09585129 0.03864664 0.00049602153 -0.09515022 -0.019279448
0.049023446 0.069495715 -0.031259704 -0.005106676 0.019462816 0.059209693 -0.06465037 0.024489332
-0.028230976 0.037123553 -0.03536117 -0.029312154 -0.026844181 0.02161374 -0.07981118 0.050596457
-0.059669916 0.016306972 -0.07582774 -0.004137451 -0.052671093 0.06629099 0.021496257 0.07624546
0.022465182 0.021714527 0.05682004 -0.05915638 -0.008727027 0.010705815 0.018478468 -0.07652762
-0.0324626 -0.097154684 -0.036886424 0.060960073 -0.04196055 0.06505843 0.086701274 -0.07361344
-0.03473145 -0.05681984 0.0020753786 -0.050984565 0.05437818 0.0030763969 -0.06971921 -0.056990307
0.07761008 -0.038343992 -0.07721513 -0.003719829 0.043233745 0.019550113 -0.074574344 0.0201384
0.05546279 -0.04886915 -0.04731226 -0.046332516 0.063033484 -0.059256557 -0.055984747 -0.044404875
0.013664702 -0.02869736 0.13579178 0.0856604 0.020026585 -8.76454e-05 -0.04992521 0.020960255
-0.059659015 -0.045420084 -0.050554257 -0.051234394 -0.030130118 -0.06819728 -0.02206783 0.07171585
-0.08911263 0.030261297 0.028708393 0.07622519 0.0050051073 0.05113569 -0.024316184 -0.0132446205
0.03676108 0.05641907 0.012849682 0.060161542 0.08376409 0.048144598 -0.051512208 -0.0577691
0.08707973 0.08122083 0.01162572 0.0720578 0.028167004 -0.0056963637 0.07291291 0.019164551
-0.017113477 -0.015566122 0.067243576 0.0028656074 -0.0003228249 0.02529282 0.040603153 0.0022256055
0.025798613 0.0053226054 0.04822866 0.0013792749 0.059101634 0.07796576 0.059286796 0.0009772002
-0.0044123936 -0.085159756 -0.032357678 -0.036659595 0.0080338465 0.061176572 -0.08241714 0.07431045
-0.057476677 0.008040078 0.08881814 0.06388294 0.07386357 0.034614388 -0.066761106 0.030220758
0.06118212 0.012850384 -0.048829082 0.050729312 -0.059581865 -0.031087708 -0.054544833 0.07230865
0.005428476 -0.07353671 0.024582677 0.04351463 0.024805736 0.065140024 0.028515387 0.0571203
0.03144035 -0.06441062 -0.0059177955 0.002132674 -0.057648286 0.05475 -0.025826236 0.040963203
0.029789649 0.06375178 -0.03023327 0.051154964 -0.0013505446 -0.021409322 0.014885378 -0.04953652
-0.0032459365 0.022552239 -0.0029244104 -0.017728472 -0.053295515 0.031327996 0.0334906 0.08253241
0.041735195 -0.06474675 -0.05734889 0.07362609 -0.05939795 -0.051350117 -0.005263525 -0.080258235
-0.003237543 -0.04691934 -0.06616138 0.004441912 -0.051681425 -0.018839482 0.014399972 0.06696169
-0.017094884 -0.08902501 -0.04397012 -0.014956939 0.03607179 0.02701766 -0.007064841 -0.06408146
