backend/ml_models/GM/model.pt (torch, 807686 bytes, 9 tensors)

lstm.weight_ih_l0 f4 [512, 5]
00000000: becb 273d 5f85 9ebc 9685 a13d b87a b23d
00000010: 3612 98bc b127 473c 93fd cbbc c0ab 4aba
00000020: 2d7e f43d 4eb8 a23d 3d3f 143d 1243 83bc
00000030: de75 86bd c723 bfbc 74e2 2cbc ae40 63bd
00000040: ee65 923c cb6d c1bb cfcb c3bc 2f35 953d
00000050: fa86 013e a79d c43d acb7 d03d 0741 e73d
00000060: 0db6 883d 5b43 4f3d 4e31 f33d d1a3 ec3d
00000070: 35e8 743d e480 c53d c46d 08bd 4357 f93d
00000080: c0f7 eb3d 5cdb be3c 6ab4 233d ce54 8a3d
00000090: c62b 1f3d 363a a83d 86da 783d 032b 433d
000000a0: 6e2e a73d 3999 54bd a53d 10bd 0f77 ac3d
000000b0: c9ba 5e3d ede1 04bd 7cf8 8a3d 1b42 763d
000000c0: b225 efbb 2cf1 4bbb 8d2d bb3d 6bce 45bb
000000d0: 2e82 48bd 3d1c 5b3d 48f9 c63d 56d7 053e
000000e0: 96a0 0b3d 985b c13d f20a 073e 8828 343d
000000f0: f0c7 483c 9d38 88bd 0699 053d 7c32 313d
00000100: 7b94 703d c097 6abd c9e7 d0bc 234b 89bd
00000110: ef51 b23c 732e 783d 3f3b d03d f7a8 f43d
00000120: 459d b83d 7062 6cbc 7eef c53d 2260 be3d
00000130: 8be4 003d 1ae1 b93d 0492 cebb 2746 253d
00000140: 2907 36bd ee34 2e3d 98f5 913c b504 ef3d
00000150: d713 ca3d edf7 193d 956e 053c da7e a5bd
00000160: 548a d9bc b59f 0e3d 3801 123d 2c5d ef3d
00000170: 8862 c9bc a378 293d 3ed3 7cbd fbda 6a3d
00000180: 92c8 c4bc e936 593d 8947 3e3d 758e 8d3d
00000190: 8adf 9c3d 8433 d53d dbb9 d13c 2a89 c63d
000001a0: 5da7 983d 5970 623d f18f b93d e90a f33b
000001b0: b177 f53c 3297 cf3b 33e2 97bd 0570 86bd
000001c0: ccef 2b3d 341d c3bc 8146 aa3d 5d26 1b3e
000001d0: 4fc1 113e 4d85 093e 06d6 373e 28c0 a83e
000001e0: a40d 7dbd e5a1 b6bd 12fe a73c a749 3fbd
000001f0: 9d6b 04bc 118b 4f3d 5151 01bd f273 1b3d
00000200: f8b2 46bc fd49 bb3d 6131 ffbc 5630 feb9
00000210: 2a1f 11bc f850 d23c 24e1 aa3d 68aa a13d
00000220: 03fb 823c 5213 c73c 7d8f 433d 0165 6a3d
00000230: 2402 04bc 30ab 49bd 509f bebd cf9c 7a3c
00000240: a893 9cbd 42c2 b739 1924 94bc 0eb5 893d
00000250: c6fb 623d 7f03 ac3d a4bb 7d3d 57e4 6ebd
00000260: 4c52 953d d21c c33d dc07 d23d a49b 3db9
00000270: 1d85 8cbd 5147 1ebd 8b5c b53d 03a7 adbd
00000280: e5df 7c3d 93d0 4e3d 7d10 2c3c 492f eabc
00000290: cac6 533d da42 8d3c ed23 64bd af6f 2fbd
000002a0: 2b89 99bb 949b a3bb 9546 0b3e 276b 153e
000002b0: 3f27 bcbb c2d2 243e 2910 14bd 30a1 853d
000002c0: 106f 093e 1fda 023e 1005 6d3c d4ee 093e
000002d0: 1f9f f63b 32f5 bd3d 6a2d 213d ad6f ec3d
000002e0: 5703 cb3c 59dc 463d 0f7e 603d 9171 be3d
000002f0: 34a2 973c a768 5d3d 7cd8 e93d 05ca 7dbc
00000300: 0124 35bd 4936 043e ca45 6cbd c4bd efbc
00000310: 595c 443d a615 acbc 8316 e73d a7b4 38bd
00000320: f9b1 b23d 55f4 ef3d 66ec 153d 5216 d73d
00000330: 2bc8 963d d218 953a 8fff b53d a2a5 c2bc
00000340: 475b 95bd a677 873d 9751 d33d 6294 c23d
00000350: 4691 a33d d2a8 bb3c f2d4 6a3d ee23 043d
00000360: 2514 223c a445 17bd 78db fa3d 788e 81bd
00000370: 0072 083d 8f8b 2c3d 76dc 2ebc c68e 73bd
00000380: 6e47 c23c f83b 92ba ddb7 0d3d aa7c 023d
00000390: 732c 8f3b 9dd7 9a3d 2adf afbc c27a 8d3c
000003a0: d64b 4f3d c12a 9d3d 7430 f63d 1c81 383d
000003b0: 5e17 8cbb 7db7 923d bc53 b73d 9fc5 993d
000003c0: c4b2 81bc ccf6 f43d 9be1 d3bb 00f8 d13d
000003d0: 627b 8a3e b746 a1bc 2336 05bd 2699 fa3c
000003e0: d8a3 af3c 5d2c 9d3d 0720 453d cd8b 273d
000003f0: 0ec7 933d 7a4d 1a3e 0f30 5d3d 4e56 3c3d
0.040965788 -0.019350706 0.078868076 0.08714813 -0.018563371 0.012155459 -0.024901187 -0.0007731281
0.119381286 0.079453096 0.03619312 -0.016023193 -0.0656545 -0.02333249 -0.0105520375 -0.055481605
0.01787087 -0.005902981 -0.023900894 0.072855346 0.12649146 0.09600382 0.10191283 0.112917
0.066753484 0.050601345 0.118746385 0.11554683 0.059791762 0.096437246 -0.033307806 0.12174847
0.11521864 0.023297958 0.039966978 0.067544565 0.038860105 0.08214228 0.060755275 0.04764844
0.08163153 -0.051903937 -0.03521504 0.08421146 0.05437735 -0.032442022 0.06785676 0.060121637
-0.007298195 -0.0031119091 0.091395475 -0.003018285 -0.048952274 0.053493727 0.097155154 0.13070425
0.034088694 0.09441298 0.13187769 0.043983966 0.0122547 -0.06651423 0.032616638 0.043261036
0.058735352 -0.057273626 -0.025501149 -0.06703784 0.021767585 0.060591172 0.1016755 0.1194629
0.09014372 -0.014427766 0.0966482 0.0929568 0.031467956 0.09076138 -0.0063040275 0.040350106
-0.044440422 0.042530946 0.017817304 0.1167082 0.098670654 0.037589956 0.008144041 -0.08080836
-0.026555218 0.034820277 0.035645694 0.11687693 -0.024583116 0.041374814 -0.061724894 0.057337742
-0.02402142 0.053030882 0.04645494 0.06911937 0.07659824 0.104102165 0.025601318 0.09694131
0.07453797 0.055282924 0.09060658 0.007417072 0.0299643 0.0063351626 -0.07416191 -0.06564335
0.041976735 -0.023817636 0.08314229 0.15151353 0.14233898 0.13429756 0.17952737 0.32959104
-0.061780587 -0.08917598 0.020506892 -0.0467011 -0.008082298 0.050669733 -0.03157169 0.03795237
-0.01212763 0.091449715 -0.031151475 -0.00048482668 -0.008857528 0.025673375 0.083437234 0.078938305
0.015988832 0.024301205 0.047744263 0.05722523 -0.008057151 -0.049235523 -0.0930773 0.015296175
-0.07645351 0.00035049213 -0.018083619 0.067239866 0.05541589 0.08399104 0.061946526 -0.05832323
0.072910875 0.095269814 0.10255405 -0.00018082425 -0.06861327 -0.03864223 0.08855542 -0.084791206
0.06173696 0.05049188 0.010501978 -0.028587 0.051703252 0.017243791 -0.055698324 -0.04283112
-0.004685541 -0.0049929116 0.13601144 0.14591657 -0.005741983 0.16096023 -0.036148224 0.06524885
0.13421273 0.12778519 0.014466539 0.13470012 0.007526293 0.09275283 0.03934995 0.11544738
0.024781866 0.048549984 0.05480772 0.09299005 0.018509962 0.054054882 0.11418244 -0.01549006
-0.04422379 0.12911333 -0.057683744 -0.029265292 0.047939632 -0.021006417 0.11283591 -0.04509416
0.08725352 0.117165245 0.0366024 0.10502304 0.07362398 0.0011375195 0.088866346 -0.02376062
-0.072928004 0.06614618 0.103182964 0.09500958 0.07986693 0.022907648 0.057331987 0.032260828
0.009892498 -0.03693165 0.122488916 -0.06326002 0.033311844 0.04212528 -0.010672679 -0.05946233
0.023715701 -0.0011156788 0.034599174 0.03185717 0.0043693124 0.07560656 -0.021468718 0.01727045
0.050609432 0.0767417 0.120209605 0.045045003 -0.0042752465 0.07163904 0.08951518 0.07508396
-0.015832312 0.11961135 -0.0064661033 0.1025238 0.2704726 -0.01968704 -0.032522332 0.030590605
0.021440431 0.07674477 0.048126247 0.04090481 0.07215701 0.15068617 0.05400091 0.045980744

lstm.weight_hh_l0 f4 [512, 128]
00000000: f0d7 4dbc bc42 95bd 83e7 353d 9fff 60bd
00000010: 99dc a1bd 1644 abbc a356 553d 0e3a a53d
00000020: f6d3 7fbc 6d27 823d 3692 633d dbb9 953d
00000030: 8efd 903d 7c51 bebd c816 573d a981 b33b
00000040: ed6e 67bc 30e6 9c3d 1b20 afbd ff60 eeb7
00000050: b786 fd3c ca1b 343c 44e6 cebd 0ae8 e83d
00000060: 58f9 923d a456 b53d c53e 1d3d d067 683d
00000070: e794 aabc f8fa 3fbc e67f bf3c a69a 983c
00000080: 53ac dabd 1b22 17bd f595 70bd 4f98 71bd
00000090: 9c37 a8bd 78ef 85bb 19e7 793d 47f7 063d
000000a0: 546a c83c ece4 e9bc a741 733d 353e eb3c
000000b0: 0838 5bbd a964 6bbd 13f4 1abd e671 9b3d
000000c0: 71d1 cf3d 499b a3bd 6d5d 35bb 9ca3 8d3d
000000d0: a7d7 76bc be55 d7bc 2af3 193d 5790 90bb
000000e0: 7420 203d 710e acbd c0af fcbb 6dc5 07bd
000000f0: da2d 30bd f810 f3bc ffe0 973d dfe1 9fbd
00000100: 385d 083d 5486 06bd 354c 2b3d e128 783d
00000110: 505d 89bb f6dc d33b 0887 4abc 1093 1cbe
00000120: a0ca ca3d 89ec 18bd a591 08bd 0099 a3bb
00000130: 7f0a 26bd 4c42 91bd 6953 923c e044 f1bc
00000140: 7118 223d 38ee 4d3c 8eba 96bd 5f5c e53a
00000150: 4338 94bd a2fb 553d 1bec 893d c356 be3d
00000160: 320e 253d 47e0 94bd a772 6abd c9c3 4e3d
00000170: bf41 f5bb b78d 55bc b3c4 693d d6c9 3a3c
00000180: 5548 7d3d ddc3 0dbd 1506 dcbd dd01 a8bd
00000190: cd5a 173d 160b 5f3d 0ea7 1d3d 7242 553d
000001a0: 9a17 173d 73bd 8a3d 0957 47bd df27 e23c
000001b0: 1d3e 21bd 10f3 923d 6b49 5ebd a030 56bd
000001c0: 3263 98bb ec26 5ebd ae40 323d aa36 53bd
000001d0: 3c53 9abd 77df 2bbd 7c99 523d 041c e1bc
000001e0: 5bbd af3d cf24 e8bc 94d9 f2b9 0aac 44bc
000001f0: e7ca 313c 68fd 9dbd dd20 833d 7b75 9d3d
00000200: f6b1 153c 271a bc3d afcc 84bd 40a9 343d
00000210: 69b4 90ba 08aa 9b3d 9f8a b03c 55ef fdbd
00000220: 0c4d a73c 696d 13be b68b 69bd 26d8 013d
00000230: 2725 a43b e912 f83d e8ed ee3d 3318 db3c
00000240: 0711 1abe de58 4a3c 4d4f 193c cc5e f1bb
00000250: b2df debd c899 3c3d 7b40 093e cf4f 0cbe
00000260: 53dc d43d 5d51 9ebc 452e 1cbd 0cff 013d
00000270: bb97 493c ea1d f43d ccca e43d 38a6 a83d
00000280: b5c6 233e 8e7f 93bd 5736 52bc c01b bfbd
00000290: 13c6 c33d 081e c03d cacf 9c3d 46bd 8fbd
000002a0: 8adf 9d3b c8d8 9fbd d5d5 44bd dc62 513c
000002b0: d137 e53d c837 1d3d 3051 71bd 2e43 92bb
000002c0: 3919 fabd 29a0 f83d 0b94 eb3c a949 413c
000002d0: 25cc d8bc a0f1 85bc 27e2 d4bd 9c75 ccbd
000002e0: 7a03 943d 15de ab3c c45f 9b3c 60a2 003d
000002f0: f1a7 833d 30cc 11bc 10d6 ca3d b9be e13b
00000300: f32d 163d a19e 123d ddb7 973d d887 4ebe
00000310: f559 d9bc 55d7 93bd e69f 433b 252a 1e3e
00000320: 3f83 23bd 8815 4b3d 59b3 b1bc 7bb7 2fbd
00000330: 521c 983d e5c0 7a3e 76fd 8e3d e1bc 813d
00000340: 1f15 f03c cd58 72bc be75 a23d 6ac3 88bd
00000350: 7318 4dbd e39e 05bd 9c36 c7bd 75da 9abd
00000360: 4352 0abd 9383 073d 1ffe eab9 4806 54bd
00000370: 348a 95bd 194d c6bb 5991 3a3c 5999 0ebc
00000380: fa3f 9e3d de75 aabd 446a 783d 96ef 34bc
00000390: a9a5 b13c 08ba 06bd c76d 273b 8ae7 afbc
000003a0: bd63 973d 2547 b0bd 4987 88bd 2f33 b0bb
000003b0: 5a00 33bd 11b2 b2bd 24f3 3b3d b6f2 4dbc
000003c0: ec23 aeba 97ec b63d 8e55 58bd 41af cfbd
000003d0: 4f68 97bd 7abb c33d 3e33 693d a9b2 0abe
000003e0: 7d3f 7dbd 34fa 5abd 5b15 a6bd 4f59 ddbd
000003f0: e7e4 3ebd 987b 0abc bc68 89bd d73c d4bd
-0.012563691 -0.07288119 0.04441024 -0.05493128 -0.07903404 -0.02090649 0.052084576 0.08067714
-0.0156145 0.06355176 0.05555936 0.0731084 0.07079612 -0.09292886 0.05251196 0.005478103
-0.014125568 0.07661092 -0.085510455 -2.8416978e-05 0.030948026 0.010992954 -0.101025134 0.11372383
0.07176465 0.08854416 0.03838994 0.05673963 -0.020822955 -0.01171755 0.023376416 0.01862843
-0.106773995 -0.03689776 -0.05873676 -0.058983143 -0.08213732 -0.004087385 0.061011408 0.032950666
0.024464764 -0.028551541 0.059388783 0.028716186 -0.053520232 -0.057469044 -0.037830424 0.07590084
0.1014737 -0.07988603 -0.0027674094 0.06915972 -0.015066064 -0.026286002 0.037585415 -0.004411738
0.03909345 -0.08401192 -0.0077113807 -0.033147264 -0.043012477 -0.029671177 0.074159615 -0.07806753
0.033292025 -0.03284295 0.041820724 0.06058586 -0.004192032 0.0064655496 -0.0123612955 -0.15290475
0.09901929 -0.037334953 -0.033342022 -0.0049926043 -0.040537354 -0.07092723 0.017862039 -0.029451787
0.03957409 0.012569003 -0.07359801 0.0017498842 -0.072372936 0.05224193 0.06734487 0.09293892
0.04029674 -0.0726934 -0.057238247 0.050479684 -0.007484644 -0.013034276 0.057072353 0.0114006605
0.06183656 -0.034610618 -0.107433476 -0.082034804 0.03695183 0.05445393 0.038489394 0.05206532
0.036887743 0.06774416 -0.048666988 0.027606903 -0.039365876 0.07175267 -0.054269236 -0.052292466
-0.004650497 -0.054236338 0.043518715 -0.051565804 -0.07535407 -0.04196116 0.051415905 -0.02747918
0.085810386 -0.028337864 -0.00046319945 -0.012003908 0.010851598 -0.07714349 0.064027525 0.07688423
0.0091366675 0.09184676 -0.06484353 0.044106722 -0.0011040095 0.0760079 0.021550475 -0.123991646
0.020422481 -0.14397205 -0.057018004 0.031700276 0.0050093117 0.12112982 0.11666471 0.026744938
-0.15045558 0.012350289 0.009357286 -0.007366037 -0.1088251 0.046045095 0.13403504 -0.1370232
0.10393586 -0.019325906 -0.038130064 0.031737372 0.012304242 0.11919768 0.11171493 0.08234829
0.1599377 -0.072020635 -0.012830338 -0.09331465 0.09559264 0.09380728 0.0765682 -0.07018523
0.0048179077 -0.078050196 -0.04805549 0.012779918 0.11192287 0.038383275 -0.058915317 -0.004463575
-0.12211842 0.12139923 0.028757116 0.011797347 -0.026464531 -0.016350567 -0.10394698 -0.0998337
0.072272256 0.02097992 0.018966563 0.031404853 0.06428517 -0.00889878 0.099041104 0.006889191
0.036664914 0.03579581 0.07408116 -0.20169008 -0.026532153 -0.07218806 0.0029849946 0.15445764
-0.039920088 0.04958108 -0.021691965 -0.04289959 0.07427277 0.24487646 0.069819376 0.06334854
0.029306946 -0.01479168 0.07932614 -0.06677897 -0.050072145 -0.03262223 -0.09727213 -0.075611986
-0.033769857 0.033084463 -0.00044821293 -0.051763803 -0.07301751 -0.006051671 0.011387193 -0.008703553
0.07727046 -0.08323263 0.060648218 -0.01104345 0.021685438 -0.032892257 0.002554761 -0.021472711
0.073920704 -0.0860732 -0.066664286 -0.0053771953 -0.043701507 -0.0872537 0.045886174 -0.012570074
-0.0013285852 0.08931845 -0.052815966 -0.10140849 -0.07392942 0.09557243 0.056933634 -0.13544716
-0.061828125 -0.05346127 -0.08109542 -0.1080805 -0.046605017 -0.008452319 -0.067094296 -0.10363167

lstm.bias_ih_l0 f4 [512]
00000000: 8b0e 883d f823 0d3e f143 05bd 6d7e 9ebd
00000010: f691 fc3d e5ad e83b a13b 293a 0ab1 c33c
00000020: 06ec d6bb 1f1d 3d3d 3507 0e3d 18ec d43d
00000030: df38 893d 844b bbbc 5116 78bb 3a21 49bb
00000040: 7375 123e 5b15 0cbd 5014 943b 646c 8f3d
00000050: f8ba 55bd c45f 44bd 4543 82bd d033 843e
00000060: 9c03 803d 19ec 27bd 368e e8bc 8cd1 46bd
00000070: 5482 07be cc61 9dbc de41 90bd a008 68bd
00000080: 395c 17bd 6015 473d 16a2 e73d 7120 043e
00000090: 1be2 673c 415e b83d bf00 603b 962b f6bb
000000a0: 5289 b4bb 8ccf 053d 2662 cdbb 112f edbc
000000b0: ca25 d93c 8eac 333d f7e8 82bd 14b8 a13d
000000c0: 4f3b 173e c14b 85bd 91e0 7c3d ad7c b93d
000000d0: d03b 92bd 6635 cf3d 1d8d 6b3d eaaa 483c
000000e0: e6e4 8a3d 6d7d a13c ddbf 6b3e 81bb 53bc
000000f0: cf73 4abd 78be a73e 27c5 ed3b 7d4c 1b3d
00000100: f92d bb3d b654 42bd 03ca f33d d1af 0a3d
00000110: 2ba7 343c ee00 61bd 72d5 993d 823e 173e
00000120: de0b 143e 2064 8cb9 6733 69bd 556a c93c
00000130: 7193 083a 673f c33c 7d08 51bc 5ece 3b3e
00000140: a315 66bb 4b8b 11bd 2f5c 843d 0f15 a5bd
00000150: b824 5bbd e285 1dbd 8b89 59bb b8a9 843e
00000160: f15f a43d cd1b a23d 2327 2ebd 14cb 2c3d
00000170: 0e01 fc3d e71b 8dbd 15ad 89bd 2dc3 613e
00000180: 899e 3bbd 85f0 ea3d 918c 0f3e 6d7e aebd
00000190: fdcc 16bc 6610 353d 35e4 153c 0f60 2e3d
000001a0: 8aa8 21bd 6323 b0bd 7106 d1bd d7d3 a9bd
000001b0: d5ff 9bbd a617 823d 76ab 973d 925e 7abd
000001c0: 7c3f f73c 3cc7 f23c 7984 873d 717e 25bd
000001d0: ad6d b23c 68c9 173e 3eb9 f8bb e61f 873d
000001e0: f47b 8d3c 5462 0cbd ab3e 0ebd d51b f8bb
000001f0: e625 07bd 5811 5c3d f79b a4bd cb4b a2bc
00000200: b75e 4dbd eebe 45be d25b 46bd 7c6f 5b3d
00000210: 6fa1 fdbd 51f9 013c d194 c7bd c916 94bd
00000220: 2ee2 8c3d 24f6 55bd 5559 62bd 1740 93bd
00000230: 7eb1 95bd 1c49 133d b40d 8c3c 40df 323c
00000240: 3979 11be a3b9 34bd b8a0 093d 99d6 89bc
00000250: f10f 99bb 7624 5d3d 3548 14bd 9529 5dbd
00000260: e356 a33d d129 acbd 987a e33c 98f7 abbc
00000270: 348d f3bb e284 3b3d 6b2f 1a3d 5043 acbd
00000280: d6d0 c43c a28e 47be ce30 6ebe 1186 11be
00000290: 99c5 8dbc 1064 c63c 260f 99bd b3e9 eebd
000002a0: 6a59 71bd cc3f 0a3d 72c2 41bd e83b 65bd
000002b0: ae3c 68bd 27ca 84bc 0a47 253d d0ac 29bd
000002c0: 5b96 d7bd 48fa c1bc 4bcd 41bd 8cec 38bd
000002d0: 8988 353d 2f49 1cbe 3dd0 78bd 7722 2a3d
000002e0: 880e fdb9 388c 9e3d dc8f 81be a714 3e3c
000002f0: 5284 91bd d641 2ebe 670a 1b3c 0d67 0fbd
00000300: 7643 e1bd 93b0 afbd 2cb7 1ebe 9792 053d
00000310: 771b 7cbd c501 9bbd 1a52 3bbe 7ae1 dcbd
00000320: 5005 08be 3464 47bc a8f1 bbbd d8c4 623d
00000330: c8e4 54bc 5623 f83c 8eb0 12bd 8ec3 18bd
00000340: 4ef9 5cbd 74fd 873c 0485 73bd 1d64 ddbc
00000350: 53e2 e7bd c81d dfbc 0a19 b7bc 7de1 3abd
00000360: 1ec8 0f3d 4569 743d 6cdf 66bd 595f 173d
00000370: 4ff9 9f3c 7e85 953d 4f3f e1bc f1ff b23c
00000380: d5d2 4e3d 5e12 a2bd e42b 5fbd 312d be3c
00000390: fbbc 72bd 363a 87bd 7662 203d 30c1 c43c
000003a0: b7d4 9dbd 2841 953c ff52 133d af10 203d
000003b0: badb 9ebc 270d 15be 32bf e0bd 8d0a 75bd
000003c0: 45b1 b8bd 1f84 78bd e313 74bd ff4d 68bd
000003d0: 371b 6abd 6f00 5e3a 410d c7bd 5f5f e3bc
000003e0: ce2a 05bd 0f93 0b3d 9861 b8bd 40e4 6ebd
000003f0: f5be bfbd 9234 723d a87a 4dbd 860b 81bd
0.06643399 0.13783252 -0.032535497 -0.077389576 0.12332527 0.007100808 0.0006455724 0.02388813
-0.006558898 0.04617035 0.034674842 0.10396594 0.067003004 -0.022863157 -0.0037855098 -0.003068997
0.14302616 -0.034200054 0.004519023 0.07003096 -0.05218026 -0.04794289 -0.06360487 0.2582078
0.062506884 -0.040996645 -0.028388124 -0.048539683 -0.1323331 -0.019211672 -0.07043813 -0.05664885
-0.036953185 0.04860437 0.11310212 0.12903 0.014153029 0.090023525 0.0034180132 -0.00751252
-0.005509534 0.032668635 -0.0062678037 -0.028953107 0.026507277 0.043865733 -0.06392091 0.07896438
0.14768718 -0.065085895 0.0617376 0.09056983 -0.071403146 0.10117607 0.057507623 0.01224778
0.0678194 0.019713128 0.23022409 -0.012923122 -0.04942685 0.32762504 0.0072561684 0.03791474
0.09139628 -0.047444068 0.11903765 0.033859078 0.011026184 -0.054932527 0.075114146 0.14769939
0.14457652 -0.0002677748 -0.056933787 0.024586836 0.0005209959 0.023833944 -0.012758371 0.18340442
-0.0035108111 -0.03553323 0.06462895 -0.08060657 -0.053501815 -0.03845776 -0.0033193554 0.25910735
0.08026112 0.07915459 -0.042517792 0.042185858 0.12304889 -0.068900876 -0.06722466 0.2204711
-0.045805488 0.11471657 0.14018466 -0.085202076 -0.009204146 0.044205092 0.009148647 0.042572077
-0.039467372 -0.086004995 -0.10206307 -0.08292358 -0.076171555 0.06352167 0.074057505 -0.061125346
0.030181639 0.029636018 0.06617064 -0.040403787 0.021780813 0.14822924 -0.007590442 0.06597881
0.01727102 -0.03427346 -0.034727734 -0.007571677 -0.032995127 0.053727478 -0.080375604 -0.019811532
-0.050139155 -0.19311115 -0.04842741 0.053573117 -0.12384307 0.007932977 -0.09745181 -0.072309084
0.06879078 -0.05223669 -0.055260975 -0.071899585 -0.073092446 0.035958394 0.017096378 0.010917485
-0.14206399 -0.04412235 0.03360054 -0.016825961 -0.00467109 0.05398985 -0.036201674 -0.053994734
0.07975557 -0.08406413 0.027768418 -0.020992085 -0.007432604 0.045781024 0.037642878 -0.08411276
0.024025362 -0.19488004 -0.23260805 -0.14211299 -0.017306136 0.024217635 -0.074735925 -0.11665668
-0.058923163 0.033752248 -0.047304578 -0.055965334 -0.056698494 -0.016209675 0.04035095 -0.041424572
-0.10526725 -0.023678914 -0.047314923 -0.045147464 0.044319663 -0.15262292 -0.060745467 0.041536774
-0.00048266747 0.07741588 -0.25305068 0.011601604 -0.07105316 -0.17017302 0.009462929 -0.035010386
-0.10999195 -0.08578601 -0.15499562 0.032610502 -0.06154963 -0.07568697 -0.18293038 -0.10785194
-0.13283277 -0.012169886 -0.09176952 0.055363506 -0.012993999 0.030290287 -0.035812907 -0.03729587
-0.053948693 0.016600348 -0.059453025 -0.027025277 -0.11322465 -0.02723588 -0.022350807 -0.0456252
0.035102956 0.059670705 -0.056365415 0.036956165 0.01952806 0.07300852 -0.027496008 0.021850558
0.050494034 -0.079136595 -0.054485217 0.023214908 -0.059262257 -0.066029 0.0391564 0.0240179
-0.07706588 0.018219545 0.035967823 0.03907841 -0.019391883 -0.14555798 -0.109739676 -0.059824515
-0.090181865 -0.060672875 -0.059589278 -0.056715008 -0.05715486 0.00084686925 -0.09719325 -0.027755437
-0.032511525 0.034075793 -0.090029895 -0.058323145 -0.09362594 0.059132166 -0.050165802 -0.06301026

lstm.bias_hh_l0 f4 [512]
00000000: 8b0f 02bd 4078 153e 22c4 68bd 6f86 a6bc
00000010: 83db f63d a6ee 643d 6eff 3abd f34a cd3b
00000020: 7373 9ebc 490b c43c 5f1c bebc 6a71 ba3d
00000030: 5951 bebc 5ac4 09bd 3fe5 a33d 03b5 bebd
00000040: ee00 bb3d 0b12 163c af53 f2bc 0e9e 443d
00000050: 087f 6d3d fd5e 5abd cda8 643c e3da 8f3e
00000060: 0ed7 513d d8f8 0ebd 5a26 763d 455e 85ba
00000070: fcce f6bd e0f2 babd 762b e23c 0fe7 7abb
00000080: f4da 923d 4e7e 70bc 2294 453e 635c 203d
00000090: 8aa6 e33c aa17 37bd 614e 2a3d fab4 483d
000000a0: 986f fabc 1d0d 47bd 100c 56bd 2736 4c3c
000000b0: bf2b bfbd 028d a8bc c7e3 debc 0330 9f3c
000000c0: db62 0f3e 6da3 723d e7da 083c b680 473d
000000d0: a002 b63d f28d 2d3e ca0a 17bd 77db 403d
000000e0: 39e8 31bd da16 d53d a105 533e 17f9 e23b
000000f0: 874d fcbc 5127 623e 8c99 22bc a673 ec3d
00000100: 13eb 5f3d 4528 96bb aa3d ce3d 7d27 ab3d
00000110: fd39 ddbd 8121 a83c fcb5 5b3e b202 593e
00000120: 4729 503e 9ccd 0b3d b228 e03b 75d9 55bd
00000130: 26ec 863d d529 a7bc 9ce3 9f3d 72b4 353e
00000140: 9fb7 d63c de38 6c3d 5b05 ed3a c42e 7cbd
00000150: 38c3 d23d b1d8 f43c 9083 b8bc 77db 893e
00000160: f584 623d e991 983d 3a2b 773d afec b5bd
00000170: 6c0e bb3d 92de 41bc 2955 33bd b165 123e
00000180: 632d eebc 7e2c 59bc 3e8a 123d 19db f9bd
00000190: e9fa 9b3c f511 5a3d bdbc bfbd 3731 343d
000001a0: 3220 b13c 4e8c 5cbd d057 5cbd fab7 a9bc
000001b0: 5326 c53c bc16 573e 773e 8d3b 135d 663c
000001c0: d010 3d3d fc8e bd3d 3f2e b63c 37ee 58bd
000001d0: 50d1 97bc 89b8 bd3d 88c2 b23d 2c6f 243b
000001e0: 3be5 dc3d d9ab 333d d1f8 90bd 799d e83b
000001f0: daf0 3fbd fe8c a1bc 63f1 c9bc 278b 843c
00000200: 41c2 97bb 2f2d 7dbd f57f f43c 2ef9 9b3d
00000210: 3818 a83c b561 753d 6055 55bd 0a25 f93c
00000220: 6038 0b3c 732a dd3c 92ae 82bd d628 17bd
00000230: f66d 6cbd f8a2 7dbd c460 713d d552 a7bb
00000240: 1058 3ebe f093 5dbd 0ab6 46bd 83c9 62bd
00000250: 7f8b 853c a3c6 a43d 5c4e c33c 7b96 92bd
00000260: 046f 0c3d d33e 7fbd 7748 01bd 6c7c 97bd
00000270: c94e 82bd 8c9d 0e3d b59d 87bd 49ec 87bd
00000280: 7fea 29bd 171d 6dbe 36e3 26be 1fef 12be
00000290: bc57 de3b c10d a7bc e81e 0bbd e84e 4fbd
000002a0: 0502 013d 8ecc 2a3b dc91 f23c bb76 73bd
000002b0: d7e8 aabc 009d 19bd 542f 83bd cf16 733d
000002c0: 1e72 e7bd e7d1 e93c f11a 66bd ad8a d7bd
000002d0: 1fa7 b63c 9bbc 9abd ba5a e4bd 15ec 053c
000002e0: 999c 01bd b253 85bd 9a1f 5fbe 3fbf 2fbc
000002f0: 98fc 65bd bd6a 28be 40ab 9d3c 072b 1bbe
00000300: cf62 c5bd 2101 79bd aff7 23be e36e b93c
00000310: 4f0f ac3c d10c 91bd a5af 4fbe 9f40 9dbd
00000320: d3d3 17be 7420 403d 503b 1fbd c3b2 cdbd
00000330: a19b 34ba 3a7e 9cbc ceda 71bd b7d5 87bd
00000340: fe57 2a3c 3760 8cbb d923 0dbd 5ff8 65bc
00000350: 3b9f bc3c 62cc 4fbd 9af6 5fbc 45a5 fdbd
00000360: 6c6c 06bd 8af2 91bd 08aa 6abd 4558 22bd
00000370: 0545 12bd 3310 f2bb d993 1ebd fea3 f5bd
00000380: b238 c4bd 17ef e4bc 27e7 043c 0a2a e7bd
00000390: 75fe 13be 398e dbbd 564e c3bc 3f4b a13d
000003a0: 43a6 cb3b 9e16 4d3d c4b2 dd3b 6c76 82bd
000003b0: e7c5 fbbd 7a16 21bd 74bd 92bc 56b2 ef3c
000003c0: a013 383d beb6 803d 95c3 1fbe cbff d13a
000003d0: e586 b0bd d5a5 21be 10a1 913c d602 873d
000003e0: 568b 9fbd dbc0 b83c d53c 4cbd 7d42 093d
000003f0: 964b ca3b 433e 273d 55e2 aebd ff56 20bd
-0.031753104 0.14596653 -0.05682767 -0.020327775 0.12053587 0.055891655 -0.045653753 0.006265038
-0.01934216 0.023931162 -0.023206888 0.09103663 -0.023232149 -0.03363452 0.080027096 -0.09311869
0.09131037 0.009159575 -0.02958092 0.048002295 0.057982475 -0.053313244 0.013956261 0.28096685
0.051230483 -0.034905285 0.06009517 -0.0010175189 -0.12051198 -0.09128356 0.027608614 -0.0038284694
0.07170668 -0.014678551 0.1929479 0.039150607 0.027789373 -0.044700302 0.041578654 0.049000718
-0.03057079 -0.04859649 -0.052257597 0.012464083 -0.09334516 -0.02057505 -0.027208222 0.019432073
0.14002554 0.059237886 0.008352972 0.048706733 0.088872194 0.16948679 -0.036875524 0.047084298
-0.043434355 0.10404749 0.20607616 0.0069266665 -0.030798687 0.2208531 -0.009924304 0.11545496
0.054667544 -0.004582437 0.10070355 0.08357141 -0.10802076 0.020523788 0.2145614 0.21192434
0.20328246 0.03413163 0.0068407888 -0.052209336 0.065880105 -0.02040569 0.07807085 0.17744616
0.026210604 0.05767142 0.0018083261 -0.061568037 0.10291141 0.029888483 -0.022523671 0.2692525
0.05530258 0.07449705 0.06034396 -0.088830344 0.0913361 -0.01183285 -0.043782387 0.14296605
-0.029074376 -0.013255237 0.03577637 -0.12199993 0.019040542 0.05323978 -0.09362171 0.043992247
0.021621797 -0.053844742 -0.053794682 -0.02071761 0.024066126 0.21004766 0.004310425 0.014060277
0.04615861 0.09255788 0.022238849 -0.052961554 -0.018532425 0.09263713 0.0872851 0.0025090678
0.1078591 0.04386506 -0.07078708 0.0070988503 -0.046860553 -0.01972055 -0.024651235 0.016179634
-0.004631311 -0.06181067 0.02984617 0.07615887 0.02051936 0.059907634 -0.052083373 0.03041317
0.008497328 0.02699778 -0.06380953 -0.03690418 -0.057722054 -0.061922997 0.058930174 -0.00510631
-0.1858828 -0.054096162 -0.04851345 -0.055367958 0.016301868 0.080456994 0.023841076 -0.07157608
0.03428556 -0.062315773 -0.03156325 -0.073967785 -0.06362683 0.034818217 -0.06621877 -0.06636865
-0.0414834 -0.23155628 -0.16297612 -0.1434903 0.006785361 -0.0203923 -0.03396502 -0.05061236
0.031496067 0.0026061866 0.029610567 -0.059439402 -0.02086298 -0.037503242 -0.064055115 0.059347924
-0.11301063 0.028542472 -0.056178037 -0.10524497 0.022296486 -0.07555505 -0.11150117 0.008173962
-0.031643484 -0.06510104 -0.21789399 -0.010726749 -0.056149095 -0.16446967 0.019246697 -0.15153132
-0.09637987 -0.060792092 -0.16012453 0.022635883 0.021003393 -0.07082523 -0.20281847 -0.07678341
-0.14826898 0.04690595 -0.038874924 -0.10043862 -0.00068896456 -0.019103158 -0.05904656 -0.0663256
0.010396956 -0.0042839306 -0.034458015 -0.014036267 0.023025146 -0.050732024 -0.013669634 -0.12385038
-0.032818243 -0.07126339 -0.05729106 -0.03963496 -0.035710353 -0.007387185 -0.038715217 -0.1199417
-0.09581126 -0.027946038 0.008111752 -0.11287315 -0.14452536 -0.10720486 -0.023841064 0.0787568
0.0062148883 0.050070398 0.0067656953 -0.063702434 -0.12293606 -0.039328076 -0.017912604 0.029259842
0.04494059 0.06284855 -0.15601952 0.0016021667 -0.08619479 -0.15785916 0.017776996 0.06592338
-0.07790248 0.022552898 -0.0498627 0.033510674 0.0061735613 0.04083086 -0.08539263 -0.039145466

lstm.weight_ih_l1 f4 [512, 128]
00000000: 1f4b 1ebd ba77 0bbe a764 bb3d 014f 31bd
00000010: a907 5f3c 06e5 92bd 9d73 dd3c 3450 8bbd
00000020: 4b38 3f3d 9810 433d 3e71 03be 7ac2 ab3c
00000030: b409 4b3d 53a6 cfbb e402 7abd 82ad 8cbd
00000040: 398d 15bd 88d5 8bbd 90d3 0f3d 2459 8bbd
00000050: e685 aebd b6d8 bdbc ddd0 fc3c be85 963d
00000060: 2110 05bd 7d5c db3d 4509 cbbd 4105 e2bd
00000070: 3349 a83c 3b69 f0bc ce64 8ebd 04ba 21bd
00000080: d046 983d 5823 443c 9db3 113d 6af5 dbbc
00000090: eb4a 42bd e716 03bb 39e3 56bb fe18 b13c
000000a0: 0c39 67bc d577 17bc b987 61bd 100d ab3a
000000b0: 5001 8b3d a4ec 33bd c1d6 2d3d da22 a4bd
000000c0: 9edd 213e 4b69 76bc 5d57 54bd a987 453d
000000d0: 36f3 ecbc 7bd4 67bd 8b9c 87bd 0f72 92bd
000000e0: 5d4a 353d d90d a2bd d50e 44bd 20a8 243d
000000f0: 5795 97bc 632d b2bb 283d 8fbc 34f8 98bd
00000100: 4313 293b 9cd7 813d 70e5 acbd 1686 613d
00000110: 4cfc 1d3d dba3 8e3d 681b 07bd bdf8 f8bc
00000120: c7be 063e 6bbc a33d 4f6c cbbc 73b8 19bd
00000130: 09ac 54bc ca3e 663d 4c26 993d f1dd 77bc
00000140: 18a3 47bd ce8b ffbd ad02 153d a118 98bd
00000150: 6f80 e0bc 6d0e aa3b e868 393c 08bd 263d
00000160: 0f3e 353d 897e b73d a1a8 cebd e6ad 37bd
00000170: 3265 fc3d 95ec 6c3d 6f12 a23d 2fd9 303d
00000180: 3557 c83c fe0a 7cbd 4ced 053d f271 363b
00000190: 3894 203c 14ec 893d 6901 e83b e7f5 5a3d
000001a0: 8634 b7bd c517 81bc aab7 2ebd be78 83bd
000001b0: 33fe 06bd aece ff3d 9e2c c63d c55c 14bd
000001c0: bbf1 093d e8ec f83c 178b cf3d af96 613d
000001d0: c18c 3d3b 574e 52bd 6f87 923d aa35 2dbd
000001e0: 4478 0c3d 4cf3 51bd 87ca 2bbd 5012 93bd
000001f0: ccc2 87bd 405d 8cbc c2c9 aebd 029d 82bd
00000200: d6d0 c53d f9cd 42bd 4493 d53d f6ee 18bd
00000210: b4a6 2bbc d060 a6bc 1d2a bb3c 0d17 5c3c
00000220: 7ba2 d13b 1ab1 c0bc 9364 0dbc f6d3 6fbd
00000230: 4e9c fcbd e427 43bd 6a51 60bd c463 54bc
00000240: bdb9 b1bc 4d67 81bd e7c7 99bc 4b9e 71bc
00000250: 3c44 923d f507 cb3d 2b0e 24bd cfcd 153e
00000260: d6fe adbd 3818 543c 20b9 893d 8571 b7bd
00000270: 9cfc 4e3d 89da b4bd 1cbd 4d3d 5d44 abbd
00000280: 98ea f73a 9888 39bd fc0b 483b 401e 83bd
00000290: 9cd7 c5bc d612 023c 8310 453d 35a8 42bc
000002a0: 6d47 153b 4288 9e3d 8ebb 013d dceb e9bc
000002b0: c270 263d 7155 913d 40c8 843c 6fbc 9b3c
000002c0: c691 053e 7845 a9bc e74b d93b 30ad 5e3d
000002d0: 7947 bebd b4fb faba 1765 86bc e15a 8dbb
000002e0: fd86 a1bd 40dd 9e3d 86cc 983c de77 a93b
000002f0: 879b 6a3d e1d6 31bd 8305 623c a289 febc
00000300: 64cc ab3d 12db 0cbe 9350 643d 5582 163c
00000310: b589 1fbd d2c1 d2bd 3ba7 a53d fc4b fabd
00000320: 43ba c43d 9170 103d ae91 93bc 1d4e 94bc
00000330: 1fb5 0b3b 1e3b b7bd 43f0 a4bd 6943 55bd
00000340: 16de 8cbc 59bc d7bd 8615 c6bd 7f88 15bb
00000350: e882 23bd a3be 803d 37a8 a23d b03a 103e
00000360: 3c06 d63d 8da8 67bd 91e3 683d e363 8f3d
00000370: e782 013d b396 6d3d 81b3 1ebe cab8 c83c
00000380: 695a 283c 542c 48bd 9b47 12bd e894 93bd
00000390: 60ff 073d ff0c 92bd 7e5c 793d 8f45 54bc
000003a0: e93d 95bd b31b a3bc e2ab acbd fb27 763d
000003b0: 9852 84bd bcfe fe3d b511 543d a7f0 69bd
000003c0: a49c aebd 698e 25bd 05fb 32bc 8739 93bd
000003d0: 55dd 9e3c 4507 a9bc 543c d43d cace cc3d
000003e0: 22d4 463d 39ae 13bc 1f16 293c a7ab 8a3d
000003f0: df2b c0bd e131 5fbd 2cc5 c1bc af75 423d
-0.03864586 -0.13619891 0.09150057 -0.043288235 0.013612666 -0.07172589 0.027032668 -0.06802407
0.046684545 0.047623247 -0.12836167 0.020966757 0.0495698 -0.006336966 -0.061037913 -0.068690315
-0.036511634 -0.06827837 0.03511387 -0.068041116 -0.08521633 -0.023174625 0.030861313 0.07349728
-0.032486085 0.10711 -0.099138774 -0.11036158 0.020542717 -0.029347053 -0.06952821 -0.03948404
0.074353814 0.011971317 0.035571683 -0.026850421 -0.04743473 -0.0020002665 -0.0032789244 0.021618363
-0.014112722 -0.009244879 -0.055061076 0.0013050158 0.0678736 -0.04392685 0.042441133 -0.0801446
0.15807196 -0.015039752 -0.05184113 0.04822508 -0.028924566 -0.05659912 -0.06621655 -0.07150661
0.04426037 -0.079127975 -0.047865707 0.0401994 -0.018503828 -0.0054375394 -0.017485216 -0.07469216
0.0025798834 0.06339952 -0.08442199 0.055059515 0.038570687 0.06964847 -0.03298512 -0.030392045
0.13158713 0.07994922 -0.024831919 -0.03752942 -0.0129804695 0.056212224 0.07478008 -0.015128599
-0.048739523 -0.124778375 0.036379505 -0.074265726 -0.027404992 0.005189708 0.0113165155 0.040707618
0.044248637 0.089596815 -0.10090757 -0.044843577 0.12323989 0.05784281 0.07913672 0.043175872
0.024455646 -0.06153392 0.032697007 0.0027838913 0.009800963 0.067344815 0.007080246 0.053457167
-0.08945565 -0.015758405 -0.042655624 -0.06419514 -0.032957267 0.12490593 0.09676479 -0.036221284
0.033677798 0.030386403 0.10133951 0.055075344 0.0028923007 -0.051344242 0.07154738 -0.042287506
0.03429438 -0.051257417 -0.041941192 -0.07181227 -0.066289514 -0.017134309 -0.08534576 -0.06377603
0.09658973 -0.047559712 0.10428479 -0.037337266 -0.010476757 -0.020309836 0.02284723 0.01343323
0.006397543 -0.023521949 -0.008629936 -0.05855175 -0.123345 -0.047645465 -0.054765143 -0.012963239
-0.021695012 -0.06318531 -0.018772079 -0.014747213 0.07141921 0.09913627 -0.040052574 0.14629291
-0.08495872 0.012945227 0.06724763 -0.08957199 0.050533876 -0.08830745 0.050229177 -0.08362649
0.0018914519 -0.04529628 0.0030524721 -0.06402254 -0.024150662 0.007939061 0.04811145 -0.011880924
0.0022778169 0.07740833 0.031673007 -0.02855485 0.040634878 0.07096375 0.016208768 0.01901075
0.1304389 -0.020663008 0.0066313627 0.054364383 -0.09290976 -0.00191485 -0.016405625 -0.004313812
-0.07887075 0.07757044 0.018652212 0.00517176 0.05727723 -0.043417815 0.013795259 -0.031071488
0.08388594 -0.13755444 0.055740904 0.009186347 -0.038949687 -0.102908745 0.08088537 -0.12221524
0.09605839 0.0352636 -0.018013801 -0.018103654 0.0021317673 -0.089468226 -0.08053639 -0.05206624
-0.017195743 -0.10533971 -0.09672074 -0.0022816954 -0.039919764 0.06286361 0.07942241 0.14084888
0.10450408 -0.056557227 0.05685765 0.07001474 0.03161898 0.058005046 -0.15498163 0.024502177
0.010275462 -0.0488704 -0.03571282 -0.07206136 0.03320253 -0.07131385 0.060879223 -0.012956037
-0.07287199 -0.019910669 -0.084312215 0.060096722 -0.06461066 0.124509305 0.0517747 -0.05711427
-0.085259706 -0.040419016 -0.0109241055 -0.07188707 0.019392649 -0.02063335 0.10363069 0.100003794
0.04854215 -0.009013706 0.0103202155 0.06771021 -0.09383368 -0.054490928 -0.02365359 0.047475513

lstm.weight_hh_l1 f4 [512, 128]
00000000: 36ca 89bd d210 77bc c3bb d83c 9eba 343d
00000010: ddcf 6bbd 181e 9c3d 963b 95bd 4d6e d3bc
00000020: 0bfe 13bc 02dc 933d 676b 3dbd 3d50 4dbd
00000030: 137c b8bd 192f 3bbb ffa3 523d ed90 9dbd
00000040: 19d0 653d e802 603d ae3d b8bc e97d 40bd
00000050: 8fd9 283d 56b2 8ebd 78aa 8a3d 7133 a63d
00000060: 2474 b33d 0418 b4bd ad84 8b3d aec5 29bc
00000070: 2537 9f3d f4e2 033a c7e4 a7bd b91a 273d
00000080: 22f5 953d 9d4e c8bd d803 b63b 3fb0 303d
00000090: 6aa4 8ebb a331 bbbd 38b9 b83c fcde afbd
000000a0: 1706 fdbc 6306 f23c 8cf3 4dbc ff6b 05bd
000000b0: 5107 1a3c 1623 4ebd d90a a7bc a20a 11bd
000000c0: 4f1f f93b ecee 6bbd aaf6 d7bc 6042 afbd
000000d0: f86c 643d 4969 973d aa2c 47bd da69 e13b
000000e0: a5b9 8cbd bdaa 303c 0409 133c 83b3 00bd
000000f0: 8dc4 ec3c 197d afbc a662 043d 2dde 053c
00000100: f79a b83d 1367 6dbd e69e 6f3d e2c4 0ebd
00000110: 4375 753d aba3 8cbd 8c2a 0abd bbbf 95bd
00000120: c4f5 b73c 1074 043d 54d0 a8bd f1a4 323b
00000130: 9c77 90bd 67c8 9ebd b51d 883c 4784 c33d
00000140: 571e f3bd 33b2 9f3d 15d1 c03c 1c73 54bd
00000150: a74f 6ebd 6b53 2bbc 1b6c d63d cbe7 b6bd
00000160: 9656 23bd 11bc 94bd 191b af3d 467f c4bb
00000170: b812 863d 1545 b9bd e747 68bd 718b cb3c
00000180: 9f49 163d b0ac 4d3d 010c b2bd 5611 853d
00000190: b93d 31bb d5c7 933d 923e 84bd 60d1 803b
000001a0: d8d3 d63b cbf4 223d ad84 343b 47fe 27bd
000001b0: 6d8e 9dbc abca a2bd 4fb7 923b 9120 6f3d
000001c0: 0bfd 6bbd 90bf d7bc 17f5 b6bd 47d0 953d
000001d0: d1f2 d2bb 3c3c 7fbd acfd 23bd bccd 223d
000001e0: 486a 643d a559 d73d 32af 49bc 6de0 e8ba
000001f0: 5ae6 353d 964d e2bc 57de 4f3c 631b 74bb
00000200: 03f9 783d 1018 6c3d f19c 46ba a12b 90bd
00000210: d9eb 183c 49a1 cf3c ec7f fc3c e74c 503d
00000220: f56c b3bc 36d6 16bd 2c3d 113d eccf 003d
00000230: facd 94bd 40c0 1d3d 819d 7f3d fd81 afbc
00000240: fd23 693d 6462 043d e152 43bd 1de7 55bc
00000250: 56ac 21bc c2da 9cbc fe97 a0bd bc3e 9fbd
00000260: 3faa 8fbd ac14 a63c 6ed7 553d 47be 4c3d
00000270: eaca 58be 154f 083d 1983 c83b aa9a 4d3d
00000280: 5c27 813d 81b5 203c 28be 18bd 8b37 743d
00000290: ea1a a8bd 9683 f73c 2c44 c4bd 1d67 d2bd
000002a0: 05a1 0dbd 70d5 b23c d568 6cbd c62e 85bd
000002b0: c767 b6bc 7294 b3bd 35a4 92bc 4e56 963d
000002c0: 90a5 c63c 86fb 953d 7a7c ac3d a1ea 8abd
000002d0: 93e8 fcbd 1f47 5f3d f4f7 903d 074f f83c
000002e0: 74e8 4c3d 4d3a 143d d2b7 30bd 2b79 e93c
000002f0: 0747 8abc 7aa6 b03b e0d3 20bd 8e96 6d3d
00000300: 069a 5e3b ef30 4f3d d3bd 9ebc 8248 cb3c
00000310: a540 773d 67a0 76bc 0bee 59bd 01eb 82bd
00000320: 36d5 1a3d 08a3 46bd 2ca8 f43c 81cf d23c
00000330: 2105 14bd f273 fc38 b2fc 8d3d afd5 983d
00000340: 4709 4fbd e24e 293d cb96 a0bb b603 f7bc
00000350: b6fa 823c 4502 e53d b11a 253c 71ce c63c
00000360: 7a7d a5bd b820 78bd 56bf 9bbc e0bf 5e3d
00000370: 5919 8f3c e153 e1bd e31b 4fbd 1e91 213d
00000380: 8a78 3cbd 9e43 d7bd 4c6c 9e3c 01e4 0dbd
00000390: 9b90 a03b 0041 d8bc 94d3 b93d 565f 963d
000003a0: feec 72bc 5511 48bd 7026 943c c071 a83c
000003b0: 8ba1 94bd 63ea 4bbd bf8b a63d f2c0 733d
000003c0: dadb 873d 365d 093d 16d3 87bc 12e1 6f3d
000003d0: d505 d63d 19d7 883d bb7a 0dbd 5940 b33d
000003e0: 9da7 fe3b 2d88 91bd 64a1 f3bc 7dea 023d
000003f0: f429 e6bc ae34 a03c 47b7 19ba 7a72 0fbb
-0.06728022 -0.015079694 0.02645672 0.044123285 -0.05757128 0.076229274 -0.07286756 -0.025809431
-0.0090327365 0.072196975 -0.046245005 -0.05012535 -0.0900804 -0.0028562008 0.05142593 -0.07693658
0.05610666 0.05469027 -0.022490349 -0.046995077 0.041223105 -0.06967609 0.067707956 0.081152804
0.087623864 -0.08793643 0.06812415 -0.010362072 0.0777419 0.0005031072 -0.08197933 0.04079697
0.07322146 -0.09780619 0.0055546574 0.04313683 -0.004353096 -0.09140327 0.022549257 -0.08587453
-0.030886693 0.029544061 -0.012570273 -0.032573696 0.009401158 -0.05032643 -0.020390915 -0.03541053
0.007602609 -0.0576009 -0.026362736 -0.08557582 0.055767983 0.073931284 -0.04862658 0.0068790736
-0.068713464 0.010782895 0.008974317 -0.031421196 0.028902316 -0.021421956 0.03232064 0.008170647
0.09013932 -0.057959627 0.058501147 -0.03485573 0.059926283 -0.06867155 -0.033731982 -0.0731196
0.022456057 0.03233725 -0.082428604 0.0027258957 -0.07054064 -0.077530675 0.016615728 0.09546714
-0.11871021 0.07797661 0.023537198 -0.05186759 -0.05818143 -0.0104569 0.10469838 -0.0893093
-0.039877497 -0.07262433 0.0855009 -0.0059966175 0.06546539 -0.090463795 -0.056709196 0.024846764
0.036691304 0.050213516 -0.08693696 0.06497447 -0.0027044846 0.07215849 -0.06457247 0.0039312094
0.0065560155 0.039784234 0.0027544901 -0.041013982 -0.019232953 -0.07948812 0.0044774185 0.058380667
-0.057614367 -0.026336461 -0.08933466 0.073151164 -0.0064376374 -0.062313303 -0.040036842 0.039746985
0.05576542 0.10515145 -0.012309836 -0.0017767079 0.044409133 -0.027624886 0.012687287 -0.003724777
0.06078435 0.057640135 -0.00075764867 -0.070395716 0.009333574 0.025345461 0.030822717 0.05085459
-0.02190254 -0.03682538 0.03545873 0.03144829 -0.072658494 0.038513422 0.062406067 -0.021424288
0.056919087 0.032320395 -0.04768646 -0.01305559 -0.009867748 -0.01914728 -0.0784149 -0.077756375
-0.07014894 0.020273529 0.052207403 0.04998615 -0.21171156 0.033278544 0.0061191437 0.050196327
0.06306335 0.009808899 -0.037290722 0.059623282 -0.082082585 0.030214112 -0.09583315 -0.102735735
-0.03457739 0.02183029 -0.057717163 -0.06503062 -0.022266282 -0.08768548 -0.017900566 0.0734068
0.024248868 0.07323365 0.084221795 -0.06783033 -0.123490475 0.054511186 0.07078543 0.03031112
0.050026372 0.036188412 -0.043144055 0.02850016 -0.016879572 0.0053909393 -0.03926456 0.05800491
0.0033966317 0.050583776 -0.019377625 0.024814848 0.060364384 -0.015052891 -0.05320553 -0.0639248
0.03780099 -0.048495322 0.029865347 0.025733711 -0.036137704 0.00012037893 0.069329634 0.07462632
-0.050545957 0.041334994 -0.0049007884 -0.030153137 0.015988689 0.111820735 0.0100771645 0.02426836
-0.080805734 -0.060578078 -0.019012135 0.054382205 0.017468141 -0.11002327 -0.050563704 0.039445035
-0.046013393 -0.10510944 0.01933875 -0.03464127 0.004900051 -0.026398182 0.090735584 0.07342403
-0.014827011 -0.048844654 0.018084735 0.020562053 -0.072573744 -0.049784075 0.08132123 0.05951018
0.0663373 0.03353616 -0.016580146 0.058564253 0.10450331 0.066816516 -0.034540873 0.08752508
0.007771446 -0.071060516 -0.029740043 0.031961907 -0.028096177 0.01955637 -0.0005863797 -0.0021888302

lstm.bias_ih_l1 f4 [512]
00000000: 7f25 57ba 9901 483d d10e 2fbd 82d8 873c
00000010: c452 283c d490 35bc 2b6f 8b3c e173 8a3d
00000020: d60d 90bd a47a a03d 71c4 953c 8e9f 3dbd
00000030: 7e58 c33a a6e8 60bd 9496 c33c 0ae6 3fbd
00000040: ebfa f33c 2f85 39bd 8ab5 3a3d 419f 5dbd
00000050: a086 9bbc 18ba 323c 4a0e c03d 8cbc 15bd
00000060: 4614 843d 66b7 aabd 3325 ee3c c6f8 a9bd
00000070: fe15 5f3f 6b1c 81bc 5718 623b 4861 a6bd
00000080: 94b4 89bd 97af 823d 4f10 cc3b 10e2 f63c
00000090: b30b 443c 5922 a4bc b0d2 113c 14c3 723d
000000a0: 71de 85bd aa3c 0bbd 1522 b93b 0aa2 02bc
000000b0: 319c 243d 7d7a 80bb 578e 063d 4124 b7bc
000000c0: 21a2 ab3b a0fd 27bc 1d8f 60bd 21d3 913c
000000d0: bba6 bf3e 38ad 38bd 8fd6 b13d 9e44 873d
000000e0: d70a b6bb e762 ef3c 0349 fbbc 2d10 dcbc
000000f0: 0425 e3ba c5fc 2abd 54e6 833d 2488 c03c
00000100: f7e6 5e3c 6163 1cbd abb6 04bd efb4 a9bd
00000110: 5781 5bbc 46c6 0b3d 8369 793d 7f72 88bd
00000120: e283 b23d 66a1 1bbc f79e 093d 6b86 42bd
00000130: c792 fa3c 25ca ad3c 4083 243d ca85 9d3d
00000140: 4fe8 3e3d b232 253d c52c cc3d 3221 953b
00000150: 2e39 aa3d 9adc 75bd 9688 2cbd 7e0a 2fbd
00000160: ef5b 9b3d 7f7c 903d 94d1 b63d 16ba 183d
00000170: 867c b23d 6ae2 8b3d 551d 9cbd c6de 62b9
00000180: 5d90 533d ea0c c4bd c088 40bd d797 403d
00000190: 0fd8 633d ce9f 84bd 30ff d53b 90a8 76bc
000001a0: c3f5 5cbd f883 bcbc 6898 6dbd bde4 efbc
000001b0: 124f 153c c229 c93d 83aa 98bd 3f21 e53c
000001c0: 83bc 39bd 13d1 0a3b 6fb9 d33c c40c 303d
000001d0: e457 393d 26dd 71bd b9ed a3bd 31d7 64bb
000001e0: bc42 283d 1751 443d 7330 16bd be2b a6bc
000001f0: 3f89 83bc 8733 02bd f78d 9fbd 9151 2dbc
00000200: af18 7cbd 0698 cf3c cc2b 93bc 153e 853d
00000210: a68d 203d 00bb 783c 40c0 a23c 9853 fc3b
00000220: 0d0b e63c 612b 853d 8b22 99bd e3e7 b53b
00000230: 14b3 603d bd23 15bd bda5 973d 4243 5dbd
00000240: be9f 73bb 4e26 d7bc ade5 51bd 26c6 87bd
00000250: 9873 1a3d fbbd 49bd fa3d af3d ebe3 563d
00000260: 8c8e 023d f739 57bd e387 07bd 85e8 d0bc
00000270: 3b26 cebd f051 be3b 9763 afbd 0327 963d
00000280: c79c b1bc 9040 b3bc e66f 3e3d 787a 79bd
00000290: e9cb b8bd 2615 923d 1cc2 73bd b446 bbbc
000002a0: 211a b5bd 5995 56bd 5539 473d 44a6 883d
000002b0: a9e3 a03d 32b8 0a3d ae0a 883d abc9 8f3d
000002c0: bc84 a6bd 0404 3b3d 0a69 d2bd 5c01 5c3c
000002d0: c548 e5bc 740e 433b 5bc0 fd3c a6cd b9bc
000002e0: b752 153d f2a2 173d 8616 10bc 1702 a0bb
000002f0: f475 18bd 2bc1 adbd 7972 653c 2c0e f639
00000300: 134c e2bc 6ddd b0bd b24a 92bd 28cb 8d3d
00000310: 0763 433c 4dd9 bb3c 2905 93bd 2fae 423d
00000320: c29f 8b3c e50e 373d fdc2 85bd dde0 c7bd
00000330: cac3 55bd 671d d03c 3ca7 51bc fbb3 033d
00000340: 1491 563d e960 5fbd ec3f 733d 101c 6d3d
00000350: e9a7 ee3c 343d 663b 0d2c f4bc 6239 0abd
00000360: 104b 79bd 3762 8c3d 2cd8 e43b c70a 443d
00000370: e783 39bd 3e91 db3c 2c7f 703d b030 0f3d
00000380: ed73 673b 910d de3b dc7b 9e3d 5288 77bd
00000390: 5372 8d3d 5782 81bd 7b97 ef3a eaab 2bbc
000003a0: 50e4 c93d 7285 b03d e498 513d 28ec 3fbd
000003b0: 228a 043d 36ff 73bc 52c3 0d3d 420d 5ebd
000003c0: 21d9 bfbd 1c10 13bd fe41 a1bd 3d29 7fbd
000003d0: e1ee 55bc 6fc0 a6bd 971b 9cbd 5dd9 46bc
000003e0: 3f8d 493c 7919 62bd 41ce 0a3d a99f 86bd
000003f0: 9367 a0bd ad28 2dbd 8d15 c1bc 1c42 74bd
-0.00082071865 0.04882965 -0.04273874 0.016582731 0.010273639 -0.011081893 0.017020782 0.067603834
-0.07033889 0.07835892 0.018282147 -0.04629474 0.0014903692 -0.05490937 0.023875512 -0.04685024
0.029782733 -0.04529303 0.045583285 -0.054106954 -0.018985093 0.010908626 0.093777254 -0.036556765
0.06449179 -0.08335762 0.029070472 -0.08299403 0.8714293 -0.015760621 0.003449937 -0.08124024
-0.06723896 0.06381147 0.00622753 0.030137092 0.01196568 -0.02003591 0.0089003295 0.059268072
-0.06536568 -0.0339934 0.005649815 -0.007973203 0.04018802 -0.0039208517 0.03285059 -0.022356154
0.005237833 -0.01025334 -0.054823983 0.01780087 0.37431893 -0.04508707 0.08683502 0.066048846
-0.0055554914 0.029221965 -0.030674463 -0.026863182 -0.0017329757 -0.041744966 0.06440416 0.023502417
0.013604871 -0.038180713 -0.03240077 -0.082864635 -0.013397536 0.034124635 0.06089164 -0.066624634
0.08716561 -0.00949893 0.033598866 -0.047491472 0.030587567 0.021214554 0.040164232 0.07691534
0.046608265 0.04033155 0.099694766 0.0045510763 0.083116874 -0.060024835 -0.042122446 -0.042734616
0.07585894 0.07054996 0.089266926 0.03728684 0.08715157 0.068302944 -0.07622782 -0.00021636029
0.051651347 -0.09572776 -0.047005415 0.047019806 0.05562597 -0.06475793 0.006530665 -0.015054837
-0.053945314 -0.023012146 -0.058006674 -0.029283876 0.00911309 0.09822418 -0.074543975 0.027969955
-0.045345794 0.0021181747 0.025845258 0.042980924 0.045249835 -0.059048794 -0.080043264 -0.0034918303
0.041079268 0.047928896 -0.0366673 -0.02028453 -0.016056655 -0.03178742 -0.077907495 -0.010578529
-0.061546978 0.025341045 -0.01796522 0.06505982 0.039197586 0.015181303 0.019867063 0.007700395
0.028081441 0.065024145 -0.07477292 0.0055513247 0.054858282 -0.036411036 0.07404659 -0.05401922
-0.0037174071 -0.026263382 -0.051244427 -0.06629591 0.037707895 -0.049253445 0.08556743 0.052463453
0.031874225 -0.052545514 -0.033088576 -0.025501499 -0.10065886 0.0058081076 -0.08563917 0.0733166
-0.021681203 -0.021881372 0.046493433 -0.06090781 -0.09023268 0.0713294 -0.05951129 -0.022860862
-0.08842874 -0.052388523 0.04863866 0.06672338 0.07855923 0.03386707 0.06642662 0.07020887
-0.08130786 0.045658126 -0.10273941 0.0134280585 -0.0279888 0.0029763253 0.030975511 -0.022681069
0.036455836 0.03702063 -0.0087944325 -0.0048830616 -0.037221864 -0.084841095 0.014004343 0.00046931335
-0.027624166 -0.086359836 -0.07143153 0.069235146 0.011925465 0.022930766 -0.071787186 0.047529396
0.017043952 0.04469194 -0.06531332 -0.09759686 -0.052188672 0.025404645 -0.012796219 0.032154065
0.05238445 -0.05453578 0.059387133 0.05788809 0.0291328 0.0035131695 -0.029806161 -0.03374613
-0.0608626 0.068546705 0.0069837775 0.04786184 -0.045291808 0.026802655 0.05871503 0.03495854
0.00353169 0.0067765196 0.07738468 -0.06043274 0.06906571 -0.063236885 0.0018279398 -0.010477999
0.09858 0.08619203 0.0511712 -0.046856076 0.032358296 -0.01489239 0.0346101 -0.054211862
-0.09367586 -0.035904035 -0.07873915 -0.062295187 -0.013057441 -0.081421725 -0.0762245 -0.012136784
0.012301742 -0.055200074 0.033888105 -0.065734215 -0.07832255 -0.04227512 -0.023569847 -0.05963336
